models/aamabc_8_4_4_target_net.pt (torch, 5716 bytes, 6 tensors)

weight f4 [8, 8]
-0.39440888 -0.049379166 0.17424023 0.11398778 0.15178545 0.1253196 -0.02465595 0.27273148
-0.28448492 0.44520375 0.20013152 -0.14483824 -0.09239765 0.03997343 -0.17922066 -0.8533657
0.07882214 0.042567104 0.39781946 0.1381642 -0.60174686 0.14399873 0.45438644 0.50705814
-0.24059306 -0.36303642 -0.16731894 -0.1456107 0.44781542 -0.06948096 -0.11732999 -0.1945705
0.5382118 -0.31846824 0.009712456 0.11549697 0.12845744 -0.07984801 -0.46815756 -0.28028917
-0.27868128 0.081136174 0.23771691 -0.2044476 0.041032486 -0.11207865 -0.35485145 -0.15663813
0.14225914 0.38229316 -0.46589848 0.028468093 0.41460678 0.41789573 0.21348882 0.24984455
-0.042990085 0.2889496 -0.7333528 -0.35767433 0.1771464 -0.39358842 -0.37611696 -0.40165794
00000000: f6ef c9be cf41 4abd 086c 323e 6d72 e93d
00000010: a56d 1b3e c853 003e 46fb c9bc 76a3 8b3e
00000020: 02a8 91be bff1 e33e 47ef 4c3e 7a50 14be
00000030: fb3a bdbd 2ebb 233d 9f85 37be 2d76 5abf
00000040: 816d a13d d85a 2e3d feae cb3e eb7a 0d3e
00000050: 150c 1abf 6774 133e 57a5 e83e 90ce 013f
00000060: 075e 76be e9df b9be a855 2bbe f91a 15be
00000070: 1048 e53e 094c 8ebd b54a f0bd 7d3d 47be
00000080: 40c8 093f 450e a3be fe20 1f3c ad89 ec3d
00000090: 598a 033e 5a87 a3bd 59b2 efbe 1082 8fbe
000000a0: 50af 8ebe b92a a63d 106c 733e b65a 51be
000000b0: ae11 283d 7e89 e5bd 17af b5be bf65 20be
000000c0: 61ac 113e eebb c33e 3f8a eebe eb35 e93c
000000d0: 5747 d43e 6ef6 d53e d09c 5a3e 40d7 7f3e
000000e0: 5f16 30bd 34f1 933e 02bd 3bbf 1721 b7be
000000f0: de65 353e 6c84 c9be 6792 c0be 1ca6 cdbe

bias f4 [8]
-0.15987608 -0.16383575 1.2512797 0.6362491 0.6994498 0.8646015 0.4104751 0.75526494
00000000: 8eb6 23be 8fc4 27be ef29 a03f 39e1 223f
00000010: 240f 333f 8656 5d3f cb29 d23e 0b59 413f

weight f4 [8, 8]
-0.06840335 -0.036696676 -0.36200938 -0.27298328 -0.23797359 -0.18267512 0.22274126 -0.1433461
-0.2642038 0.13602963 0.113197036 0.22899322 -0.18295403 0.07665568 -0.12871133 -0.0794345
-0.15334778 0.1925396 0.26163265 0.49789694 0.31456083 0.6224202 0.48718983 0.7223008
0.10092978 -0.28661186 0.57146573 0.5453123 0.3545125 0.37863192 -0.12598221 0.2715562
-0.22803763 0.32488233 -0.30565435 -0.27558875 -0.012005361 -0.19117178 0.12650554 -0.13609175
-0.19356322 -0.73582226 1.6284083 -0.008371646 0.43711212 0.61339504 0.5550855 -0.049988434
0.071342915 -0.2746727 0.24923453 -0.19978932 0.15834388 -0.027974943 -0.15908895 -0.03660102
0.09220505 0.6886357 -0.040670257 0.02045323 -0.55304253 -0.034351747 0.40721625 0.08275559
00000000: 0e17 8cbd 414f 16bd 4b59 b9be 77c4 8bbe
00000010: 59af 73be 300f 3bbe 4916 643e 52c9 12be
00000020: b845 87be 5a4b 0b3e d9d3 e73d 337d 6a3e
00000030: 4d58 3bbe a7fd 9c3d e7cc 03be 8eae a2bd
00000040: 3307 1dbe 1a29 453e b7f4 853e 59ec fe3e
00000050: 1e0e a13e ee56 1f3f f270 f93e b5e8 383f
00000060: 46b4 ce3d cabe 92be 944b 123f 9699 0b3f
00000070: aa82 b53e 0bdc c13e 7b01 01be 6a09 8b3e
00000080: b282 69be fa56 a63e ba7e 9cbe f819 8dbe
00000090: 22b2 44bc 89c2 43be ab8a 013e a35b 0bbe
000000a0: 7035 46be d95e 3cbf af6f d03f 3a29 09bc
000000b0: 29cd df3e 7507 1d3f 151a 0e3f acc0 4cbd
000000c0: 3c1c 923d e6a1 8cbe 5637 7f3e 9295 4cbe
000000d0: e624 223e b52b e5bc 37e8 22be f3ea 15bd
000000e0: 00d6 bc3d 6e4a 303f db95 26bd 888d a73c
000000f0: 3294 0dbf 6bb4 0cbd a67e d03e c37b a93d

bias f4 [8]
0.23058344 -0.25513524 0.3049433 0.84962225 -0.26928696 0.8811024 -0.31441945 -0.43390772
00000000: 111e 6c3e 16a1 82be 8721 9c3e d880 593f
00000010: fbdf 89be ed8f 613f 96fb a0be 2729 debe

weight f4 [4, 8]
0.19833069 -0.25402424 0.26288867 0.44674706 0.2800457 0.31368315 -0.081996396 0.09080148
0.37634057 -0.07531612 -0.12701449 0.23903109 -0.24724855 0.89996433 0.2249312 -1.0296125
-0.26118407 -0.030970009 0.52154136 0.4277621 -0.179279 0.45269656 -0.31925172 -0.21130586
-0.20808241 0.29116192 0.2958611 0.50018823 0.015856992 0.329763 0.05551337 -0.045849364
00000000: 3317 4b3e 770f 82be 5899 863e 08bc e43e
00000010: 2662 8f3e 149b a03e baed a7bd 20f6 b93d
00000020: b6af c03e 573f 9abd 1610 02be 91c4 743e
00000030: b92e 7dbe 1064 663f 5d54 663e 58ca 83bf
00000040: ebb9 85be d1b4 fdbc bc83 053f a203 db3e
00000050: ea94 37be d8c7 e73e f674 a3be 9060 58be
00000060: 8e13 55be 2d13 953e 1b7b 973e 560c 003f
00000070: 86e6 813c b2d6 a83e fd61 633d 8bcc 3bbd

bias f4 [4]
0.6019606 0.6528602 0.3724507 0.35723054
00000000: 171a 1a3f d921 273f dcb1 be3e ece6 b63e
