models/boxPushingUAI07_128_64_64_transition_net_0.pt (torch, 22839 bytes, 4 tensors)

weight_ih f4 [64, 9]
0	0x3d83e84a	0.0644079
1	0xbd61fc54	-0.05517228
2	0xbcc683a0	-0.024232686
3	0x3d705120	0.058671117
4	0xbdf10202	-0.11767961
5	0x3d998712	0.07496466
6	0xbcd2a9a8	-0.025715664
7	0x3d823d0a	0.063592985
8	0x3c8e5a78	0.017377123
9	0xbc7ac400	-0.015305519
10	0x3d0e0240	0.034670115
11	0x3bca1020	0.006166473
12	0x3d3aff30	0.045653522
13	0xbd4786e4	-0.048712626
14	0xbc155130	-0.009113595
15	0xbc386040	-0.011253417
16	0x3c946c30	0.018117994
17	0xba02e700	-0.0004993528
18	0x3ddfc964	0.10927084
19	0x3d1f5450	0.038898766
20	0xbd3eac08	-0.04655078
21	0xbd9a9d36	-0.07549517
22	0xbcaba370	-0.020951957
23	0xbd5cd8b0	-0.053917587
24	0xbd2411d4	-0.040056065
25	0x3bc41f80	0.0059852004
26	0x3d989bd4	0.07451597
27	0x3d8b2538	0.06794208
28	0xbdfa40c6	-0.12219386
29	0x3d9eb31c	0.07749006
30	0x3d0f08c8	0.034920484
31	0x3df2d488	0.11856943
32	0x3da8f9ae	0.082507476
33	0xbde94052	-0.11389221
34	0xbdf3682e	-0.11885105
35	0xbd76f43c	-0.060291514
36	0x3de0cbee	0.109763965
37	0xbcaa9110	-0.020821124
38	0x3d5b1d80	0.05349493
39	0xbd6deea8	-0.05808893
40	0x3dfb311a	0.12265225
41	0xbd58a05c	-0.052887306
42	0x3dbffb12	0.0937406
43	0x3ac20380	0.0014802068
44	0xbd86dd82	-0.06585218
45	0x3d83967a	0.064251855
46	0xbd87e3d4	-0.06635252
47	0x3d1694e4	0.036763087
48	0xbd13d7fc	-0.03609465
49	0xbc608800	-0.0137043
50	0xbdf61d88	-0.120173514
51	0xbd741cbc	-0.059597716
52	0x3d8aea10	0.06782925
53	0xbcf8e940	-0.03038466
54	0x3dfefd1a	0.12450619
55	0x3dcd34e6	0.10019855
56	0xbbbfca20	-0.0058529526
57	0xbdaae02c	-0.08343539
58	0x3d9be4f2	0.07612027
59	0x3d1ee720	0.038794637
60	0xbda57bc4	-0.08080247
61	0x3da6488e	0.081193075
62	0x3d9b6b06	0.075887725
63	0x3de30b8c	0.11086187
64	0xbd8f80d6	-0.070069954
65	0xbca88e78	-0.020575747
66	0xbb1eb1c0	-0.0024214834
67	0x3c959018	0.018257186
68	0xbdc24878	-0.094864786
69	0xbdb5a9d0	-0.0887028
70	0x3d8b43e2	0.06800057
71	0xbcf01ea8	-0.029311493
72	0x3d7a1930	0.061059177
73	0x3be98340	0.007126242
74	0x3d281cd0	0.041043103
75	0x3ce12a80	0.027486086
76	0x3d3a29b4	0.045449927
77	0x3d7dcdcc	0.06196384
78	0xbded15ae	-0.11576401
79	0x3d80dba4	0.06291893
80	0xbdb3ffe2	-0.0878904
81	0xbdc12780	-0.09431362
82	0x3bf91880	0.0076017976
83	0xbcae7f38	-0.021300897
84	0x3d965ade	0.0734155
85	0xbd94423c	-0.07239196
86	0xbde39452	-0.11112274
87	0x3dba4f0e	0.0909711
88	0xbc97d730	-0.018535227
89	0x3d8ffd32	0.07030715
90	0x3d2499a0	0.04018557
91	0xbdbff7d4	-0.09373441
92	0x3ccdb848	0.025112286
93	0x3cf5f618	0.030024573
94	0xbdab6832	-0.08369483
95	0xbd72ee08	-0.059309036
96	0x3d2e945c	0.042621955
97	0x3cb76be8	0.02239032
98	0xbd59ca70	-0.053171575
99	0xbd1afd94	-0.037839487
100	0x3dea774a	0.11448534
101	0xbcbd7638	-0.02312766
102	0x3d9054a6	0.070473954
103	0x3d5db298	0.0541254
104	0xbda57af0	-0.08080089
105	0xbdd9b5c0	-0.10630369
106	0x3df5bb44	0.11998609
107	0x3bd5e140	0.006527096
108	0x3daf7a2e	0.08568226
109	0x3cd43478	0.025903925
110	0x3d24abbc	0.04020284
111	0x3dbf38ae	0.09336983
112	0x3df2be32	0.11852683
113	0xbda9e072	-0.08294763
114	0x3c800798	0.015628621
115	0x3dbf0ab8	0.09328216
116	0x3db97494	0.09055439
117	0x3d9f097c	0.07765481
118	0xbdb945a4	-0.09046486
119	0xbdb858c0	-0.09001303
120	0xbd9ad250	-0.07559645
121	0x3c80a4b8	0.015703544
122	0x3dff256e	0.12458311
123	0xbda1b57e	-0.07895945
124	0x3d886ae2	0.06661011
125	0xbd8db166	-0.06918602
126	0xbdf0b1fa	-0.11752696
127	0xbcd9a400	-0.02656746
128	0x3d937ff0	0.072021365
129	0x3deda9fa	0.11604686
130	0xbd9efc66	-0.07762985
131	0x3cde3830	0.027126402
132	0x3ddce468	0.107857525
133	0x3da9a3aa	0.082831696
134	0x3d9f8b8c	0.07790288
135	0x3db5ec04	0.08882907
136	0x3da1ec98	0.07906455
137	0x3d043f6c	0.032287046
138	0xbdaf0ed6	-0.085477516
139	0xbdd6fa6a	-0.104969814
140	0xbd6a9be4	-0.057277575
141	0xbc6e7b30	-0.014555737
142	0xbd9cea70	-0.07661903
143	0x3d3b512c	0.04573171
144	0x3d1e7530	0.038685977
145	0xbce7dea8	-0.028304413
146	0x3d44c850	0.048042595
147	0x3d257878	0.04039809
148	0x3d9c4c48	0.07631737
149	0x3dac66ce	0.08418046
150	0xbd2d63e4	-0.04233159
151	0x3dfa1e5a	0.1221282
152	0xbc6cc3c0	-0.014450967
153	0xbb8cb8e0	-0.0042944998
154	0xbdf1a220	-0.11798501
155	0xbda4c408	-0.080452025
156	0xbd958e5c	-0.073025435
157	0xbd5afe80	-0.053465366
158	0x3db6021a	0.088871196
159	0xbd274fd8	-0.04084763
160	0xbdbf4dd2	-0.09341015
161	0x3d44fdf0	0.048093736
162	0x3d23ed44	0.040021196
163	0x3da5cf0e	0.08096133
164	0xbd84790e	-0.06468402
165	0x3cde04c0	0.027101874
166	0xbd3a64d8	-0.04550633
167	0xbce61120	-0.028084338
168	0xbdcc02d8	-0.0996148
169	0xbd695980	-0.05697012
170	0xbd1ccdd0	-0.038282216
171	0x3d5af304	0.053454414
172	0x3cbb12f0	0.022836179
173	0x3cfcf1e0	0.030877054
174	0x3dff83d2	0.124763146
175	0x3df98130	0.12182844
176	0x3dae9aa4	0.08525589
177	0x3b826e60	0.003980443
178	0xbdb1193e	-0.08647393
179	0x3dc81104	0.097688705
180	0xbd000850	-0.031257927
181	0xbc259240	-0.0101056695
182	0xbddc8b32	-0.10768737
183	0xbcca44f0	-0.024691075
184	0xbda51dec	-0.08062348
185	0x3deb3d6c	0.11486325
186	0xbddd5140	-0.10806513
187	0xbdc78c2e	-0.09743534
188	0xbb8b15c0	-0.004244536
189	0xbd8a6c54	-0.06758943
190	0x3d373318	0.04472646
191	0xbd4514f8	-0.0481157
192	0xbd707ae4	-0.058710948
193	0x3be7fce0	0.0070797056
194	0x3db95160	0.09048724
195	0xbdb41394	-0.08792797
196	0x3d70703c	0.058700785
197	0x3da4770a	0.080305174
198	0x3dfa6b22	0.12227465
199	0xbdb32eac	-0.08749136
200	0x3cf800a0	0.030273736
201	0xbdbd4b14	-0.09242836
202	0x3dda8f60	0.10671878
203	0xbd469ba8	-0.04848829
204	0x3d9a33ca	0.07529409
205	0x3b73e340	0.003721431
206	0xbc1f80f0	-0.009735331
207	0xbb82b1c0	-0.0039884746
208	0x3cae1308	0.02124931
209	0x3d715ad4	0.05892451
210	0x3ca43aa0	0.020047486
211	0x3d1c3028	0.038131863
212	0xbde64740	-0.112440586
213	0x3dba816e	0.09106718
214	0x3ddf327a	0.108982995
215	0x3dd39c70	0.103325725
216	0x3dbd3db2	0.09240283
217	0xbdb8bcd6	-0.090203926
218	0xbd3dcc64	-0.0463375
219	0x3de1b8c0	0.110215664
220	0xbdc2fc0e	-0.09520732
221	0x3de83fa6	0.11340265
222	0xbdc957ce	-0.098312005
223	0xbdb4541e	-0.088051066
224	0x3d7a4e38	0.06110975
225	0xbdb7eee6	-0.08981113
226	0xbcea9960	-0.028637588
227	0x3dba3ce8	0.09093648
228	0x3dcac656	0.09901111
229	0x3df21d0c	0.118219465
230	0xbccfc998	-0.025364682
231	0xbdc6fa90	-0.0971576
232	0x3dfc0f76	0.123076364
233	0xbcda2388	-0.02662827
234	0xbd52a7a0	-0.05142939
235	0x3cf99fd8	0.030471727
236	0xbdb306ee	-0.08741556
237	0x3da84384	0.082160026
238	0x3da0718e	0.07834159
239	0xbdcb2196	-0.099185154
240	0xbdd24576	-0.10267155
241	0xbc3365c0	-0.010949552
242	0x3d570d94	0.052503183
243	0xbb6d4200	-0.003620267
244	0xbd81cfd6	-0.0633847
245	0x3b3b4a00	0.0028578043
246	0xbdf09f66	-0.11749153
247	0xbdb4ee4a	-0.088345125
248	0xbdaa6a9e	-0.08321117
249	0x3dd2d2e2	0.10294129
250	0x3de1aa5e	0.11018823
251	0xbd2de8cc	-0.04245834
252	0x3bb7b500	0.0056062937
253	0x3d645738	0.05574724
254	0x3c7562d0	0.014977172
255	0xbd803152	-0.06259407

weight_hh f4 [64, 64]
0	0x3c69b920	0.014265329
1	0xbce5a728	-0.028033808
2	0x3d3cea70	0.046122015
3	0xbd2a486c	-0.041572973
4	0x3dbbe468	0.091744244
5	0x3ceb3330	0.028710932
6	0xbd1d6838	-0.03842947
7	0x3de425bc	0.1114001
8	0x3d02b5e4	0.031911746
9	0xbdadf99c	-0.08494875
10	0xbd8e79a4	-0.06956795
11	0x3da0840e	0.078376874
12	0x3d69d754	0.05709012
13	0x3dc7e220	0.09759927
14	0xbc1d5190	-0.009601966
15	0x3db30d3a	0.08742757
16	0x3d7e8e2c	0.062147304
17	0x3d1e56f4	0.038657144
18	0xbced0028	-0.028930739
19	0x3df6c7f4	0.12049857
20	0x3ccf3870	0.025295466
21	0xbd041a60	-0.032251716
22	0xbae8f100	-0.0017772019
23	0x3dfba910	0.122881055
24	0x3dabf150	0.08395636
25	0xbc17c500	-0.009263277
26	0x3dfaf93c	0.12254569
27	0x3d60d65c	0.05489193
28	0xbd884c7c	-0.06655213
29	0xbde8fa48	-0.11375862
30	0x3d94c580	0.07264233
31	0x3df015ce	0.11722909
32	0xbd9526e8	-0.072828114
33	0x3d524a44	0.051340356
34	0x3bae5f40	0.0053214133
35	0xbcdaf2f8	-0.026727185
36	0xbd0b37d8	-0.033988804
37	0x3d0e7070	0.034775198
38	0x3ce1bf48	0.02755703
39	0x3dace796	0.08442609
40	0x3d3b6e14	0.045759276
41	0x3d68fd44	0.056882158
42	0x3de1d50a	0.11026962
43	0x3d1f6de4	0.03892316
44	0x3c980150	0.018555313
45	0xbd3a66a8	-0.045508057
46	0x3dbbbf68	0.09167367
47	0x3c9739c8	0.01846017
48	0x3da50270	0.080571055
49	0x3df7349c	0.12070581
50	0xbce50548	-0.02795662
51	0x3db43ff4	0.088012606
52	0xbccff458	-0.025385067
53	0x3de705a2	0.11280371
54	0x3dc97f14	0.09838691
55	0xbd3784e0	-0.044804454
56	0x3b92e600	0.0044829845
57	0xbd5f982c	-0.05458848
58	0xbd4f13b4	-0.0505559
59	0xbccf53a0	-0.02530843
60	0xba5f6700	-0.0008522123
61	0xbd327acc	-0.04357414
62	0xbdf1a9e0	-0.11799979
63	0xbd9ad5f8	-0.075603426
64	0xbc2f0280	-0.010681748
65	0xbd237228	-0.03990379
66	0x3dbe2536	0.09284441
67	0x3dd01764	0.101607114
68	0x3da31688	0.07963282
69	0x3d629a0c	0.05532269
70	0xbdcaf28c	-0.099095434
71	0x3df1dc18	0.11809558
72	0xbde196fc	-0.11015126
73	0xbd2852d0	-0.0410946
74	0xbdb42d40	-0.08797693
75	0x3d381d80	0.04495001
76	0xbdd50586	-0.10401444
77	0xbd7c69c4	-0.061624303
78	0xbda29d38	-0.07940143
79	0xbd9d5c0c	-0.07683572
80	0xbd6f02d8	-0.05835232
81	0x3dfba718	0.1228773
82	0xbc2746e0	-0.010209769
83	0x3d1c1278	0.03810355
84	0xbdfe208a	-0.1240855
85	0x3de39d0a	0.11113937
86	0xbcdefb80	-0.027219534
87	0xbdeaf142	-0.114717975
88	0x3db06cc0	0.086144924
89	0xbd0a7110	-0.03379923
90	0x3de87b56	0.113516495
91	0xbdade228	-0.084904015
92	0xbdedadc2	-0.11605407
93	0xbdc0522a	-0.093906716
94	0x3d5dc98c	0.05414729
95	0xbc65ad40	-0.014018357
96	0xbded29d0	-0.11580241
97	0x3cbdddf0	0.023177117
98	0xbc028b10	-0.007967725
99	0x3d38f854	0.0451587
100	0xbd8238da	-0.063585
101	0xbdb6c166	-0.089236066
102	0x3dae7c42	0.08519794
103	0xbd765ff0	-0.060150087
104	0x3db4144e	0.08792935
105	0x3dcf90f8	0.101350725
106	0xbdb3077a	-0.087416604
107	0xbd6c0d78	-0.057630032
108	0x3c768a20	0.01504758
109	0xbdf15fac	-0.11785826
110	0x3d1d3d38	0.03838846
111	0xbd5554b8	-0.052082747
112	0xbd630268	-0.055422217
113	0xbdc5e7b4	-0.096633345
114	0x3d6f85e8	0.058477312
115	0xbda322a0	-0.079655886
116	0xbdcc9f0c	-0.09991273
117	0xbd06a4bc	-0.032871947
118	0xbd8e8404	-0.06958774
119	0xbdf8e1f6	-0.12152474
120	0x3d4e57e8	0.050376803
121	0xbd42cc68	-0.04755822
122	0x3db351b6	0.087558195
123	0x3db433ea	0.08798964
124	0xbda344f0	-0.07972133
125	0xbd953db0	-0.072871566
126	0xbd35bcec	-0.044369623
127	0x3d95f40a	0.073219374
128	0xbb8cff20	-0.004302874
129	0xbd36e8c8	-0.04465559
130	0x3d9e964a	0.07743509
131	0x3df2c6d2	0.11854328
132	0x3dbd429c	0.0924122
133	0xbdc3c3be	-0.09558819
134	0xbcd4af28	-0.025962427
135	0xbcc46a68	-0.02397652
136	0x3dda789a	0.10667534
137	0xbd8467c4	-0.06465104
138	0xbd92b8aa	-0.07164128
139	0x3b002b80	0.0019557178
140	0xbceddfb8	-0.029037341
141	0x3d41cd0c	0.04731469
142	0x3c78f030	0.015193984
143	0xbd98d87a	-0.07463165
144	0x3dba266c	0.0908936
145	0x3d9f5ac2	0.077809826
146	0x3ce03df8	0.027373299
147	0xbde7b63a	-0.11314054
148	0x3d709940	0.0587399
149	0x3daa1a38	0.08305782
150	0x3d0e8a94	0.034800127
151	0xbd45e900	-0.04831791
152	0x3c095a50	0.008383349
153	0xbd44b08c	-0.04801993
154	0x3df10324	0.11768177
155	0x3df7329c	0.120702
156	0xbc6ea990	-0.014566794
157	0xbdac3c74	-0.08409968
158	0x3d9697b8	0.07353157
159	0x3d82a868	0.06379777
160	0x3d87b314	0.06625953
161	0xbdc0a0c0	-0.09405661
162	0x3d2d9cb8	0.042385787
163	0xbd5a7f04	-0.053343788
164	0xbde1030a	-0.10986908
165	0xbdb2c246	-0.08728461
166	0x3d590a48	0.05298832
167	0x3d3fae90	0.046797335
168	0xbde0aec6	-0.109708354
169	0x3d912bf0	0.070884585
170	0x3dc4284e	0.09578
171	0x3dc25638	0.09489101
172	0x3d908c6c	0.07058033
173	0xbca0bf18	-0.01962237
174	0x3dab896e	0.08375822
175	0x3dc86ace	0.097859964
176	0x3d8572b4	0.065160185
177	0xbdb820ca	-0.08990629
178	0xbd32b110	-0.04362589
179	0x3dcaced4	0.099027306
180	0x3dc32b18	0.09529704
181	0x3da35922	0.07975985
182	0xbd55fee4	-0.052245036
183	0xbccacd28	-0.02475603
184	0xbdbeb8f2	-0.09312619
185	0xbd91e508	-0.07123762
186	0x3dc483a6	0.095954224
187	0xbdd21e90	-0.102597356
188	0xbcfd0e68	-0.030890658
189	0x3cd95d00	0.026533604
190	0xbd999a68	-0.07500154
191	0x3ceeb1f0	0.029137582
192	0xbca49cd0	-0.020094305
193	0x3d4cc2cc	0.04999046
194	0xbdc47340	-0.09592295
195	0x3c8d50f0	0.017250508
196	0xbde966d4	-0.11396566
197	0x3d9ed20a	0.077549055
198	0x3df8abb6	0.12142126
199	0xbd36be84	-0.044615284
200	0x3c976b48	0.018483773
201	0xbd83e4d4	-0.0644013
202	0xbda3c268	-0.079960644
203	0xbd81a718	-0.06330699
204	0xbd73ea4c	-0.059549615
205	0x3cc260b0	0.023727745
206	0xbc6ac1a0	-0.01432839
207	0x3c0f9920	0.008764535
208	0xbdc42e46	-0.095791385
209	0xbda0d5c6	-0.07853274
210	0xbddd9fdc	-0.108215064
211	0xbdb7ff98	-0.089842975
212	0x3dd660f4	0.10467711
213	0x3d3e387c	0.046440586
214	0xbdf4259e	-0.119212374
215	0xbcaae8f0	-0.020863026
216	0x3c245d30	0.010031983
217	0x3d88c2f2	0.06677808
218	0x3ded6dba	0.11593194
219	0x3cf74568	0.030184463
220	0x3db455d6	0.088054344
221	0xbd363134	-0.044480518
222	0xbb85d540	-0.0040842593
223	0xbd9a89e2	-0.0754583
224	0x3cebe638	0.0287963
225	0x3dec4d60	0.115381956
226	0x3da0c338	0.07849735
227	0x3dfebda6	0.12438516
228	0xbd66b394	-0.056323603
229	0xbc802018	-0.015640303
230	0x3cd33958	0.02578418
231	0x3dcdd126	0.100496575
232	0xbdeb5362	-0.114905134
233	0xbd7b72e8	-0.06138888
234	0x3c948ac0	0.018132567
235	0xbd93f80c	-0.072250456
236	0x3d3f4358	0.046695083
237	0xbc0b9f50	-0.00852187
238	0xbd04ac6c	-0.032390997
239	0x3d894b82	0.06703855
240	0x3db6f4ba	0.08933397
241	0x3df9021e	0.12158607
242	0x3d67dacc	0.056605145
243	0xbb600780	-0.0034184158
244	0x3dd14eac	0.102200836
245	0x3dcbbc5a	0.099480346
246	0xbd804d1a	-0.06264706
247	0x3d6936fc	0.056937203
248	0x3c6ffaa0	0.014647156
249	0xbd5d45a8	-0.054021508
250	0xbcf3dc98	-0.029768273
251	0xbcf1ccc8	-0.029516593
252	0xbdb3245c	-0.087471694
253	0xbd1c3d60	-0.03814447
254	0x3d2c4ab0	0.042063415
255	0x3dbbef20	0.09176469

bias_ih f4 [64]
0	0xbc8366f0	-0.016040295
1	0xbdbc7214	-0.09201446
2	0xbd8e5760	-0.06950259
3	0x3b7a1080	0.0038156807
4	0x3ccbceb8	0.024878845
5	0xbc8bb890	-0.01705578
6	0xbde68f72	-0.11257829
7	0xbd97de26	-0.07415418
8	0x3d95ee1c	0.073208064
9	0xbbd4c380	-0.006493032
10	0xbdfdf4cc	-0.12400207
11	0xbdea112c	-0.114290565
12	0xbd6d7964	-0.057977095
13	0xbde6b84c	-0.112656206
14	0x3dbfec74	0.09371272
15	0x3dc1915a	0.09451552
16	0xbc5eb0b0	-0.01359193
17	0x3daacca4	0.08339813
18	0x3cb6bea0	0.022307694
19	0xbd46d730	-0.048545063
20	0xbbff90c0	-0.007799238
21	0xbd316874	-0.043312505
22	0xbd2539cc	-0.040338323
23	0x3d9dff12	0.077146664
24	0xbba721c0	-0.005100459
25	0x3d6679a4	0.05626835
26	0x3d853132	0.06503524
27	0x3d9c005e	0.076172575
28	0x3c025c00	0.007956505
29	0x3bdafb00	0.0066827536
30	0x3d94814e	0.072512254
31	0xbd89e856	-0.06733768
32	0x3ac4ca80	0.0015013963
33	0x3d0e74b4	0.034779266
34	0xbc0f8d40	-0.008761704
35	0xbcb79540	-0.022410035
36	0x3d7d67f4	0.061866716
37	0x3d57614c	0.052583024
38	0xbdb69178	-0.08914465
39	0xbcf611e8	-0.030037835
40	0xbd99cd74	-0.0750989
41	0x3d865946	0.06559996
42	0x3ca45f70	0.02006504
43	0x3c5a5f70	0.013328418
44	0x3d784c88	0.06061986
45	0xbc12de80	-0.008964181
46	0x3da9cc7a	0.08290954
47	0xbcac5c70	-0.021040171
48	0x3d8d9fae	0.06915222
49	0x3d60f724	0.05492319
50	0x3de03d28	0.10949165
51	0xbc9611a0	-0.018318951
52	0x3c89c240	0.016816258
53	0xbdfa9c8c	-0.1223689
54	0x3dd56c6e	0.10421072
55	0x3c2120f0	0.009834513
56	0x3d2c5748	0.042075425
57	0xbde75dae	-0.11297165
58	0xbc9f5a08	-0.01945211
59	0x3dd6bade	0.10484861
60	0xbd75c594	-0.06000288
61	0x3d0fbd80	0.03509283
62	0x3d95d6a4	0.0731633
63	0x3d8b90b2	0.06814708

bias_hh f4 [64]
0	0x3ded788e	0.115952596
1	0xbd80056e	-0.06251036
2	0xbdb3c740	-0.08778238
3	0x3d12ffc4	0.03588845
4	0xbc9a5a20	-0.018841803
5	0xbdb52c4e	-0.08846341
6	0xbdeefe62	-0.116696134
7	0x3dd0f7b0	0.10203493
8	0xbd8a38d4	-0.0674912
9	0x3dde49ec	0.10853943
10	0xbdb2c4bc	-0.0872893
11	0x3d80ff6e	0.06298719
12	0xbd43161c	-0.047628507
13	0x3db8850e	0.09009753
14	0x3df6594a	0.12028749
15	0x3dd873c4	0.105689555
16	0xbd81f832	-0.063461676
17	0xbd0e2a00	-0.034708023
18	0xbda2b76a	-0.0794514
19	0xbca97410	-0.020685226
20	0x3d1b4924	0.03791155
21	0x3dafc87e	0.08583163
22	0xbd746b1c	-0.05967246
23	0x3da4b680	0.080426216
24	0xbcd42ec8	-0.025901213
25	0x3b379cc0	0.0028017014
26	0xbda81be4	-0.08208445
27	0x3cf088b0	0.029362053
28	0x3c80b4d0	0.015711218
29	0x3da69ede	0.0813577
30	0x3db7981e	0.08964561
31	0x3dd0b0a2	0.1018994
32	0x3d951fee	0.07281481
33	0xbb2c6080	-0.0026302636
34	0x3d98f1fa	0.07468028
35	0x3dbeff98	0.093260944
36	0x3db5c3b8	0.08875221
37	0x3da38134	0.07983628
38	0xbd27193c	-0.04079555
39	0x3ba9cb00	0.00518167
40	0xbd4fcd80	-0.05073309
41	0x3d8118d6	0.06303565
42	0xbced3b38	-0.028958902
43	0xbdfcb53c	-0.12339255
44	0xbd5e1b30	-0.054225147
45	0xbdc3fb88	-0.0956946
46	0x3cd91a68	0.02650185
47	0x3db9380a	0.09043892
48	0xbbc96020	-0.006145492
49	0xbd4f962c	-0.050680324
50	0xbd1f8b48	-0.03895119
51	0xbdccea36	-0.1000561
52	0x3d659d00	0.05605793
53	0x3d96b5e6	0.07358913
54	0xbdb5bdec	-0.08874115
55	0x3db781c2	0.08960296
56	0x3d2f7404	0.04283525
57	0xbde0d390	-0.10977852
58	0x3d9ba0f4	0.07599059
59	0xbc0c4380	-0.008561015
60	0xbd85774a	-0.06516893
61	0x3d7a2ce0	0.061077952
62	0xbd85e102	-0.065370575
63	0x3cc488a8	0.023990944
