models/boxPushingUAI07_128_64_64_transition_net_1.pt (torch, 22839 bytes, 4 tensors)

weight_ih f4 [64, 9]
0	0x3df5e3ac	0.120063156
1	0x3d8ed54a	0.069742754
2	0x3da53790	0.08067238
3	0xbd8b996c	-0.06816372
4	0xbd955248	-0.072910845
5	0x3d27fc38	0.04101202
6	0x3acc4700	0.0015585124
7	0x3dbb8762	0.091566816
8	0x3de15fb0	0.11004579
9	0x3dcc015a	0.09961195
10	0x3d171fa8	0.036895424
11	0xbda73354	-0.08164087
12	0x3c1499e0	0.00906989
13	0x3c844a98	0.01614885
14	0xbd9c2766	-0.07624702
15	0xbc7b1390	-0.015324488
16	0x3c84d348	0.016214028
17	0xbdb4148c	-0.087929815
18	0x3c66abe0	0.014079064
19	0xbde66bac	-0.112510055
20	0x3d857124	0.065157205
21	0xbd87b40a	-0.066261366
22	0x3d3d17e8	0.046165377
23	0xbc8be630	-0.017077535
24	0xbd994b0a	-0.07485016
25	0x3d03012c	0.03198354
26	0xbdbf85e8	-0.093517125
27	0x3d9e8838	0.077408254
28	0x3c0e3650	0.008679941
29	0x3cdd7568	0.027033523
30	0x3da1ca62	0.078999296
31	0x3dab38f0	0.08360469
32	0x3dcdbabc	0.100453824
33	0x3daa962c	0.08329424
34	0xbc992da0	-0.018698514
35	0xba89a400	-0.0010501146
36	0xbddb084e	-0.10694943
37	0x3ce62d30	0.028097719
38	0x3b2f1580	0.0026715696
39	0x3dbab716	0.09116952
40	0x3db9c926	0.09071569
41	0xbc9cd0a0	-0.019142449
42	0xbd843704	-0.06455806
43	0x3dacf5fc	0.08445355
44	0x3cda66c0	0.026660323
45	0xbd85b09c	-0.06527826
46	0xbda6206c	-0.08111653
47	0xbdfc9a4a	-0.12334116
48	0x3d68c768	0.056830794
49	0x3d3f8dc8	0.046766073
50	0x3d102aa0	0.0351969
51	0x3d850f76	0.064970896
52	0xbd93e72a	-0.072218254
53	0x3df4f1fc	0.11960217
54	0x3d7f29d8	0.062295765
55	0x3d256808	0.040382415
56	0xbcce6fc0	-0.02519977
57	0xbddf7a6a	-0.109120205
58	0x3cdf5638	0.027262792
59	0x3cc97f20	0.02459675
60	0x3ca610e8	0.020271733
61	0x3d79c37c	0.060977444
62	0xbd7129d8	-0.058877796
63	0x3def8e90	0.116971135
64	0x3b77afc0	0.0037793964
65	0xbde959e6	-0.113941
66	0xbd688374	-0.05676599
67	0x3cfa61e8	0.030564263
68	0x3db1f536	0.086893484
69	0xbd596dec	-0.053083345
70	0xbd695f40	-0.056975603
71	0xbbaa6b80	-0.0052008033
72	0xbdf38a5c	-0.11891624
73	0xbd389ef4	-0.045073465
74	0xbd9f7cf4	-0.07787505
75	0x3ddd264c	0.1079832
76	0xbda0ffdc	-0.07861301
77	0xbc2cdb90	-0.010550395
78	0x3dc2456a	0.09485896
79	0xbcc61788	-0.024181142
80	0x3dd38ed8	0.1032998
81	0xbd844f98	-0.06460494
82	0xbc315520	-0.010823518
83	0x3bc85c20	0.006114498
84	0xbdb3b11c	-0.08774015
85	0x3d97cb94	0.07411876
86	0xbb68f2c0	-0.003554508
87	0xbdfe73fa	-0.124244645
88	0x3d505260	0.05085981
89	0xbd4afd54	-0.049558
90	0xbd8910ce	-0.06692658
91	0x3d48ca68	0.049021155
92	0x3d013de0	0.03155315
93	0xbd9ccbfe	-0.07656096
94	0x3d392794	0.04520376
95	0x3c8087f0	0.01568982
96	0xbd26bbe8	-0.040706545
97	0x3dab9a24	0.08379009
98	0x3b788880	0.0037923157
99	0x3d65687c	0.056007847
100	0xbcda3100	-0.026634693
101	0x3d2d27a0	0.042274117
102	0x3cf83a80	0.030301332
103	0x3dc73ac4	0.097280055
104	0xbdde7caa	-0.108636215
105	0xbce58e68	-0.028022006
106	0x3d88bc48	0.06676537
107	0xbd6b1e04	-0.057401672
108	0xbdbae55c	-0.09125778
109	0x3da51dfc	0.0806236
110	0x3d830d10	0.06398976
111	0x3dec7c04	0.115470916
112	0x3d465c4c	0.048427865
113	0xbd093b08	-0.033503562
114	0xbdc6a244	-0.096989185
115	0xbda54f6a	-0.08071788
116	0x3d177c64	0.036983863
117	0xbcc332e8	-0.023827985
118	0x3df1d99e	0.11809085
119	0x3da91ae8	0.08257085
120	0x3c31cbe0	0.01085183
121	0x3df762f2	0.12079419
122	0x3c627680	0.013822198
123	0x3cdb9660	0.026805103
124	0x3dfaaf98	0.12240523
125	0xbc7a8b60	-0.015292019
126	0x3d1e1718	0.038596243
127	0xbbf97a20	-0.0076134354
128	0x3ded6c9c	0.11592981
129	0x3d61407c	0.054993138
130	0xbd294c14	-0.04133232
131	0xbde2cbbe	-0.11074017
132	0x3c803558	0.015650436
133	0xb9aa0400	-0.00032427907
134	0x3d5d0024	0.053955212
135	0x3d5811fc	0.052751526
136	0xbdea1622	-0.11430003
137	0xbdd37690	-0.103253484
138	0xbd0be068	-0.034149557
139	0xbddbca54	-0.107319504
140	0x3bca45c0	0.0061728656
141	0x3d9893f0	0.07450092
142	0x3df689f4	0.12038031
143	0xbbd82b60	-0.0065969676
144	0xbdc441b8	-0.09582847
145	0x3daf2d14	0.0855352
146	0xbdae9b32	-0.08525695
147	0x3db34064	0.08752516
148	0xbd357acc	-0.04430656
149	0xbd7439b4	-0.059625342
150	0x3da1715a	0.07882948
151	0x3d129ff8	0.03579709
152	0xbd0e0978	-0.034677
153	0x3d9c4446	0.076302096
154	0xbde16ff2	-0.1100768
155	0xbd0f3c38	-0.03496954
156	0xbd8b7872	-0.068100825
157	0xbdbca2fe	-0.09210776
158	0xbde0a234	-0.10968438
159	0xbda0cffa	-0.078521684
160	0x3d301cb8	0.04299614
161	0xbd8b3286	-0.06796746
162	0x3de78d0c	0.113061994
163	0xbcc893e8	-0.02448459
164	0x3cf11c40	0.029432416
165	0x3dbb2c48	0.09139305
166	0x3cea52a0	0.028603852
167	0xbda5a1a0	-0.08087468
168	0xbc926420	-0.017870009
169	0xbcaae8b0	-0.020862907
170	0xbd675ebc	-0.05648683
171	0x3c997c70	0.018736094
172	0xbdc2aee2	-0.095060125
173	0x3cd5d718	0.026103541
174	0xbdaeeca0	-0.085412264
175	0x3dc99356	0.09842555
176	0xbc707550	-0.014676407
177	0xbde2b38e	-0.110694036
178	0xbdc1b056	-0.094574615
179	0xbde32e2a	-0.110927895
180	0x3c2bc7d0	0.010484651
181	0x3be09f40	0.0068549216
182	0xbd810d02	-0.06301309
183	0xbd78c4f4	-0.060734704
184	0xbdc20224	-0.094730645
185	0xbd95efa4	-0.073210984
186	0xbd3ff438	-0.046863765
187	0xbd982c9c	-0.074303836
188	0x3d307c08	0.043087035
189	0x3d471c00	0.048610687
190	0xbd659ebc	-0.056059584
191	0x3b51ee80	0.0032033026
192	0xbd1c1fb8	-0.038116187
193	0xbd124d4c	-0.035718247
194	0xbc6653f0	-0.014058098
195	0xbd01ee40	-0.031721354
196	0x3dd4c236	0.10388605
197	0x3be6dc00	0.007045269
198	0x3d8418a6	0.06450014
199	0x3dd22774	0.10261431
200	0x3c05d780	0.008169055
201	0x3c83f0a0	0.01610595
202	0x3d1fcb80	0.039012432
203	0x3de3d056	0.11123721
204	0xbdcd3758	-0.100203216
205	0x3cb2b058	0.021812603
206	0x3d049388	0.03236726
207	0x3d58fb68	0.052974135
208	0x3c2da640	0.010598719
209	0x3dd4565c	0.10368034
210	0x3de36e4a	0.1110502
211	0xbde6d750	-0.11271536
212	0xbdabd8b0	-0.08390939
213	0x3d82d2f2	0.06387891
214	0x3d367e18	0.044553846
215	0x3d8e0d58	0.06936139
216	0x3dbe013c	0.09277579
217	0x3df6fa74	0.12059489
218	0x3d63ae84	0.055586353
219	0x3c6f4410	0.01460363
220	0x3de4bf2a	0.11169274
221	0xbc49b270	-0.012310609
222	0xbcc41430	-0.023935407
223	0xbdb1cb24	-0.08681324
224	0x3debdc72	0.11516656
225	0xbd946400	-0.07245636
226	0xbca93c90	-0.020658761
227	0x3df87b9a	0.1213295
228	0xbde24530	-0.11048353
229	0x3d7f4d0c	0.062329337
230	0xbab63880	-0.0013902336
231	0x3d402118	0.04690656
232	0x3dba9206	0.09109883
233	0x3dc6665e	0.09687494
234	0x3d9934f4	0.07480803
235	0xb88eb000	-6.80387e-05
236	0xbd6eebfc	-0.05833052
237	0x3db4cba2	0.088279024
238	0x3d7865bc	0.060643896
239	0x3acd9780	0.0015685409
240	0x3c9f1c80	0.01942277
241	0x3d2ca910	0.042153418
242	0xbdb5b614	-0.08872619
243	0xbdc580d6	-0.09643714
244	0xbdd9af86	-0.106291816
245	0x3c7441d0	0.014908269
246	0xbd9305a8	-0.07178813
247	0x3c0e7e00	0.008697033
248	0xbdc8977c	-0.09794518
249	0x3dae7f44	0.08520368
250	0x3da31fb0	0.07965028
251	0xbcf77c38	-0.0302106
252	0x3cb6feb0	0.022338241
253	0xbc193b30	-0.00935249
254	0xbcc57828	-0.024105147
255	0x3dc06fc2	0.09396316

weight_hh f4 [64, 64]
0	0x3d180c00	0.03712082
1	0x3dde614e	0.10858403
2	0x3bf2e7a0	0.0074128658
3	0xbc464600	-0.01210165
4	0x3ddaee84	0.106900245
5	0x3aec3d00	0.001802355
6	0xbcb95630	-0.022624105
7	0x3dec4c5c	0.11538002
8	0x3d57673c	0.052588686
9	0xbda25926	-0.0792716
10	0x3dbcdd4a	0.09221895
11	0x3dd32b6a	0.10311015
12	0x3dcce4b4	0.10004559
13	0xbd7238a0	-0.059136033
14	0xbd414f7c	-0.047194943
15	0x3da42e44	0.08016637
16	0x3dbedc32	0.09319343
17	0xbdd21564	-0.10257986
18	0x3dd54826	0.10414152
19	0x3d7f33b4	0.062305167
20	0x3d19574c	0.03743677
21	0xbd145820	-0.036216855
22	0xbc85f260	-0.016350925
23	0x3d9c1996	0.07622068
24	0x3ca74aa0	0.020421326
25	0x3dcafcca	0.09911497
26	0xbd9e741a	-0.07736988
27	0xbd349104	-0.04408361
28	0xbc6bf200	-0.014400959
29	0x3d4f713c	0.050645098
30	0x3d3259fc	0.043542847
31	0x3d87d3c4	0.06632188
32	0xbd8dddae	-0.06927048
33	0xbcb5d2d0	-0.02219525
34	0x3d47509c	0.04866086
35	0xbd623fe8	-0.055236727
36	0x3db6fcc8	0.08934933
37	0x3db47010	0.08810437
38	0x3d8dda00	0.06926346
39	0x3d8890ae	0.066682205
40	0x3d9a8754	0.07545343
41	0xbdd8d8dc	-0.10588238
42	0xbd1c4b50	-0.03815776
43	0x3dbfdb56	0.09368007
44	0xbd54728c	-0.051867053
45	0x3c2b8650	0.010469034
46	0xbd2e19ec	-0.04250519
47	0xbba26fc0	-0.0049571693
48	0xbcb03210	-0.021508247
49	0xbd130060	-0.03588903
50	0x3cb5bd20	0.022184908
51	0x3deb1ebc	0.114804715
52	0x3b1c9f40	0.0023898631
53	0xbd130d14	-0.035901144
54	0x3dd14aa6	0.10219316
55	0xbd69a1b4	-0.057038978
56	0x3d04b45c	0.032398567
57	0x3b173f00	0.0023078322
58	0x3d167678	0.036734074
59	0x3d95d522	0.073160425
60	0x3d079588	0.03310159
61	0xbc111590	-0.008855239
62	0x3d5b88dc	0.053597316
63	0x3c9488b8	0.018131599
64	0xbcb04780	-0.021518469
65	0x3cdcec48	0.026968136
66	0xbd81d94a	-0.06340273
67	0x3c3781e0	0.011200398
68	0xbd97f2a0	-0.07419324
69	0x3d669ac4	0.05629994
70	0x3df8784a	0.12132318
71	0xbd26bf34	-0.04070969
72	0xbde50ad6	-0.111837074
73	0x3dd2db00	0.10295677
74	0xbd8412c2	-0.0644889
75	0x3da980ba	0.08276506
76	0x3db16d24	0.08663395
77	0xbd343b64	-0.04400195
78	0x3b4f8b00	0.0031668544
79	0xbd58d73c	-0.05293964
80	0x3dd60f58	0.10452145
81	0xbdb84bd2	-0.089988366
82	0x3c641240	0.013920367
83	0xbd8ff55e	-0.07029222
84	0x3dc9b1fa	0.098483995
85	0x3d78ad64	0.060712233
86	0x3ddd308a	0.10800274
87	0xbd6afa54	-0.057367638
88	0x3d2d1f28	0.04226604
89	0xbdda4356	-0.106573746
90	0x3d981c88	0.07427317
91	0xbd29f830	-0.041496456
92	0x3d2ab0f4	0.041672662
93	0x3d78b0ac	0.060715362
94	0xbda08aa4	-0.078389436
95	0x3d8fd8da	0.07023783
96	0xbd51612c	-0.05111806
97	0x3d456b28	0.048197895
98	0xbd2ed7d0	-0.042686284
99	0x3bb4d460	0.005518481
100	0x3c503110	0.01270701
101	0x3ddcad16	0.10775201
102	0x3d124410	0.03570944
103	0x3cb21eb8	0.021743163
104	0xbcbd3730	-0.023097605
105	0xbdff007e	-0.12451266
106	0xbd6393c0	-0.055560827
107	0xbd2e40d4	-0.042542294
108	0x3d3fcd94	0.046826914
109	0xbc148830	-0.009065673
110	0x3d2065e8	0.039159685
111	0xbd84ccce	-0.06484376
112	0xbdfed182	-0.12442304
113	0x3d3b95e4	0.045797244
114	0x3d8a3130	0.06747663
115	0x3d874720	0.06605363
116	0x3dd4419e	0.10364078
117	0xbdf9ae2e	-0.12191425
118	0x3d184350	0.03717357
119	0x3dcb4870	0.09925926
120	0xbd82c9da	-0.063861564
121	0x3d8eb6da	0.0696847
122	0x3d8459ec	0.06462464
123	0x3cd9fb78	0.026609167
124	0xbdf4dabe	-0.11955784
125	0x3d700904	0.058602348
126	0x3de5e4f0	0.11225307
127	0xbc8c6f18	-0.017142817
128	0x3d4c2498	0.049839586
129	0x3dc311a6	0.095248505
130	0xbdbf2296	-0.093327686
131	0xbdee2f76	-0.11630146
132	0x3d47a56c	0.048741743
133	0xbbabd800	-0.005244255
134	0xbd70b1b4	-0.05876322
135	0xbdef2f94	-0.11678997
136	0xbd9ed730	-0.077558875
137	0x3d0a5b2c	0.033778355
138	0xbcbc65d8	-0.022997782
139	0xbdde7674	-0.10862437
140	0xbc4f30c0	-0.0126459
141	0xbbcf2460	-0.006321475
142	0xbdeee13a	-0.11664052
143	0x3d997a2c	0.074940056
144	0x3dffc7ee	0.124893054
145	0x3db5aaa2	0.08870436
146	0xbde620c8	-0.11236721
147	0xbd9d7a3e	-0.076893315
148	0xbdc80e6e	-0.09768377
149	0x3dd7a472	0.10529412
150	0xbd72ad38	-0.059247226
151	0x3dbebd28	0.093134224
152	0xbd55098c	-0.052011058
153	0x3d4927bc	0.04911016
154	0x3db4f3f2	0.088355914
155	0xbd798b80	-0.060924053
156	0x3d6132ac	0.054979965
157	0x3d7abf6c	0.06121771
158	0x3ceafd78	0.028685316
159	0xbd417948	-0.047234803
160	0xbdc50316	-0.09619729
161	0x3cd59b70	0.026075095
162	0xbde7a48e	-0.11310683
163	0xbd28d044	-0.041214243
164	0x3ca5aa78	0.020222887
165	0x3d9dea02	0.07710649
166	0x3dc394ee	0.095498905
167	0xbdd6b7e8	-0.10484296
168	0xbd62c564	-0.055364028
169	0xbc380ed0	-0.011234
170	0xbb201240	-0.002442494
171	0xbcf58c70	-0.029974192
172	0xbda24c8a	-0.07924755
173	0xbce35058	-0.027748272
174	0xbcd52468	-0.026018336
175	0xbd9b458e	-0.07581626
176	0x3d25d308	0.04048446
177	0xbdb7b750	-0.08970511
178	0xbddb6e06	-0.10714345
179	0x3cb999c8	0.022656336
180	0xbd7d6d2c	-0.061871693
181	0x3de162ea	0.110051945
182	0xbda7aa92	-0.081868306
183	0xbdae4906	-0.08510022
184	0x3deec004	0.11657718
185	0x3cbae108	0.022812381
186	0x3df52b58	0.11971158
187	0x3de1f86a	0.11033709
188	0x3dfe134a	0.12406023
189	0x3dc48ddc	0.0959737
190	0x3d96e57c	0.073679894
191	0xbd9a8e6e	-0.075466976
192	0xbd108b10	-0.03528887
193	0xbc54dbb0	-0.012991831
194	0xb8f43000	-0.00011643767
195	0x3dc82390	0.09772408
196	0x3d1b2558	0.03787741
197	0xbdedb45c	-0.116066664
198	0x3d016430	0.031589687
199	0x3bea9600	0.0071589947
200	0x3d67a620	0.056554914
201	0xbd5ac8b4	-0.05341406
202	0x3dd6b780	0.104842186
203	0xbdb4d9cc	-0.08830604
204	0x3dc83868	0.09776384
205	0x3de5f722	0.112287775
206	0xbdcfbfca	-0.10144003
207	0xbdacf4ac	-0.08445105
208	0x3da84f60	0.082182646
209	0xbdcbed10	-0.099573255
210	0xbbfe5960	-0.007762119
211	0xbd92bf48	-0.0716539
212	0x3d8674cc	0.06565246
213	0x3df2c1ea	0.118533924
214	0x3dd0b91c	0.10191557
215	0x3ddcc6a8	0.10780078
216	0x3d8c0c5a	0.068382934
217	0xbddb4cc8	-0.10708004
218	0x3d0ac63c	0.033880457
219	0x3dea4a42	0.11439945
220	0x3d9022b2	0.070378676
221	0xbda02574	-0.078196436
222	0x3d5c1a38	0.05373594
223	0x3ce44790	0.027866155
224	0xbd9faa4c	-0.077961534
225	0xbde07228	-0.109592736
226	0xbd901462	-0.07035138
227	0xbdc7297e	-0.09724711
228	0xbd2a97cc	-0.04164867
229	0x3c411e70	0.011787042
230	0xbd8168cc	-0.063188165
231	0xbd08cb34	-0.033396915
232	0xbd2ce7a4	-0.042213097
233	0x3d673774	0.05644937
234	0xbdcadaec	-0.09905037
235	0x3df3da90	0.11906922
236	0x3dfa11de	0.12210439
237	0x3dda94d2	0.106729165
238	0x3dc3db66	0.09563331
239	0xbc68be30	-0.0142055005
240	0xbd8198da	-0.06327982
241	0x3df0ec04	0.117637664
242	0xbdf62ab8	-0.12019867
243	0xbdf4ecd4	-0.11959234
244	0x3dd19270	0.10233009
245	0xbd46aa78	-0.048502415
246	0x3da987bc	0.082778424
247	0xbd930e8c	-0.07180509
248	0xbdaddbd6	-0.08489196
249	0xbdb67dbc	-0.08910701
250	0xbb7366c0	-0.0037140101
251	0xbaec2c80	-0.0018018633
252	0xbd3cc128	-0.046082646
253	0x3cd1cce0	0.025610387
254	0x3d96f316	0.07370584
255	0xbd6a3248	-0.05717686

bias_ih f4 [64]
0	0x3d27ad90	0.040937006
1	0xbd5acc74	-0.053417638
2	0x3de1a5e0	0.11017966
3	0x3d7e7e38	0.06213209
4	0xbd9ee87e	-0.07759188
5	0xbd0202cc	-0.03174095
6	0x3dce2c3c	0.10067031
7	0xbd43b52c	-0.0477802
8	0x3d8dfe78	0.06933302
9	0xbd6af4f4	-0.05736251
10	0x3aa4aa00	0.0012562871
11	0xbddbc642	-0.10731174
12	0xbd953958	-0.07286328
13	0xbb0ccac0	-0.0021483153
14	0x3d1961a0	0.037446618
15	0x3d15d4fc	0.03658007
16	0xbda45f78	-0.08026022
17	0x3d0b9910	0.03408152
18	0x3cbc1fc0	0.022964358
19	0x3a211500	0.0006144792
20	0xba1de600	-0.00060233474
21	0xbde2f3aa	-0.110816315
22	0x3d674dbc	0.056470618
23	0x3c86e528	0.016466692
24	0x3d516210	0.05111891
25	0x3bd5ce60	0.006524846
26	0x3d44a884	0.04801227
27	0xbd9e4eb0	-0.07729852
28	0x3d6f10b0	0.058365524
29	0xbc7ea220	-0.015541583
30	0xbde54dc2	-0.11196472
31	0x3dc36a70	0.09541786
32	0xbc6e3480	-0.014538884
33	0xbdf6e93c	-0.12056205
34	0x3caa53e8	0.020791963
35	0xbc961d60	-0.018324554
36	0x3d8da51c	0.06916258
37	0xbd423f94	-0.047423914
38	0xbdf95cdc	-0.12175915
39	0x3db1a298	0.086735904
40	0x3dbbef18	0.09176463
41	0xbdf968d0	-0.121781945
42	0x3dada36c	0.08478436
43	0xbcf8da80	-0.030377626
44	0x3cca7978	0.024716124
45	0x3df6fc56	0.12059848
46	0x3c89cde8	0.016821817
47	0x3d10398c	0.03521113
48	0xbdcc0af2	-0.09963025
49	0xbc563820	-0.013074905
50	0x3dd4c826	0.10389738
51	0xbcd18410	-0.025575668
52	0x3df9155c	0.12162277
53	0xba466d00	-0.0007569343
54	0x3d8e219e	0.06940006
55	0x3d2f0ae8	0.04273501
56	0xbda36444	-0.079781085
57	0x3d81e178	0.06341833
58	0xbd83b512	-0.06431021
59	0x3de6a5e2	0.112621084
60	0xbd8d1608	-0.06888968
61	0x3d5ca4d4	0.05386813
62	0x3d1e5634	0.03865643
63	0x3dd2fd3c	0.10302207

bias_hh f4 [64]
0	0x3d88d838	0.066818655
1	0xbc9cb3f0	-0.01912877
2	0xbd7fc6d4	-0.062445477
3	0x3cbbeee0	0.022941053
4	0x3df17056	0.117890045
5	0xbd01d78c	-0.031699702
6	0x3d755f68	0.05990544
7	0xbcf07988	-0.029354826
8	0x3ccc6978	0.024952635
9	0x3d9f3244	0.07773259
10	0x3dba8d38	0.091089666
11	0x3be49120	0.006975308
12	0x3c604ed0	0.013690665
13	0x3c7df340	0.01549989
14	0x3db0de30	0.08636129
15	0x3df8a090	0.1214
16	0xbd0a040c	-0.033695266
17	0x3da9a9b0	0.082843184
18	0x3de4dedc	0.111753196
19	0xbdc8f752	-0.098127976
20	0xbdf81900	-0.12114143
21	0x3ce4a0b8	0.027908668
22	0xbd0d3dc0	-0.034482718
23	0x3bba71c0	0.0056898296
24	0x3d274564	0.04083766
25	0x3cfead58	0.031088516
26	0xbda11ef4	-0.07867232
27	0xbd995c04	-0.07488254
28	0x3c8dfe58	0.017333195
29	0x3d956d48	0.07296234
30	0x3d96b052	0.07357849
31	0x3d97392a	0.0738395
32	0x3d29dc04	0.04146959
33	0xbd361cb0	-0.044460952
34	0x3d7ea9a0	0.062173486
35	0x3db18444	0.08667806
36	0x3d76015c	0.06005989
37	0x3cf162a8	0.029465988
38	0xbdeea672	-0.11652841
39	0x3c1c38e0	0.009535044
40	0xbdb5185c	-0.08842537
41	0x3de59ffe	0.11212157
42	0x3da0b106	0.078462645
43	0xbbf4b300	-0.0074676275
44	0x3d993e12	0.07482542
45	0xbdcc1ba8	-0.099662125
46	0xbdebc3ce	-0.11511956
47	0xbd883d10	-0.06652272
48	0x3d828af4	0.063741595
49	0x3d985460	0.07437968
50	0xbd02f4a4	-0.03197159
51	0xbc02a3b0	-0.007973596
52	0x3d36c1b4	0.044618323
53	0x3c9ec3a0	0.01938039
54	0x3d017774	0.03160806
55	0x3dd54e9a	0.10415383
56	0xbd7eea38	-0.062235087
57	0xbdf750bc	-0.12075946
58	0x3d8aaa96	0.06770818
59	0x3ded154e	0.11576329
60	0x3dd60c36	0.10451548
61	0xbd00686c	-0.031349584
62	0xbcfbeb98	-0.030751988
63	0xbc679530	-0.01413469
