models/boxPushingUAI07_128_64_64_target_net.pt (torch, 145747 bytes, 6 tensors)

weight f4 [128, 128]
00000000: 08f5 1940 2d58 a83e 9cf5 cebf 3311 6e40
00000010: f90e 57bf c390 0cbf a5da 20bf 8c89 04c0
00000020: 254a c93f 539e 1bbf 3627 443d 02e7 9abe
00000030: e754 15bf 1944 943f 0b9c 0ebf 2865 12c0
00000040: 3c63 4440 7be2 e13f 54e3 9b3e 6696 7d40
00000050: 2f6c 1240 2ad9 203f c7da 8a3e 92a0 a2c0
00000060: 87c8 5d40 91eb cc3f ffc1 683f a7f3 70c0
00000070: f60b 85bf 517e d43f 7fec 923f 3b09 733e
00000080: 9dee 613e 61de 123f b760 6e3f e7cc 5140
00000090: 629f 5cbf 56f4 f03f 8ac4 e3bf dff6 cc3f
000000a0: 381d 1840 c058 48bf 6a9e 30c0 f674 b23f
000000b0: d064 1e3e 20c1 a240 166e 863e 6b4a 523f
000000c0: 47e0 18c0 a731 153f 2d33 b03f 2d49 9d3f
000000d0: 6053 0540 74c8 3d3f 4e20 05bf 31dd 9dbf
000000e0: c0e3 0040 b3b1 57bf bbf9 89bf aee3 a0bf
000000f0: 67ab 4e3f 20d9 4e3e e0d5 78c0 7bee 963f
00000100: b343 023f 4b6e 5f40 944f b2be 9717 d0be
00000110: 4be3 cb3f 0f69 9abf 28ae f53d bd00 95be
00000120: f8e1 8a3e a1a5 033f b953 153f 3dc7 0c3e
00000130: 6d22 e5be df55 6a3e 9a26 e3be 54b6 c63f
00000140: 60c3 6a3f 6646 9e3e ff2b f1be af09 df3f
00000150: c453 743e f8e6 83bf 0024 5e3e 04aa ffbe
00000160: 8d20 68be f50e 23c0 dc88 fcbe acee bd3e
00000170: 61bf 4abe ad84 12bf 138c 13bf 35bf 70bf
00000180: 7fe8 c4bf 0305 25bf 8758 7c3e 245b 18bf
00000190: a76b 0c3f 6f13 60bf 3bc8 183f 975e 2cc0
000001a0: 585b 5d3f 4d65 aabe 9801 d1bf cfb4 4cbf
000001b0: 8aa6 55be 157b 3cbe 46aa 8240 4132 8c3e
000001c0: edb7 23bf 94e0 d4bf 3dfc 6e3e 0264 8ebf
000001d0: f6a6 8d3f e240 873f fce5 4b3e cd6c 8e3f
000001e0: e0c9 33bf 33c6 cb3f ba26 0a3f 1c43 98be
000001f0: 6fc2 65bf baca 31bf c2c4 d9be 3ace db3e
00000200: 2881 a7bf 6934 02bf 8224 4fc0 bbf5 11c0
00000210: baa5 de3f 2145 7b3e eb31 6cbf e645 45c0
00000220: e057 81bd 6cf7 a23e 58b7 543f 68a2 99bf
00000230: 9e91 923f 7cb3 debe 902a d03e 2ceb 063f
00000240: 85ce 2c3e da8d 423f 2b0d 5bbf 934d 063e
00000250: 3cb9 91be 9dc9 e1bf 23e9 afbe 6ac3 093e
00000260: a3b5 c2bf 94e3 c5bf 3a24 13bf 1dbd bcbd
00000270: 1645 16bf 0ba7 93be dce9 e03f e856 19bf
00000280: 20bf 05bf 739d 9b3e dc83 d5bf f6e9 52be
00000290: be53 bb3e 2014 ad3f 77ae 70bf 9979 443f
000002a0: d9c3 29bf 1a95 b6bd aa27 94bf 84a0 03c0
000002b0: 23c0 cd3e ca17 97be 7748 2cbe a755 b3be
000002c0: 8091 2c3f 2ab2 373f b017 ad3c 432d 633f
000002d0: 119e a8bf 72f4 db3e 41c0 973f 1785 373f
000002e0: bf63 f2be e285 593f 2c6b db3f 24a1 cdbe
000002f0: c709 d2bd b46e 363f 0fff 4d40 8a9b 7b3f
00000300: 322c 4bbf 8559 e93e 7473 8cbe 5e91 d73b
00000310: 8930 633f 01b3 a23f b1ed 85bf c200 65bf
00000320: b6d9 003f ecfe ab3d 6073 1fbf 37c0 513e
00000330: 26d5 493f 2f04 b0be fa52 17bf 03e5 cbbf
00000340: d02c 953f 65f8 18bf 8b46 86be 4cbe d83e
00000350: 7ebc 2c3f 79eb bdbf a4fd ccbf 8486 bc3e
00000360: 90d3 263f 4d82 5bbe 3b2c 6fbe 5afa 643f
00000370: 627b 4abf e362 2d40 21ea 923e deef 61bd
00000380: ef14 0abf 5bc7 8dbe 570a 1cbf 3026 f03e
00000390: 2032 d2bf 65e3 27bf 3610 193f 0e69 993f
000003a0: b810 803e 09a1 493e 03ce 92bc f70e 63be
000003b0: 0b15 e7be ed1c 17bf a6d7 b1bf dbb7 04bf
000003c0: 2ebe 95be 38eb d3bf 07d7 abbf 9ed2 c4bf
000003d0: 3c75 30bf 54de 22bf b0e2 c73e 213d 24bf
000003e0: 9e1e 083f dae3 613e e134 c0bf ac6e 833f
000003f0: 2fc5 96bf afe6 6cbf 5582 763f 88ee f0be
2.4055805 0.32879773 -1.6168704 3.7197998 -0.8400722 -0.5490839 -0.62833625 -2.0708952
1.5725752 -0.6078846 0.047888957 -0.3025437 -0.58332676 1.1583282 -0.5570685 -2.287424
3.0685568 1.7647241 0.30446875 3.9623046 2.287853 0.62831366 0.2712004 -5.082101
3.4653642 1.6009389 0.90921015 -3.7648714 -1.0394275 1.6601049 1.1478423 0.2373399
0.2206368 0.57370573 0.93116325 3.2781312 -0.861807 1.8824565 -1.7794354 1.6012839
2.3767834 -0.7826042 -2.7596688 1.3941944 0.15468144 5.086075 0.26255864 0.821448
-2.3886888 0.5827889 1.3765618 1.2287956 2.0832138 0.7413399 -0.5200242 -1.2333127
2.0139008 -0.8425552 -1.0779337 -1.2569482 0.8073029 0.20200014 -3.888054 1.1791528
0.5088455 3.4911067 -0.34826338 -0.40642998 1.5928739 -1.2063311 0.11996108 -0.29102126
0.27125525 0.51424605 0.58330876 0.13747878 -0.44752827 0.2288432 -0.44365388 1.5524392
0.9170437 0.30913085 -0.4710388 1.742483 0.23860079 -1.0304861 0.2169342 -0.499344
-0.22668667 -2.547788 -0.49323165 0.37096155 -0.19799568 -0.572337 -0.5763561 -0.9404176
-1.5383452 -0.6446077 0.24643146 -0.5951407 0.54851764 -0.87529653 0.5968053 -2.6932733
0.86467505 -0.3328041 -1.6328611 -0.7996339 -0.20864311 -0.18406327 4.0832853 0.2738209
-0.63952523 -1.6631036 0.23338409 -1.112427 1.1066577 1.0566676 0.19911951 1.1126953
-0.7022991 1.5919861 0.5396534 -0.297387 -0.8974981 -0.6944996 -0.42532927 0.42930776
-1.308629 -0.5086122 -3.2366033 -2.2806232 1.7394326 0.2453809 -0.9226367 -3.0823913
-0.06315589 0.31829393 0.8309226 -1.2002687 1.1450689 -0.4349631 0.40657473 0.52702594
0.16875656 0.759977 -0.8556697 0.1311553 -0.28461635 -1.7639652 -0.34357557 0.13453451
-1.5211681 -1.5460076 -0.5747715 -0.09215758 -0.58699167 -0.2883838 1.7571368 -0.59898233
-0.5224476 0.30393562 -1.6680865 -0.20597062 0.36587328 1.3521767 -0.9401621 0.76748043
-0.66314465 -0.089151576 -1.1574605 -2.056672 0.4018565 -0.29510337 -0.16824518 -0.35026285
0.67409515 0.7175623 0.02112946 0.8874094 -1.3173238 0.42959934 1.1855546 0.71687454
-0.47341725 0.84969914 1.7142081 -0.40162003 -0.10255771 0.7126267 3.2186925 0.9828421
-0.7936431 0.4557611 -0.27431834 0.0065786084 0.88745934 1.2710878 -1.0463163 -0.8945428
0.503322 0.08398232 -0.62285423 0.2048348 0.78840864 -0.34378192 -0.5911099 -1.5929264
1.1654301 -0.5975402 -0.26225695 0.42332685 0.67475116 -1.4837486 -1.6014905 0.36821377
0.6516657 -0.21436425 -0.23356716 0.89444506 -0.7909452 2.7091606 0.2869425 -0.055160396
-0.5393819 -0.2769116 -0.6095328 0.46904135 -1.6421547 -0.6558135 0.5979036 1.1985185
0.25012755 0.19690336 -0.0179205 -0.22173677 -0.45133242 -0.5902851 -1.3893936 -0.5184304
-0.29246658 -1.6556158 -1.3424996 -1.5376775 -0.68928885 -0.63620496 0.39040136 -0.64155775
0.5317172 0.22059575 -1.5016137 1.0268149 -1.1778926 -0.92539495 0.9629262 -0.47056985

bias f4 [128]
00000000: 975f a03e fa2a bfbe 1cfd efbe bbe8 acbe
00000010: a6d0 55be 6b85 bfbd ec4b d73d 11bf d93f
00000020: ddad 22bf 05ab 973f 5838 3abb f71a 6740
00000030: b0f6 263f 2aab 9e3e 6807 1f3e b43a febe
00000040: 2cc2 d93f e784 99bf f8af 19bf 9dcf 6f3f
00000050: 58e9 40be 7da9 4f3e b739 1fbf 964e 02be
00000060: a0e6 80bd 7a5e 47bc f9e3 a5be 82c3 653e
00000070: 39e7 c5bd d2a2 d03e e269 d83d bd70 0dbe
00000080: 2c8a 5a3e cd90 6fbf 7443 6dbd 5a74 903f
00000090: b177 9bbe 2725 bdbd 6fd2 07bd abfa 7c40
000000a0: 36be b1bd eea1 28bf 3a2e f03e 82cd 633f
000000b0: a9aa a3bb 3c13 3e40 b638 823f beaf b23e
000000c0: 7b13 0840 46f1 05bd 9cdc 063f c0d1 0cc0
000000d0: ad9a be3d 021f 473f e570 213e 3160 30bf
000000e0: 2cac 823f 88d3 e0be f612 503e 0a4b 3c3e
000000f0: 5aa9 a4bc 1092 be3e ddff 86be 3513 1f3e
00000100: a25e 043f fe5b 0e3f 6b34 28bd 3dd9 db3f
00000110: 6de3 843f c230 37be d885 49be 0739 cebd
00000120: 6a58 173e 5c59 e5bd 0055 bcbc c8ab 9e3f
00000130: a0c1 92be 5e5b e0be 576e e93e 44e6 e83e
00000140: 5b45 b2be cdd2 e43f e162 c2be 3b9e 963e
00000150: 25e6 743f ecd8 05bf 5f05 05bf b970 533f
00000160: 8532 653e b05b fa3e 6ca5 fe3e a9e6 f93e
00000170: a163 06be c298 adbd a9b3 8b3c 3669 48bf
00000180: c0e7 babe 33af 833d b2ed 4cbf 4b95 783e
00000190: 57d6 5a3f 8d82 abbd f6b1 883e 2d41 c3bc
000001a0: b214 6abe f816 b23e 53e7 25be aaad 9c3e
000001b0: 1acc d5be 4391 163f 380d 933f a6eb 0a3d
000001c0: 0fef 0cbe 311f afbe 6cb4 e4bd b6de 893c
000001d0: bff1 903d 7c35 ac40 8b28 d63d e092 713f
000001e0: f3ca b4bd 347c a43e c4ec 013f 3d64 f9be
000001f0: 3adf 533f 5c1b e1bd 8ab8 7fbd 4d56 d33e
0.3132293 -0.37337476 -0.46872795 -0.3377131 -0.20880374 -0.09351619 0.10512528 1.7011434
-0.63546544 1.1849066 -0.002841493 3.6110208 0.65220165 0.30989963 0.15530169 -0.49654162
1.7012382 -1.1993684 -0.6003413 0.9367617 -0.18839014 0.20279498 -0.6219744 -0.1272529
-0.06293988 -0.012168521 -0.32400492 0.22437862 -0.09663243 0.40749222 0.105670705 -0.13812537
0.21341771 -0.93580323 -0.057925656 1.1285508 -0.30364755 -0.09235602 -0.03315967 3.9527996
-0.08678858 -0.65872085 0.46910268 0.88985455 -0.0049947095 2.969924 1.0173557 0.34899706
2.126189 -0.0327008 0.52680373 -2.2003021 0.09306846 0.7778169 0.15765722 -0.68896776
1.0208793 -0.43911386 0.20319733 0.18388 -0.020100284 0.37220812 -0.26367083 0.1553467
0.517069 0.5560912 -0.041065615 1.7175671 1.0381905 -0.17889693 -0.19679964 -0.10069471
0.14779821 -0.111986846 -0.02298975 1.2396173 -0.2866335 -0.43819708 0.45591995 0.4548818
-0.3481854 1.7876831 -0.37966064 0.29417595 0.9566367 -0.5228412 -0.5196132 0.82593876
0.22382553 0.48898077 0.49735582 0.48808792 -0.13123943 -0.08476402 0.017053442 -0.7828554
-0.36504936 0.06429901 -0.80050194 0.24275701 0.85483307 -0.0837451 0.26698273 -0.02383479
-0.22859457 0.3478315 -0.16201524 0.30601245 -0.4175728 0.588154 1.1488409 0.033916138
-0.13763069 -0.34203485 -0.11167225 0.01682983 0.070773594 5.381529 0.10456952 0.9436474
-0.08827772 0.3212601 0.507519 -0.48709288 0.8276249 -0.109915465 -0.06243185 0.4127678

weight f4 [128, 128]
00000000: d566 81c0 39c0 093f 2661 f9c0 1d5a a9bd
00000010: c46b 06c0 8d5c 52bf 3c32 8ec0 f523 ac3f
00000020: 7982 7f40 afaf aabe a5b6 88c0 b668 a93f
00000030: 476b bdc0 4e04 c8bf 3fb5 70c0 f818 84c0
00000040: 2eae adbf e0d5 373d bf0f 9440 3c56 7e3f
00000050: 4c44 a7c0 d582 9a3f 2f85 acbf 1d16 05c0
00000060: 1a24 bbbc 199a 8d3b 5d21 b53f f7e1 46c0
00000070: 8f12 9c3f 9af5 9e3f c972 78be e632 96c0
00000080: cd6a e1bf 7bca 1ec0 53d4 9bbd ca75 42be
00000090: 2259 e2bf 9dbb 8e3d fea4 d43c a42d cc3d
000000a0: 3c7b 5f3c 270e 07c0 f886 e63f bd7c 383f
000000b0: 6252 d4bc e803 383f b3a8 e9c0 7081 0f3e
000000c0: 66bc b4c0 f968 603d fe04 c33f d5a9 4f3f
000000d0: 5663 cd3f 0d29 08c0 a432 193f 5a6f 443f
000000e0: 24cb 9f3e 91cc 6cc0 1a84 953f 44f8 1e3f
000000f0: bef3 40bb e120 05c0 4de9 2d3f f18a 90c0
00000100: 389a 883f cf65 173f 8893 81bd 08e7 d6bd
00000110: 5929 39bf 278d 9940 db2e 05c0 076c ccbc
00000120: 5299 8e3f e2d5 dcbb 5e08 a2bd 6bac 2ac0
00000130: abba 85c0 a107 19c0 0ec1 5dbf 3302 5cc0
00000140: b13a af3e 82cf ad3f d790 a23e a869 c3c0
00000150: f444 093f be47 24c0 5d13 bbbf 23ac f0bf
00000160: 1f13 093e db30 943f b150 713f 66b7 9c3f
00000170: e3e7 093d 61d8 bc3e 10ae 913f bda7 ebbe
00000180: 6c43 63bf 4a6d 5cbe f719 96c0 ddfe 36bf
00000190: 8d8c 1c3f ca57 b23c ce31 30c0 bfbf fbc0
000001a0: 87d4 7fc0 1863 28bf 98c1 c6bd e591 9c3e
000001b0: acde cbbf 77a2 85be ac18 a93f 0a42 fdbe
000001c0: d01a e93f 2026 15c0 fdbb 72bf fa17 e83f
000001d0: f2d0 b1bf 4876 b63f 4375 a73f a58e 3e40
000001e0: 840f 30bc d0de 95bf f071 2cbf 9634 573e
000001f0: 3a41 b8bf b35b 543d c56f 3fc0 e0d3 03c0
00000200: 2738 393d 7180 bb3c 4f10 e8bd 77f0 d3bc
00000210: 67a8 62ba c6cb 533c 5396 c0bd 5458 84bd
00000220: 8025 1c3c 6f6f a73c 77a9 92bd 8d58 c33c
00000230: de0e bebd 5f47 dcbd e3d0 c9bc 75b7 1fbd
00000240: 4367 cbbd e7dd d3bc f126 813c c0fa 84bd
00000250: 645c 63bd b325 8cbd 9a41 e5bd 5eac a93d
00000260: ff7a 9c3d 4540 a63d 7c5a 1cbd 9a17 853c
00000270: 6697 ddbd 0804 b9bd d398 f5bd 2758 2d3c
00000280: 5a82 52bc 7415 af3d 972b 9dbc 72f1 bbbc
00000290: af79 a2bc 0ff8 12bd 9fb7 713b 66bc 243c
000002a0: 5cad 4f3d 0a3a bd3d b33e 70ba 9c0b d3bc
000002b0: c088 973d 6844 413d 9cd5 bbbb 095f 463d
000002c0: 00a8 eebc a950 38bc 07e0 303d e924 4ebd
000002d0: 7821 a93c c5ec 153d 2070 903b e46f a13c
000002e0: f0db c4bd e066 343d 0e6f c2bd c2e3 da3c
000002f0: 48f2 ff3a 593e af3c 821e 72bb 22f1 393d
00000300: 5436 28bc 3400 c7bd f340 a13d 7e32 efbc
00000310: 991b 6dbc dd62 d53d 5548 4bbd 1ec0 73bd
00000320: 5e0c c7bc 870f 9cbb 2875 97bd 1d5a febd
00000330: a69f 40bc cb3f f83c 8b58 fcbd ff49 1ebd
00000340: 551a e73c 3635 dabd b323 bebd fefb 83bd
00000350: 1817 acbd 35dc fb3c af76 b9ba 93f6 033d
00000360: ec79 cbbd debf adbd 2af8 46bd 6f07 e73b
00000370: 2793 1abc 449b d8bd 7a0d debd 5475 aa3a
00000380: 2c37 3bbd 908a 87bd 5196 053c b051 42bd
00000390: d173 61bd fbd5 82bd 1f07 c4bd aaa3 9a3c
000003a0: baa4 cabc 472a fcbd 9565 c4bc ad21 d1bd
000003b0: eb8a fa3a 1725 7abd f801 623d c59b 31bd
000003c0: e7fa b93c 11d8 3cbd 6e5d 323d 19c8 06bc
000003d0: e7bd e0bd ef34 e3bd 145d 92bd 72ae ecbd
000003e0: bfd7 f6bc 1e0d 0bbd 56d4 63bc 5f0f 503c
000003f0: 3c19 87bc 3254 5bbd e78b a0bd bbfa a63c
-4.0438027 0.53808933 -7.793109 -0.08269141 -2.1003275 -0.8217247 -4.443632 1.3448473
3.9923384 -0.3333716 -4.2722955 1.323508 -5.9193454 -1.5626314 -3.7610624 -4.128048
-1.356878 0.0448817 4.626922 0.99350333 -5.227087 1.2071177 -1.3478144 -2.0794747
-0.022844363 0.0043213484 1.4150807 -3.1075418 1.2193164 1.2418702 -0.24262537 -4.693713
-1.7610718 -2.4811084 -0.07608857 -0.18990245 -1.7683451 0.06969378 0.02595758 0.09969643
0.013640221 -2.1102388 1.8009939 0.72065336 -0.02591819 0.7188096 -7.301843 0.1401422
-5.647998 0.05478761 1.5235898 0.8111852 1.604594 -2.1275055 0.59842896 0.7673241
0.31209671 -3.6999857 1.1680939 0.62097573 -0.0029442157 -2.0801318 0.67934114 -4.5169606
1.0672064 0.5913972 -0.063269675 -0.104932845 -0.72328717 4.7984805 -2.0809848 -0.024953855
1.114054 -0.006739364 -0.07911752 -2.6667736 -4.1790366 -2.3910906 -0.86622703 -3.4376342
0.34224465 1.3578951 0.3175113 -6.1066475 0.5362084 -2.5668788 -1.4615284 -1.8802532
0.133862 1.157741 0.9426375 1.2243469 0.03366841 0.36883834 1.1381245 -0.46026412
-0.8877475 -0.21526065 -4.6906695 -0.7148264 0.61151963 0.021770377 -2.7530398 -7.8671565
-3.9973466 -0.65776205 -0.09704894 0.3058006 -1.5927329 -0.26100513 1.3210654 -0.49464446
1.8211308 -2.330452 -0.948181 1.8132317 -1.389189 1.4254847 1.308266 2.9774563
-0.010745887 -1.1708622 -0.67361355 0.21016154 -1.4394906 0.051845264 -2.9911969 -2.0598068
0.045219567 0.022888394 -0.113312356 -0.025871499 -0.000864631 0.012927001 -0.09403672 -0.0646216
0.009530425 0.020438878 -0.07161229 0.023845935 -0.092801794 -0.107558005 -0.024635738 -0.038993318
-0.09931805 -0.025862647 0.015765639 -0.06493139 -0.055508032 -0.06843128 -0.11194153 0.082848296
0.07640647 0.08117727 -0.03817223 0.016246606 -0.108198926 -0.09033972 -0.119920395 0.010580099
-0.012848461 0.08549014 -0.019185824 -0.022942279 -0.019833414 -0.0358811 0.0036883128 0.010054683
0.050702438 0.09239586 -0.00091646163 -0.025762372 0.0739913 0.047184378 -0.0057322513 0.048430476
-0.029132843 -0.0112497 0.0431824 -0.05032817 0.020645842 0.036602754 0.0044078976 0.019706674
-0.09612262 0.04404342 -0.09493838 0.026719932 0.0019527161 0.021392034 -0.0036944454 0.045395978
-0.010266859 -0.097168356 0.07873716 -0.029198881 -0.014471912 0.10419247 -0.049629528 -0.05950939
-0.02429789 -0.004762593 -0.07395393 -0.124195315 -0.011756813 0.030303856 -0.12321576 -0.038644787
0.028210798 -0.106546804 -0.09284153 -0.06444548 -0.08402842 0.030744651 -0.001414975 0.032217573
-0.09935364 -0.084838614 -0.04857651 0.0070504467 -0.009434498 -0.105764896 -0.10842414 0.0013004937
-0.045706913 -0.066182256 0.008153514 -0.047441185 -0.05504209 -0.0638847 -0.09571671 0.01887687
-0.02473675 -0.12312751 -0.02397422 -0.10211501 0.0019114887 -0.061070528 0.05517766 -0.043361444
0.022702647 -0.046104494 0.043546133 -0.008226418 -0.10973721 -0.11094081 -0.071466595 -0.1155671
-0.030132173 -0.033948056 -0.013905605 0.012698977 -0.016491525 -0.05354709 -0.07839184 0.02038323

bias f4 [128]
00000000: 1b39 9b3e a5f4 e8bd a3a1 463e 38ce 4a3f
00000010: 7da2 563f adf0 f7be 4d26 01bc f0f5 dcbe
00000020: 4551 dc3d 1af6 f6bd 2f2f 2e3f 2e52 0f3f
00000030: d695 853d 6747 f5be 8deb e4bb 1d8e b4bd
00000040: 390c 6bbe ecdd f03c 46bb c2bd a261 a1be
00000050: b0ca 923e f758 ccbd e30b b83e b791 b8bd
00000060: 01bd 09bc fa40 e4be ae26 173d 352f 22bf
00000070: 493d e03e 8dda 063f dbb8 223f 6ff5 61be
00000080: 2ab3 cebd d143 cdbd 0318 2dbd cba8 8cbb
00000090: b55c 88be f8a8 04bf b505 09bf 188c 8bbd
000000a0: 052f 9bbe 8d6d 29bf 52c5 11bf 7126 d9bd
000000b0: 9290 fdbe dd64 1d3f a3a6 673f f447 933f
000000c0: cfed edbd e2da 41bf f9de d0be 22d7 42be
000000d0: a77a d03d 177e dbbe 0285 aabe e612 293f
000000e0: e403 f2be 6b32 83bc 0e6d eb3e b1cf 33be
000000f0: 5b8f 1f3f 5df2 723f c66a 363d 4e97 aabd
00000100: b248 a33f 339b 2a3f fac3 c1bd d915 333f
00000110: 43d2 97bc 1172 27bf 5e90 37bf 57ba 603f
00000120: e75a e2be a204 943d f5e4 693f aa85 983f
00000130: 709a b33f 3318 9bbe 5fd2 60bf f5b9 c23b
00000140: be0d 82be 8491 013f a805 babe 9b60 513f
00000150: 4b5f bbbe 8218 2ebf 335d 8cbd 9237 e5be
00000160: 2a5b 243e a6c7 0cbf c47e b0bd 2440 fabe
00000170: 4b15 b6be e3d8 81bc 0cb9 113f f1d1 89bd
00000180: 0038 e3bd 4af7 76bd ef90 a7be b635 bebc
00000190: e4b7 16bf 6144 8f3e 97aa edbd 6426 a1be
000001a0: 84ad eb3e ebb2 313d a757 203e 19a5 39bf
000001b0: 9765 bc3e 206a e0be 9a58 e13e a256 07bf
000001c0: a28f f33e 0feb 10bf 6604 f1bd 8607 843b
000001d0: a44e 173e 5408 63be ef10 883e b823 6d3f
000001e0: ab07 2abe 8921 70be a6ea a63c 4581 85bf
000001f0: 1328 a6bd f80c 96bd 64f3 d5be cb68 ac3e
0.30317006 -0.11374787 0.19397597 0.79220915 0.8384169 -0.4842581 -0.007882667 -0.43156385
0.107576884 -0.12058659 0.68040746 0.5598477 0.065227196 -0.47906038 -0.0069860877 -0.088161685
-0.22953881 0.029402696 -0.09508376 -0.315198 0.28670263 -0.09977906 0.3594657 -0.09012168
-0.008406878 -0.44580823 0.036902122 -0.6335328 0.43796757 0.5267723 0.6356332 -0.22066282
-0.100927666 -0.100227006 -0.042259227 -0.0042925826 -0.2663323 -0.51820326 -0.53524333 -0.0681383
-0.3030931 -0.66182786 -0.5694171 -0.10603035 -0.4952436 0.6148203 0.9048864 1.1506333
-0.11617624 -0.75724614 -0.40795115 -0.19027379 0.10179644 -0.42869636 -0.33304602 0.6604446
-0.47268593 -0.016015252 0.4598164 -0.17559697 0.6232812 0.94901067 0.04453542 -0.0832964
1.275656 0.66643065 -0.09461208 0.6995521 -0.018532878 -0.65408427 -0.7170466 0.8778433
-0.44209978 0.07227446 0.91364986 1.1915791 1.4031506 -0.302919 -0.87821 0.005942578
-0.2540111 0.50612664 -0.3633244 0.81788033 -0.3659614 -0.68006146 -0.06853714 -0.4476896
0.16050401 -0.5499214 -0.086179286 -0.4887706 -0.3556312 -0.01585049 0.56922984 -0.06729496
-0.110946655 -0.060294427 -0.32727763 -0.02321897 -0.58874345 0.27981856 -0.11604803 -0.31474602
0.4603082 0.04338352 0.15658437 -0.72517544 0.36796257 -0.43830967 0.4401291 -0.52866566
0.4757052 -0.5660867 -0.11768417 0.004029217 0.14776093 -0.22171146 0.2657542 0.9263263
-0.16604488 -0.23450293 0.020375561 -1.0430075 -0.08113112 -0.07326692 -0.41787255 0.336737

weight f4 [16, 128]
00000000: 7cc5 b5c0 6113 873c 29b0 3640 1d4d 02c0
00000010: b41c 0640 5cd0 1340 6c0a 36bd 5369 f540
00000020: 667b 0440 b401 49bd a1ba 9b40 0056 3940
00000030: 45ae 773d 8c83 adc0 a0b9 dfbc ce72 0e3d
00000040: 5641 ec40 06e3 c3bd f179 35bd bd74 d63f
00000050: cfd7 f43f 8e1f 0b3d 23d4 b840 3cd5 be3c
00000060: f4bc b1bc e5e9 ec40 e1ab 3b3e a659 4a40
00000070: 9079 bf3f a650 ff3f 3218 5fbf ac8d ce40
00000080: d8c4 e640 baab 373c ced3 5640 4d21 5b40
00000090: 4c6a cc40 9274 88bd c26c 1fc0 883d 60c0
000000a0: 399d 0c3e b474 0640 1fc2 80c0 073b d73c
000000b0: c126 20c0 114f 47c0 93de cd3f b566 6e3f
000000c0: 1baa 9bbc 0098 a0c0 a448 20c0 867c 53c0
000000d0: 961a 45c0 72fa 40be 7c7d bb40 77f1 bcbf
000000e0: 1dbc 7140 134a 473d a3fa 72bf 8abc 013c
000000f0: 7d3f 3c3f a3da 893f d4a2 cfbf cea4 143c
00000100: 6aff 4140 3fc0 2e3f f32d 1cbd d77a d9bd
00000110: 7dd0 713d 6676 7d40 62ec cfc0 219e 7b3f
00000120: 8312 0640 555f 543e 1c37 0d3f 90d6 0dc0
00000130: 34d7 a7bf 02ac d5c0 f4a6 ac40 75f6 3dc0
00000140: 571b f1c0 d745 6e40 7dc7 0dc1 1278 3940
00000150: b238 5ac0 3d84 f0c0 8306 21bd d300 12c0
00000160: 6cde 9240 43e5 81c0 1c18 fe3d 4939 e540
00000170: 53bb b940 73a8 3c3d 3829 953f 2cf2 123d
00000180: dd69 97bb 1577 2940 1e18 50c0 223d 323d
00000190: 9cbc a83f c70e b43f b4d4 2f3d 8c4a 4ec0
000001a0: 0f2e 54bf 77a5 1740 7e2d 8a40 ed15 8c3f
000001b0: 53c6 74bf 3fff 62c0 6c9d 51bf 3d67 3040
000001c0: 7f9d 0f40 070d a740 35a7 1ebd 1f8a 31bc
000001d0: b471 21bf ce0d 99c0 eaed b63e a7f0 c93e
000001e0: 2bad 793f 8a05 3c40 8b4a bbbc 9526 9c3f
000001f0: 1129 c0ba 7f5c 12c0 46e5 05c0 7156 b13f
00000200: a10c 20c0 cc4a 603d d212 a6bf d2c7 5bc0
00000210: 0385 91c0 ebff 6640 5e02 353d 9c41 c9c0
00000220: f0d4 273f 2f52 a53d 1542 973f 78f6 b43f
00000230: bb9e f3bc 5445 ee3f 8795 9c3d 497d b33d
00000240: 7aa9 2e40 b16f d63a 937c aabb 5e88 b540
00000250: 6505 aa40 5470 723d 657a c140 f3ee bb3d
00000260: 23e3 8ebc 1f2c 44c0 96d4 0dbe 6e86 6c40
00000270: cf92 1840 96ec e03f 8894 16bf b7fe 9b40
00000280: b295 a440 6399 2fbc 4fe4 a940 fc55 36bf
00000290: ef4a fe3f 1492 8e3f 97da 63c0 b64c 02c0
000002a0: 48df 9d40 331a 7d40 4e2b a3c0 1e7a 273d
000002b0: 149a 34c0 2357 9f40 b195 ac3f 5cc9 1440
000002c0: 76f4 78bd a0a9 e2bf 00f4 7fbf 4566 a4c0
000002d0: 07d2 fac0 70de 1a40 2aac ce40 021b 263f
000002e0: 0e1f aa40 6e89 19bb 50d8 bbbf 7b3c a8bc
000002f0: f3fc 0fc0 5b1a fe3f 6720 08c1 ba41 103d
00000300: 1cdd f43f 0d2e 8c3f 6ef2 953b 2187 96c0
00000310: bbaf 813d b696 6340 1b43 88bf a6ff 08be
00000320: 16cc 5540 a98c a4c0 b9dd da3f 27fb 69bf
00000330: 8d7e 553f 04a4 f2c0 f113 033f 385f c7c0
00000340: c653 4dc0 a9b7 82c0 4a21 2340 0df5 2540
00000350: 0f10 49bc 12da e6c0 a362 aebb 93b2 b640
00000360: d30b 4640 ffc0 93bf d876 39bd 9431 9dbf
00000370: 8ed8 c33e 7394 c93b 0751 ee40 07e6 b93d
00000380: 8263 81bd 6bf6 e7c0 874e 41c0 0b51 18bd
00000390: 1679 e940 ffcb 47c0 98a8 d43c 97cd 76c0
000003a0: de07 1ebf 4506 78c0 e5dd a6bf da5c 0c40
000003b0: 6db2 2d40 cfe6 a5c0 59f7 643f f9ee e0c0
000003c0: 31a5 b7bf cd42 f4bf b7a2 a53d aaf1 0abc
000003d0: 34f0 e93f 345a 4dc0 bfe5 b03f 98ae c53f
000003e0: bf28 51c0 80a0 6540 8287 f63b 0718 6140
000003f0: 7b57 223d c4be 89c0 8895 ddbf 0506 803f
-5.680357 0.016488733 2.854502 -2.0359566 2.095502 2.3095922 -0.044443533 7.669107
2.0700316 -0.04907389 4.866532 2.895874 0.06046893 -5.422308 -0.027310193 0.034777455
7.3829756 -0.09564786 -0.044305746 1.6754376 1.912836 0.03396564 5.7758956 0.023295037
-0.021696545 7.4035516 0.18327285 3.1617217 1.4958973 1.9946487 -0.87146294 6.454794
7.211529 0.011210376 3.3566775 3.4239075 6.3879757 -0.06662859 -2.491013 -3.5037556
0.1373185 2.100873 -4.0236964 0.026273264 -2.5023654 -3.1142008 1.6083549 0.9312547
-0.019002011 -5.0185547 -2.5044336 -3.3044753 -3.0797477 -0.18845537 5.859068 -1.4761189
3.7771065 0.048654627 -0.9491369 0.007918486 0.73534375 1.0769848 -1.6221566 0.009072496
3.0312142 0.68262094 -0.038129758 -0.10619133 0.05903672 3.9603515 -6.4976053 0.9828816
2.0948799 0.20739491 0.55162215 -2.2162209 -1.311255 -6.677247 5.39538 -2.9681675
-7.5345874 3.7230127 -8.861203 2.8979535 -3.4097104 -7.5161424 -0.03931285 -2.2813003
4.589651 -4.059236 0.12406942 7.163243 5.8041167 0.046059083 1.1653204 0.035875484
-0.004620774 2.6478932 -3.251472 0.043515332 1.3182559 1.406701 0.04292746 -3.2233
-0.8288278 2.3694742 4.3180532 1.0944191 -0.9561512 -3.546829 -0.8188083 2.7563012
2.2439878 5.2203403 -0.03873368 -0.010836153 -0.6306412 -4.782935 0.3572839 0.39441416
0.9752986 2.937838 -0.022862693 1.2199274 -0.0014660676 -2.2868955 -2.0921187 1.3854505
-2.5007708 0.05475883 -1.2974494 -3.434071 -4.547487 3.60937 0.04419171 -6.289259
0.6555929 0.08072316 1.1817042 1.4137716 -0.029738775 1.8614907 0.076457076 0.087641306
2.729094 0.0016360191 -0.0052028387 5.6728964 5.3131585 0.059189156 6.0461907 0.09176435
-0.017442292 -3.065193 -0.13850626 3.695705 2.3839605 1.75722 -0.5882039 4.874843
5.1432734 -0.010717723 5.3091197 -0.7122495 1.9866618 1.113833 -3.5602167 -2.035932
4.933506 3.954724 -5.099036 0.040887944 -2.8219042 4.979387 1.3483182 2.32479
-0.06078001 -1.7708015 -0.9998169 -5.137484 -7.838138 2.4198265 6.458516 0.6488496
5.316291 -0.0023427862 -1.4675388 -0.020536652 -2.2498138 1.9851793 -8.507911 0.03521893
1.9129977 1.0951554 0.004576019 -4.703995 0.06332346 3.5560737 -1.0645479 -0.13378772
3.3405814 -5.1421704 1.7098914 -0.91398853 0.83396226 -7.5825214 0.51202303 -6.2303734
-3.2082381 -4.0849195 2.5489068 2.5930817 -0.012271895 -7.21412 -0.005321817 5.7092986
3.0944717 -1.1543273 -0.045279354 -1.2280755 0.38251156 0.0061517297 7.447391 0.09077077
-0.06317808 -7.2488303 -3.020418 -0.037186664 7.296031 -3.121826 0.025959298 -3.8562982
-0.61730754 -3.8753827 -1.3036467 2.1931672 2.7140152 -5.184425 0.8943992 -7.0291715
-1.4347287 -1.9082886 0.08087676 -0.008480469 1.8276429 -3.2086306 1.3820113 1.5443907
-3.268112 3.5879211 0.007523478 3.5170915 0.03963421 -4.304537 -1.7311258 1.0001837

bias f4 [16]
00000000: b7ba 833f 09af 813f 9672 373f e2e6 973d
00000010: b912 02c0 1932 1d3f 07e7 ac3e fa48 643f
00000020: 0b8c 413f 01c6 1b40 7ece e73f 779f 293f
00000030: cc39 8f3f 23c5 553e 94cd d63f 3080 6d3f
1.0291356 1.0131541 0.7165922 0.07417084 -2.0323927 0.6140457 0.3377001 0.89173853
0.75604314 2.4339602 1.8109891 0.6625895 1.1189513 0.20875983 1.6781487 0.92773724
