models/mabc_8_4_4_transition_net_1.pt (torch, 3474 bytes, 4 tensors)

weight_ih f4 [4, 4]
0.43475813 -0.08196851 0.3608151 0.116563074 -0.29612303 0.2839762 -0.21092527 0.08951501
-0.05500921 -0.08686099 -0.41331226 -0.229006 0.3853288 -0.20839152 0.38503233 0.42914268
00000000: 9e98 de3e 1bdf a7bd c2bc b83e 9fb8 ee3d
00000010: 709d 97be 5465 913e cbfc 57be a553 b73d
00000020: 5651 61bd 2de4 b1bd aa9d d3be 8d80 6abe
00000030: d149 c53e 9664 55be f522 c53e 97b8 db3e

weight_hh f4 [4, 4]
-0.0063538123 -0.15983741 0.20989676 0.18796408 -0.38040033 0.28393927 0.31687322 0.3700456
-0.35115713 0.0021124356 -0.017410878 0.14815481 -0.039680503 -0.6770652 0.23806125 -0.03839011
00000000: a433 d0bb 6bac 23be 2def 563e a879 403e
00000010: d5c3 c2be 7d60 913e 353d a23e 9e76 bd3e
00000020: deca b3be ca70 0a3b 42a1 8ebc e5b5 173e
00000030: 0688 22bd 2554 2dbf 54c6 733e f33e 1dbd

bias_ih f4 [4]
0.3404724 0.01458404 0.18514298 0.09652562
00000000: 6652 ae3e e6f1 6e3c 1f96 3d3e 39af c53d

bias_hh f4 [4]
0.2780354 0.23393437 -0.44208577 0.23825654
00000000: a85a 8e3e 7e8c 6f3e 1159 e2be 86f9 733e
