models/mabc_8_4_4_target_net.pt (torch, 5716 bytes, 6 tensors)

weight f4 [8, 8]
-0.46593064 0.17090765 0.37413993 0.2556275 0.24408445 -0.24990942 -0.21809427 0.072319955
-0.8449861 0.8092629 0.15635744 -0.26450622 0.08211222 -0.7714369 -0.34652016 -0.5043612
0.20790726 -0.14284432 0.20680298 0.16819718 -0.31490612 0.16557957 0.49162614 0.4911982
-0.47392425 -0.11606072 -0.12442487 -0.103111655 0.14085136 -0.06015198 0.035956785 -0.3360739
0.3241368 -0.3738851 -0.12213273 0.19375764 0.4766485 -0.047670815 -0.38488623 -0.14705183
-0.34902102 0.12729998 0.13929027 -0.25238088 -0.008879528 -0.35726064 -0.39187917 -0.13727187
0.08615115 0.42705852 -0.40505227 0.081549585 0.7036361 0.042045716 0.15685377 0.1348074
-0.19874889 0.4278407 -0.5974426 -0.29156634 -0.2529833 -0.1472547 -0.1767216 -0.7597387
00000000: 768e eebe 6a02 2f3e 458f bf3e 9ce1 823e
00000010: 46f1 793e 41e8 7fbe 1b54 5fbe 7c1c 943d
00000020: 0251 58bf da2b 4f3f 2a1c 203e 5c6d 87be
00000030: 742a a83d e47c 45bf 176b b1be d11d 01bf
00000040: a4e5 543e c845 12be 29c4 533e e23b 2c3e
00000050: 603b a1be b18d 293e 6cb6 fb3e 557e fb3e
00000060: 33a6 f2be 3eb1 edbd 77d2 febd 342c d3bd
00000070: 573b 103e ec61 76bd 6c47 133d e111 acbe
00000080: 42f5 a53e de6d bfbe ba20 fabd 6768 463e
00000090: 460b f43e 7942 43bd cf0f c5be c194 16be
000000a0: e2b2 b2be ed5a 023e 1ca2 0e3e 1138 81be
000000b0: 717b 11bc deea b6be 63a4 c8be ff90 0cbe
000000c0: 0470 b03d 6aa7 da3e 0363 cfbe 7803 a73d
000000d0: 7f21 343f 2138 2c3d 469e 203e f30a 0a3e
000000e0: d484 4bbe f00d db3e 00f2 18bf 2f48 95be
000000f0: 0787 81be f0c9 16be 82f6 34be 3c7e 42bf

bias f4 [8]
-0.12731951 -0.2141404 1.5618316 0.82422376 0.8678674 1.1442996 0.61595666 0.93863404
00000000: 0c60 02be 9f47 5bbe 19ea c73f 5400 533f
00000010: 8f2c 5e3f 6978 923f 56af 1d3f 524a 703f

weight f4 [8, 8]
-0.063748516 -0.03508891 -0.35839 -0.27631828 -0.23351029 -0.17716777 0.22669439 -0.14024888
-0.2642038 0.13602963 0.113197036 0.22899322 -0.18295403 0.07665568 -0.12871133 -0.0794345
-0.48018113 -1.0249702 0.46075585 0.45637688 0.24660271 0.74903375 0.42672083 0.7404811
-0.14802617 -1.041156 0.8315501 0.496663 0.23509014 0.54055893 -0.16520588 0.3420952
-0.22803763 0.32488233 -0.30565435 -0.27558875 -0.012005361 -0.19117178 0.12650554 -0.13609175
-0.21933389 0.50456905 1.7172434 0.0018437296 0.557468 0.74908376 0.46086577 -0.014406412
0.842469 -0.30225438 0.015772225 -0.118792795 0.24575186 -0.12240447 -0.085112326 -0.03529509
-0.10292982 0.127482 -0.038728338 -0.14243822 -0.4465964 0.10207116 0.24523593 0.14266784
00000000: 958e 82bd 64b9 0fbd e57e b7be 9779 8dbe
00000010: 521d 6fbe 786b 35be 9322 683e 679d 0fbe
00000020: b845 87be 5a4b 0b3e d9d3 e73d 337d 6a3e
00000030: 4d58 3bbe a7fd 9c3d e7cc 03be 8eae a2bd
00000040: 4dda f5be 3932 83bf 31e8 eb3e 3baa e93e
00000050: 6c85 7c3e adc0 3f3f 277b da3e 2b90 3d3f
00000060: 2c94 17be 9a44 85bf 78e0 543f 9d4a fe3e
00000070: 78bb 703e 1262 0a3f bb2b 29be 1a27 af3e
00000080: b282 69be fa56 a63e ba7e 9cbe f819 8dbe
00000090: 22b2 44bc 89c2 43be ab8a 013e a35b 0bbe
000000a0: 1099 60be 702b 013f a2ce db3f 4da9 f13a
000000b0: 39b6 0e3f f4c3 3f3f 99f6 eb3e df08 6cbc
000000c0: 0cac 573f 16c1 9abe c134 813c a349 f3bd
000000d0: 60a6 7b3e 32af fabd 5f4f aebd 9691 10bd
000000e0: dfcc d2bd a48a 023e 9ba1 1ebd 53db 11be
000000f0: 49a8 e4be af0a d13d 211f 7b3e 8517 123e

bias f4 [8]
0.23523371 -0.25513524 0.6101226 1.1679612 -0.26928696 1.2335944 -0.3729682 -0.38893113
00000000: 1be1 703e 16a1 82be ff30 1c3f c17f 953f
00000010: fbdf 89be 6ce6 9d3f b0f5 bebe fb21 c7be

weight f4 [4, 8]
0.16637382 -0.25402424 0.49324197 0.6321016 0.2800457 0.56863534 0.2559437 0.024587154
0.3754581 -0.07531612 0.36058143 0.15773311 -0.24724855 1.0752383 0.15662134 -0.41969916
-0.2671954 -0.030970009 0.60640264 0.6071958 -0.179279 0.6900485 -0.32139567 -0.13070476
-0.21141584 0.29116192 0.48525998 0.7227154 0.015856992 0.53504425 0.21844386 -0.22433797
00000000: e65d 2a3e 770f 82be 368a fc3e 69d1 213f
00000010: 2662 8f3e 1692 113f 0d0b 833e 006b c93c
00000020: 0b3c c03e 573f 9abd 219e b83e ca84 213e
00000030: b92e 7dbe 69a1 893f 5861 203e cfe2 d6be
00000040: d6cd 88be d1b4 fdbc 343d 1b3f 2f71 1b3f
00000050: ea94 37be 05a7 303f f98d a4be 78d7 05be
00000060: 657d 58be 2d13 953e ff73 f83e e003 393f
00000070: 86e6 813c a9f8 083f bfaf 5f3e dab8 65be

bias f4 [4]
0.8569469 1.0793205 0.77233446 0.6517492
00000000: df60 5b3f 2d27 8a3f b6b7 453f 09d9 263f
