models/mabc_8_4_4_target_net.pt (torch, 5716 bytes, 6 tensors)

weight f4 [8, 8]
00000000: 4bb7 a4be 83c2 27be f801 d13d 75ed d43c
00000010: a75d da3d 8a58 31be 5e5b 66be 4240 283e
00000020: df38 d4bd 2336 033e d0e2 293e 043c 5abe
00000030: beb4 833c 38cc 093d c8e9 3ebe 885f 62be
00000040: 2a52 ae3c 3c5a 873e fad1 6dbe 4a5d a4be
00000050: 4228 1cbe 3763 873e 02d9 513e c082 6d3c
00000060: 17a2 cebd 3ee7 4dbe ade4 ea3d ed2e 5abe
00000070: e17f c13e 19ab 403e 695f c3bd 0d11 d43e
00000080: b89e c33e baf5 bf3c 7a0a 68bd 1f60 0a3e
00000090: 1c92 523e e4f2 c43e c04a b3be e48d 2fbe
000000a0: 0748 11be dd51 d33d b634 453e c982 d2be
000000b0: ecfc ac3d 5cb2 383d 7305 f3be 34aa f13b
000000c0: 326d 9d3e dd26 a13e 08bb c2be c438 dabd
000000d0: d65a b73e a944 bc3e 6c50 563d 2840 c73e
000000e0: 8b89 a43e 6864 873d a445 d0be 9812 eebe
000000f0: 6e02 483b b955 b1bd 4498 c8be c8c6 863e
-0.3217109 -0.16382794 0.10205454 0.025992135 0.10662394 -0.17318931 -0.22495791 0.16430762
-0.1036241 0.1281362 0.16590428 -0.21311957 0.016077396 0.033642024 -0.18643868 -0.22106755
0.021279413 0.2643603 -0.23224631 -0.32102424 -0.15249732 0.26442882 0.20492938 0.014496505
-0.1008951 -0.20107743 0.11469398 -0.21306963 0.37792876 0.18815269 -0.095396824 0.4141926
0.3820703 0.023432601 -0.056650616 0.1351323 0.20563549 0.3846656 -0.35017967 -0.1714397
-0.14187633 0.103183486 0.19258389 -0.41115406 0.084466785 0.04509197 -0.47465095 0.007375026
0.30747372 0.31474963 -0.3803332 -0.106553584 0.3581149 0.36771134 0.05232279 0.38916135
0.32136187 0.06610948 -0.40678132 -0.4649856 0.0030519026 -0.086589284 -0.3917867 0.26323533

bias f4 [8]
00000000: 69fd 0f3c 1298 06be a6e0 033f 3c72 b33e
00000010: f3e2 b83e 9a6a f93e 0ca5 c83d 4519 073f
0.008788445 -0.13143948 0.5151466 0.3504809 0.3611065 0.48714143 0.09797105 0.52772933

weight f4 [8, 8]
00000000: 914c 69bd 6947 10bd 0100 b7be 0b83 5fbe
00000010: 18c8 6cbe 556d 2ebe d97f 663e 76e1 0ebe
00000020: b845 87be 5a4b 0b3e d9d3 e73d 337d 6a3e
00000030: 4d58 3bbe a7fd 9c3d e7cc 03be 8eae a2bd
00000040: 0bcf 32be a0eb dfbd 5601 703d 51a2 b03e
00000050: 2e8c 483e f3d3 953e 0103 013f 4752 003f
00000060: a329 343e 026d 4d3d b30e 60bb 5c15 be3e
00000070: 9cb4 6d3d ceaf 143e ed21 cdbd 732a d63d
00000080: b282 69be fa56 a63e ba7e 9cbe f819 8dbe
00000090: 22b2 44bc 89c2 43be ab8a 013e a35b 0bbe
000000a0: c567 94bd 717b 803d cb19 f43e b9a9 e7bd
000000b0: 71cb 973e 60fe da3e 9640 f03e b1a0 b8bd
000000c0: 74dc 8d3d 6c9d d3be 32e0 993e 40a0 dabd
000000d0: 109b 763e cc17 b3bc 4025 983c 6298 fbbc
000000e0: 6654 0ebd ee46 063e 8992 babb 124e 4c3e
000000f0: 0006 a6be 6c1f 573e f0b4 933e 4b9c 763e
-0.056957785 -0.035224352 -0.3574219 -0.21827333 -0.23123205 -0.17033894 0.22509708 -0.13953194
-0.2642038 0.13602963 0.113197036 0.22899322 -0.18295403 0.07665568 -0.12871133 -0.0794345
-0.17461793 -0.10933614 0.058595024 0.34498838 0.19584724 0.29263267 0.5039521 0.50125545
0.17594008 0.050152786 -0.003418845 0.3712567 0.05803357 0.14520189 -0.100162365 0.10457315
-0.22803763 0.32488233 -0.30565435 -0.27558875 -0.012005361 -0.19117178 0.12650554 -0.13609175
-0.07246355 0.062735446 0.47675928 -0.11311669 0.296474 0.42772198 0.46924275 -0.090150245
0.06926814 -0.4133104 0.3005386 -0.106750965 0.24082589 -0.021861933 0.01857245 -0.03071231
-0.034748457 0.13112995 -0.005693738 0.19951656 -0.32426453 0.2100808 0.28848982 0.24083059

bias f4 [8]
00000000: 2cdc 733e 16a1 82be b5d3 943c 801c 013f
00000010: fbdf 89be 6479 013f 6026 92be ca48 9fbe
0.23814458 -0.25513524 0.018167356 0.5043411 -0.26928696 0.5057585 -0.28544903 -0.3111022

weight f4 [4, 8]
00000000: 58b0 463e 770f 82be ad00 0dbe a4f9 453e
00000010: 2662 8f3e 7470 033e fd2e 08be fa70 463d
00000020: ddea c03e 573f 9abd f873 1abe 9593 da3d
00000030: b92e 7dbe 3938 9a3e e1ed ea3e 4632 f2be
00000040: f5dc 87be d1b4 fdbc 34a2 ab3e 0353 3b3e
00000050: ea94 37be 2462 403e 9f8d e0bd cdb0 3dbe
00000060: 44ea 56be 2d13 953e 5c70 483e a202 68bd
00000070: 86e6 813c 986c 073d 267e 62be 2569 14be
0.19403207 -0.25402424 -0.13769789 0.19333512 0.2800457 0.12835866 -0.13299175 0.048447587
0.37679186 -0.07531612 -0.15083301 0.1067268 -0.24724855 0.3012102 0.45884612 -0.4730398
-0.26535764 -0.030970009 0.3352219 0.18293385 -0.179279 0.18787438 -0.10964512 -0.18524475
-0.20987803 0.29116192 0.19574112 -0.056643136 0.015856992 0.033062547 -0.22118434 -0.14493234

bias f4 [4]
00000000: 6c47 193e 21eb aa3e 098f ee3d ba8e 86bd
0.14968652 0.33382514 0.116483755 -0.06570192
