models/Mars_32_16_16_transition_net_1.pt (torch, 5427 bytes, 4 tensors)

weight_ih f4 [16, 14]
0	0xbe3f69ca	-0.18692699
1	0x3e333290	0.17499757
2	0x3e133438	0.14375389
3	0xbe7b92fc	-0.24567789
4	0xbe48f23a	-0.19623652
5	0xbe28cce6	-0.16484413
6	0xbe0a94ae	-0.1353328
7	0x3cffb790	0.03121546
8	0xbe7d25b8	-0.2472142
9	0xbe3dca38	-0.18534172
10	0x3de9d2a0	0.11417127
11	0xbda7afb8	-0.081878126
12	0xbdcbbc7c	-0.0994806
13	0xbe53c8b4	-0.20682031
14	0x3dcf84fc	0.10132787
15	0x3c909f30	0.017654032
16	0xbdc5e748	-0.09663254
17	0xbe1cc530	-0.15309596
18	0x3d59c6c8	0.05316809
19	0x3d8b4f9c	0.06802294
20	0x3de341c0	0.11096525
21	0x3d9827fc	0.074295014
22	0xbd1c34d8	-0.038136333
23	0xbe462bfc	-0.19352716
24	0x3e22f8c4	0.15915209
25	0xbb0c7200	-0.0021430254
26	0xbe2a2264	-0.16614681
27	0x3e5cc596	0.21559748
28	0x3e0ebb74	0.13938695
29	0xbe4932ac	-0.19648236
30	0xbdffb398	-0.12485427
31	0xbdae3c60	-0.08507609
32	0xbe13c8d6	-0.14432082
33	0x3def18e8	0.11674672
34	0xbe36a102	-0.17834857
35	0x3e6deb20	0.23234224
36	0xbdd3a090	-0.10333359
37	0x3e171c4a	0.14756885
38	0x3c0b7d20	0.008513719
39	0xbde12c4c	-0.10994777
40	0x3e2af3d0	0.1669457
41	0xbe43562c	-0.1907584
42	0xbe0771ea	-0.13227049
43	0x3cf57960	0.029965103
44	0x3e4b140c	0.19831866
45	0xbddb5e80	-0.10711384
46	0xbe1be2e4	-0.1522327
47	0xbe236f38	-0.15960395
48	0xbde1baa4	-0.11021927
49	0xbdb0dcd4	-0.086358696
50	0xbd6e82e8	-0.05823031
51	0xbe11a282	-0.14222148
52	0x3da005ec	0.078136295
53	0x3b051000	0.0020303726
54	0xbe274324	-0.16334206
55	0xbe12314a	-0.14276615
56	0x3d58d588	0.052938014
57	0xbb6a0d00	-0.0035713315
58	0x3e352ef4	0.17693692
59	0xbd1b3c00	-0.037899017
60	0xbe4f62d4	-0.20252544
61	0xbe3d573e	-0.18490312
62	0xbd9648e8	-0.073381245
63	0xbd62cae0	-0.055369258
64	0x3ce9b920	0.028530657
65	0xbd65a728	-0.056067616
66	0x3dbcea70	0.09224403
67	0xbdaa486c	-0.083145946
68	0x3e3be468	0.18348849
69	0x3d6b3330	0.057421863
70	0xbd9d6838	-0.07685894
71	0x3e6425bc	0.2228002
72	0x3d82b5e4	0.06382349
73	0xbe2df99c	-0.1698975
74	0xbe0e79a4	-0.1391359
75	0x3e20840e	0.15675375
76	0x3de9d754	0.11418024
77	0x3e47e220	0.19519854
78	0xbc9d5190	-0.019203931
79	0x3e330d3a	0.17485514
80	0x3dfe8e2c	0.12429461
81	0x3d9e56f4	0.07731429
82	0xbd6d0028	-0.057861477
83	0x3e76c7f4	0.24099714
84	0x3d4f3870	0.050590932
85	0xbd841a60	-0.06450343
86	0xbb68f100	-0.0035544038
87	0x3e7ba910	0.24576211
88	0x3e2bf150	0.16791272
89	0xbc97c500	-0.018526554
90	0x3e7af93c	0.24509138
91	0x3de0d65c	0.10978386
92	0xbe084c7c	-0.13310426
93	0xbe68fa48	-0.22751725
94	0x3e14c580	0.14528465
95	0x3e7015ce	0.23445818
96	0xbe1526e8	-0.14565623
97	0x3dd24a44	0.10268071
98	0x3c2e5f40	0.010642827
99	0xbd5af2f8	-0.05345437
100	0xbd8b37d8	-0.06797761
101	0x3d8e7070	0.069550395
102	0x3d61bf48	0.05511406
103	0x3e2ce796	0.16885218
104	0x3dbb6e14	0.09151855
105	0x3de8fd44	0.113764316
106	0x3e61d50a	0.22053924
107	0x3d9f6de4	0.07784632
108	0x3d180150	0.037110627
109	0xbdba66a8	-0.091016114
110	0x3e3bbf68	0.18334734
111	0x3d1739c8	0.03692034
112	0x3e250270	0.16114211
113	0x3e77349c	0.24141163
114	0xbd650548	-0.05591324
115	0x3e343ff4	0.17602521
116	0xbd4ff458	-0.050770134
117	0x3e6705a2	0.22560742
118	0x3e497f14	0.19677383
119	0xbdb784e0	-0.08960891
120	0x3c12e600	0.008965969
121	0xbddf982c	-0.10917696
122	0xbdcf13b4	-0.1011118
123	0xbd4f53a0	-0.05061686
124	0xbadf6700	-0.0017044246
125	0xbdb27acc	-0.08714828
126	0xbe71a9e0	-0.23599958
127	0xbe1ad5f8	-0.15120685
128	0xbcaf0280	-0.021363497
129	0xbda37228	-0.07980758
130	0x3e3e2536	0.18568882
131	0x3e501764	0.20321423
132	0x3e231688	0.15926564
133	0x3de29a0c	0.11064538
134	0xbe4af28c	-0.19819087
135	0x3e71dc18	0.23619115
136	0xbe6196fc	-0.22030252
137	0xbda852d0	-0.0821892
138	0xbe342d40	-0.17595387
139	0x3db81d80	0.08990002
140	0xbe550586	-0.20802888
141	0xbdfc69c4	-0.12324861
142	0xbe229d38	-0.15880287
143	0xbe1d5c0c	-0.15367144
144	0xbdef02d8	-0.11670464
145	0x3e7ba718	0.2457546
146	0xbca746e0	-0.020419538
147	0x3d9c1278	0.0762071
148	0xbe7e208a	-0.248171
149	0x3e639d0a	0.22227874
150	0xbd5efb80	-0.054439068
151	0xbe6af142	-0.22943595
152	0x3e306cc0	0.17228985
153	0xbd8a7110	-0.06759846
154	0x3e687b56	0.22703299
155	0xbe2de228	-0.16980803
156	0xbe6dadc2	-0.23210815
157	0xbe40522a	-0.18781343
158	0x3dddc98c	0.10829458
159	0xbce5ad40	-0.028036714
160	0xbe6d29d0	-0.23160481
161	0x3d3dddf0	0.046354234
162	0xbc828b10	-0.01593545
163	0x3db8f854	0.0903174
164	0xbe0238da	-0.12717
165	0xbe36c166	-0.17847213
166	0x3e2e7c42	0.17039588
167	0xbdf65ff0	-0.120300174
168	0x3e34144e	0.1758587
169	0x3e4f90f8	0.20270145
170	0xbe33077a	-0.17483321
171	0xbdec0d78	-0.115260065
172	0x3cf68a20	0.03009516
173	0xbe715fac	-0.23571652
174	0x3d9d3d38	0.07677692
175	0xbdd554b8	-0.104165494
176	0xbde30268	-0.11084443
177	0xbe45e7b4	-0.19326669
178	0x3def85e8	0.116954625
179	0xbe2322a0	-0.15931177
180	0xbe4c9f0c	-0.19982547
181	0xbd86a4bc	-0.06574389
182	0xbe0e8404	-0.13917547
183	0xbe78e1f6	-0.24304947
184	0x3dce57e8	0.100753605
185	0xbdc2cc68	-0.09511644
186	0x3e3351b6	0.17511639
187	0x3e3433ea	0.17597929
188	0xbe2344f0	-0.15944266
189	0xbe153db0	-0.14574313
190	0xbdb5bcec	-0.088739246
191	0x3e15f40a	0.14643875
192	0xbc0cff20	-0.008605748
193	0xbdb6e8c8	-0.08931118
194	0x3e1e964a	0.15487018
195	0x3e72c6d2	0.23708656
196	0x3e3d429c	0.1848244
197	0xbe43c3be	-0.19117638
198	0xbd54af28	-0.051924855
199	0xbd446a68	-0.04795304
200	0x3e5a789a	0.21335068
201	0xbe0467c4	-0.12930208
202	0xbe12b8aa	-0.14328256
203	0x3b802b80	0.0039114356
204	0xbd6ddfb8	-0.058074683
205	0x3dc1cd0c	0.09462938
206	0x3cf8f030	0.030387968
207	0xbe18d87a	-0.1492633
208	0x3e3a266c	0.1817872
209	0x3e1f5ac2	0.15561965
210	0x3d603df8	0.054746598
211	0xbe67b63a	-0.22628108
212	0x3df09940	0.1174798
213	0x3e2a1a38	0.16611564
214	0x3d8e8a94	0.069600254
215	0xbdc5e900	-0.09663582
216	0x3c895a50	0.016766697
217	0xbdc4b08c	-0.09603986
218	0x3e710324	0.23536354
219	0x3e77329c	0.241404
220	0xbceea990	-0.029133588
221	0xbe2c3c74	-0.16819936
222	0x3e1697b8	0.14706314
223	0x3e02a868	0.12759554

weight_hh f4 [16, 16]
0	0x3e07b314	0.13251907
1	0xbe40a0c0	-0.18811321
2	0x3dad9cb8	0.08477157
3	0xbdda7f04	-0.106687576
4	0xbe61030a	-0.21973816
5	0xbe32c246	-0.17456922
6	0x3dd90a48	0.10597664
7	0x3dbfae90	0.09359467
8	0xbe60aec6	-0.21941671
9	0x3e112bf0	0.14176917
10	0x3e44284e	0.19156
11	0x3e425638	0.18978202
12	0x3e108c6c	0.14116067
13	0xbd20bf18	-0.03924474
14	0x3e2b896e	0.16751644
15	0x3e486ace	0.19571993
16	0x3e0572b4	0.13032037
17	0xbe3820ca	-0.17981258
18	0xbdb2b110	-0.08725178
19	0x3e4aced4	0.19805461
20	0x3e432b18	0.19059408
21	0x3e235922	0.1595197
22	0xbdd5fee4	-0.10449007
23	0xbd4acd28	-0.04951206
24	0xbe3eb8f2	-0.18625239
25	0xbe11e508	-0.14247525
26	0x3e4483a6	0.19190845
27	0xbe521e90	-0.20519471
28	0xbd7d0e68	-0.061781317
29	0x3d595d00	0.053067207
30	0xbe199a68	-0.15000308
31	0x3d6eb1f0	0.058275163
32	0xbd249cd0	-0.04018861
33	0x3dccc2cc	0.09998092
34	0xbe447340	-0.1918459
35	0x3d0d50f0	0.034501016
36	0xbe6966d4	-0.22793132
37	0x3e1ed20a	0.15509811
38	0x3e78abb6	0.24284253
39	0xbdb6be84	-0.08923057
40	0x3d176b48	0.036967546
41	0xbe03e4d4	-0.1288026
42	0xbe23c268	-0.15992129
43	0xbe01a718	-0.12661397
44	0xbdf3ea4c	-0.11909923
45	0x3d4260b0	0.04745549
46	0xbceac1a0	-0.02865678
47	0x3c8f9920	0.01752907
48	0xbe442e46	-0.19158277
49	0xbe20d5c6	-0.15706548
50	0xbe5d9fdc	-0.21643013
51	0xbe37ff98	-0.17968595
52	0x3e5660f4	0.20935422
53	0x3dbe387c	0.09288117
54	0xbe74259e	-0.23842475
55	0xbd2ae8f0	-0.041726053
56	0x3ca45d30	0.020063967
57	0x3e08c2f2	0.13355616
58	0x3e6d6dba	0.23186389
59	0x3d774568	0.060368925
60	0x3e3455d6	0.17610869
61	0xbdb63134	-0.088961035
62	0xbc05d540	-0.008168519
63	0xbe1a89e2	-0.1509166
64	0x3d6be638	0.0575926
65	0x3e6c4d60	0.23076391
66	0x3e20c338	0.1569947
67	0x3e7ebda6	0.24877033
68	0xbde6b394	-0.112647206
69	0xbd002018	-0.031280607
70	0x3d533958	0.05156836
71	0x3e4dd126	0.20099315
72	0xbe6b5362	-0.22981027
73	0xbdfb72e8	-0.12277776
74	0x3d148ac0	0.036265135
75	0xbe13f80c	-0.14450091
76	0x3dbf4358	0.09339017
77	0xbc8b9f50	-0.01704374
78	0xbd84ac6c	-0.06478199
79	0x3e094b82	0.1340771
80	0x3e36f4ba	0.17866793
81	0x3e79021e	0.24317214
82	0x3de7dacc	0.11321029
83	0xbbe00780	-0.0068368316
84	0x3e514eac	0.20440167
85	0x3e4bbc5a	0.19896069
86	0xbe004d1a	-0.12529412
87	0x3de936fc	0.113874406
88	0x3ceffaa0	0.029294312
89	0xbddd45a8	-0.108043015
90	0xbd73dc98	-0.059536546
91	0xbd71ccc8	-0.059033185
92	0xbe33245c	-0.17494339
93	0xbd9c3d60	-0.07628894
94	0x3dac4ab0	0.08412683
95	0x3e3bef20	0.18352938
96	0x3c9b9110	0.01899007
97	0xbe77e92a	-0.24210039
98	0x3e0794b0	0.13240314
99	0xbd9aec68	-0.07564622
100	0x3e649f00	0.22326279
101	0xbe775e20	-0.24157
102	0xbd6f94f8	-0.058491677
103	0x3e4688a4	0.19388062
104	0x3ddd7ddc	0.108150214
105	0xbdff70e4	-0.12472704
106	0xbe5dac18	-0.2164768
107	0xbb2ff900	-0.0026851296
108	0x3dc5ca90	0.09657776
109	0xbe5487cc	-0.20754927
110	0xbe5638c0	-0.20920086
111	0xbb4e3f80	-0.0031470954
112	0xbd520280	-0.051271915
113	0x3e248ab0	0.1606853
114	0xbe780c16	-0.2422336
115	0xbd22df50	-0.03976375
116	0xbe4661bc	-0.1937322
117	0xbd152510	-0.0364123
118	0xbe02cbd6	-0.1277307
119	0x3da12310	0.07868016
120	0xbe56287a	-0.20913878
121	0xbe4962a0	-0.19666529
122	0xbe114714	-0.1418727
123	0xbe6036dc	-0.21895927
124	0x3e219ac2	0.15781692
125	0xbd128ba8	-0.035777718
126	0xbe0e3aea	-0.13889661
127	0x3e3362f2	0.17518213
128	0xbd685260	-0.056719184
129	0x3e046698	0.12929761
130	0xbd9eb6f0	-0.07749736
131	0xbe562ea6	-0.20916232
132	0x3d60e600	0.054906845
133	0x3e1f68b2	0.15567282
134	0xbe799bb0	-0.24375796
135	0x3cd53070	0.026024073
136	0x3d4c1838	0.049827784
137	0x3ceb0f60	0.028693855
138	0xbbcab7c0	-0.0061864555
139	0xbd9f2718	-0.077711284
140	0xbe46bdf2	-0.19408396
141	0x3d270510	0.040776312
142	0xbe2beef8	-0.16790378
143	0xbe5384f6	-0.2065619
144	0xbda4610c	-0.08026323
145	0xbe2f3f14	-0.17113906
146	0x3d9ced9c	0.07662508
147	0x3e365964	0.17807537
148	0x3e46f498	0.19429243
149	0xbe1eaca6	-0.15495548
150	0x3e0b91fc	0.13629907
151	0x3e35eac0	0.17765331
152	0x3b37ca80	0.0028044283
153	0x3dd801c8	0.10547215
154	0x3e10dafa	0.14146033
155	0x3e43e0b8	0.19128692
156	0x3e08fa8e	0.13376829
157	0x3dda8b70	0.10671127
158	0xbdc25444	-0.09488729
159	0xbe0ebace	-0.13938448
160	0xbdf2c85c	-0.11854622
161	0x3e52a1ee	0.20569584
162	0xbd7804f8	-0.060551614
163	0x3c128020	0.00894168
164	0xbe6ebde6	-0.23314628
165	0xbc35f180	-0.011104941
166	0xbd906f68	-0.07052499
167	0xbe252e56	-0.16130957
168	0x3e464336	0.19361576
169	0xbe4f42b4	-0.20240289
170	0xbd126160	-0.035737395
171	0xbc9135f0	-0.017725915
172	0xbe67c1fe	-0.22632596
173	0x3e1ac7fc	0.1511535
174	0xbda2e984	-0.07954696
175	0x3de603d4	0.11231199
176	0x3e0ee0e2	0.13952973
177	0x3e61bce4	0.22044712
178	0x3d7d4930	0.061837375
179	0x3e403038	0.18768394
180	0x3e6c6d96	0.23088679
181	0x3d4af390	0.049548686
182	0xbd50a4e8	-0.050938517
183	0xbd8c2f84	-0.068450004
184	0x3d25e598	0.04050216
185	0x3db84108	0.08996779
186	0xbe71817a	-0.23584548
187	0x3e3fcf40	0.18731403
188	0x3d217a50	0.039423287
189	0xbe6e78c0	-0.2328825
190	0x3da3ff84	0.0800772
191	0x3e22760a	0.15865341
192	0x3dbf5000	0.09341431
193	0x3e50f74a	0.20406833
194	0x3ba95b80	0.0051683784
195	0xbe546170	-0.20740294
196	0xba14aa00	-0.0005671084
197	0x3e3a12d8	0.18171251
198	0xbdf643a0	-0.12024617
199	0x3dda6240	0.10663271
200	0x3d6c0be8	0.057628542
201	0xbd262500	-0.04056263
202	0x3ae8e000	0.0017766953
203	0x3dd9d4a4	0.10636261
204	0xbe2f2ed0	-0.17107701
205	0x3e21a22a	0.15784517
206	0x3e2d4ff2	0.16925028
207	0x3e0fa736	0.1402863
208	0x3e7fd05c	0.24981827
209	0xbc32dba0	-0.0109166205
210	0xbe34c584	-0.17653471
211	0x3c3b0880	0.011415601
212	0xbd948b08	-0.072530806
213	0x3db4bdf4	0.08825293
214	0x3e588c40	0.21147251
215	0xbe0c1e0e	-0.1368334
216	0x3c2b85a0	0.01046887
217	0x3e78feb0	0.24315906
218	0xbe4c5d34	-0.19957429
219	0xbd30b468	-0.0431408
220	0x3e789754	0.24276477
221	0x3e32e072	0.17468432
222	0x3d949a64	0.0725601
223	0xbddcd380	-0.10782528
224	0xbcbee980	-0.0233047
225	0xbe658fbe	-0.22418115
226	0xbe710414	-0.23536712
227	0xbe6fdaf4	-0.23423368
228	0x3e75e182	0.24011806
229	0x3e4a7a66	0.19773254
230	0x3dcb187c	0.099167794
231	0xbd8099e4	-0.06279352
232	0x3e5c69f6	0.21524796
233	0xbd873dcc	-0.06603584
234	0x3e31b8fe	0.17355725
235	0xbc054fa0	-0.00813666
236	0xbdf0d990	-0.11760247
237	0xbd8ee5c4	-0.06977418
238	0xbd5aa718	-0.05338201
239	0xbe6a537c	-0.2288341
240	0x3d991bbc	0.07475993
241	0xbd9bff0c	-0.07617006
242	0x3deb3b4c	0.11485919
243	0x3e2338c0	0.15939617
244	0xbd22ce30	-0.039747417
245	0x3df84f48	0.12124497
246	0x3d4c9740	0.04994893
247	0x3e2bebf4	0.16789228
248	0xbe2518bc	-0.16122717
249	0xbcb3ce20	-0.021948874
250	0xbdaa9d1c	-0.083307475
251	0x3e6050c0	0.21905804
252	0xbe65c89e	-0.2243981
253	0xbe0fe408	-0.14051831
254	0x3ce732e0	0.028222501
255	0x3e6342a6	0.22193393

bias_ih f4 [16]
0	0x3e2d3652	0.16915253
1	0xbe6f8dd8	-0.23393953
2	0xbe33fc10	-0.17576623
3	0x3e783850	0.24240232
4	0x3d153bc0	0.036433935
5	0xbe5b4404	-0.21412665
6	0xbda14e48	-0.07876259
7	0x3ddfd6c8	0.10929638
8	0xbd562040	-0.05227685
9	0xbe44a414	-0.19203216
10	0xbe1e0ef8	-0.15435398
11	0xbe049dee	-0.1295087
12	0xbc207080	-0.009792447
13	0x3dc8a600	0.09797287
14	0x3df5d368	0.12003213
15	0xbdf8b9ac	-0.12144789

bias_hh f4 [16]
0	0xbd2bd028	-0.04194656
1	0xbe45a76c	-0.19302148
2	0x3e41992a	0.18906084
3	0x3e7f79ec	0.24948853
4	0x3e78d342	0.24299338
5	0x3dd13ddc	0.10216877
6	0xbd5a5ad0	-0.05330926
7	0xbbcc36c0	-0.0062321126
8	0x3db8b8ac	0.09019598
9	0xbe5de732	-0.21670225
10	0x3c7e4420	0.015519172
11	0xbe501742	-0.20321372
12	0xbe7ff4ae	-0.24995682
13	0xbc08e720	-0.008355886
14	0xbda2feec	-0.07958779
15	0xbe222a74	-0.15836507
