models/Mars_32_16_16_transition_net_0.pt (torch, 5427 bytes, 4 tensors)

weight_ih f4 [16, 14]
0.1288158 -0.11034456 -0.04846537 0.11734223 -0.23535922 0.14992931 -0.051431328 0.12718597
0.034754246 -0.030611038 0.06934023 0.012332946 0.091307044 -0.09742525 -0.01822719 -0.022506833
0.03623599 -0.0009987056 0.21854168 0.07779753 -0.09310156 -0.15099034 -0.041903913 -0.10783517
-0.08011213 0.011970401 0.14903194 0.13588417 -0.24438772 0.15498012 0.06984097 0.23713887
0.16501495 -0.22778443 -0.2377021 -0.12058303 0.21952793 -0.04164225 0.10698986 -0.11617786
0.2453045 -0.10577461 0.1874812 0.0029604137 -0.13170436 0.12850371 -0.13270503 0.073526174
-0.0721893 -0.0274086 -0.24034703 -0.11919543 0.1356585 -0.06076932 0.24901238 0.2003971
-0.011705905 -0.16687077 0.15224054 0.07758927 -0.16160494 0.16238615 0.15177545 0.22172374
-0.14013991 -0.041151494 -0.004842967 0.03651437 -0.18972957 -0.1774056 0.13600114 -0.058622986
0.122118354 0.014252484 0.082086205 0.05497217 0.090899855 0.12392768 -0.23152801 0.12583786
-0.1757808 -0.18862724 0.015203595 -0.042601794 0.146831 -0.14478391 -0.22224548 0.1819422
-0.037070453 0.1406143 0.08037114 -0.18746883 0.050224572 0.060049146 -0.16738966 -0.11861807
0.08524391 0.04478064 -0.10634315 -0.075678974 0.22897068 -0.04625532 0.14094791 0.1082508
-0.16160178 -0.21260738 0.23997217 0.013054192 0.17136452 0.05180785 0.08040568 0.18673965
0.23705366 -0.16589525 0.031257242 0.18656433 0.18110877 0.15530962 -0.18092972 -0.18002605
-0.1511929 0.031407088 0.24916622 -0.1579189 0.13322023 -0.13837203 -0.23505393 -0.05313492
0.14404273 0.23209372 -0.1552597 0.054252803 0.21571505 0.16566339 0.15580577 0.17765814
0.1581291 0.06457409 -0.17095503 -0.20993963 -0.11455515 -0.029111475 -0.15323806 0.09146342
0.077371955 -0.056608826 0.09608519 0.08079618 0.15263474 0.16836092 -0.08466318 0.2442564
-0.028901935 -0.0085889995 -0.23597002 -0.16090405 -0.14605087 -0.10693073 0.17774239 -0.08169526
-0.1868203 0.09618747 0.08004239 0.16192266 -0.12936804 0.05420375 -0.09101266 -0.056168675
-0.1992296 -0.11394024 -0.07656443 0.10690883 0.045672357 0.061754107 0.24952629 0.24365687
0.17051178 0.007960886 -0.17294785 0.19537741 -0.062515855 -0.020211339 -0.21537474 -0.04938215
-0.16124696 0.2297265 -0.21613026 -0.19487068 -0.008489072 -0.13517886 0.08945292 -0.0962314
-0.117421895 0.014159411 0.18097448 -0.17585593 0.11740157 0.16061035 0.2445493 -0.17498273
0.06054747 -0.18485671 0.21343756 -0.09697658 0.15058818 0.007442862 -0.019470662 -0.007976949
0.04249862 0.11784902 0.04009497 0.076263726 -0.22488117 0.18213436 0.21796599 0.20665145
0.18480566 -0.18040785 -0.092675 0.22043133 -0.19041464 0.2268053 -0.19662401 -0.17610213
00000000: 4ae8 033e 54fc e1bd a083 46bd 2051 f03d
00000010: 0202 71be 1287 193e a8a9 52bd 0a3d 023e
00000020: 785a 0e3d 00c4 fabc 4002 8e3d 2010 4a3c
00000030: 30ff ba3d e486 c7bd 3051 95bc 4060 b8bc
00000040: 306c 143d 00e7 82ba 64c9 5f3e 5054 9f3d
00000050: 08ac bebd 369d 1abe 70a3 2bbd b0d8 dcbd
00000060: d411 a4bd 801f 443c d49b 183e 3825 0b3e
00000070: c640 7abe 1cb3 1e3e c808 8f3d 88d4 723e
00000080: aef9 283e 5240 69be 2e68 73be 3cf4 f6bd
00000090: eecb 603e 1091 2abd 801d db3d a8ee edbd
000000a0: 1a31 7b3e 5ca0 d8bd 12fb 3f3e 8003 423b
000000b0: 82dd 06be 7a96 033e d4e3 07be e494 963d
000000c0: fcd7 93bd 0088 e0bc 881d 76be bc1c f4bd
000000d0: 10ea 0a3e 40e9 78bd 1afd 7e3e e634 4d3e
000000e0: 20ca 3fbc 2ce0 2abe f2e4 1b3e 20e7 9e3d
000000f0: c47b 25be 8e48 263e 066b 1b3e 8c0b 633e
00000100: d680 0fbe 788e 28bd c0b1 9ebb 1890 153d
00000110: 7848 42be d0a9 35be e243 0b3e a81e 70bd
00000120: 3019 fa3d 4083 693c d01c a83d 802a 613d
00000130: b429 ba3d cccd fd3d ae15 6dbe a4db 003e
00000140: e2ff 33be 8027 41be 8018 793c 387f 2ebd
00000150: de5a 163e 3c42 14be 5294 63be 0e4f 3a3e
00000160: 30d7 17bd 32fd 0f3e a099 a43d d4f7 3fbe
00000170: 48b8 4d3d 18f6 753d 3268 2bbe 08ee f2bd
00000180: 5c94 ae3d e86b 373d 70ca d9bd 94fd 9abd
00000190: 4a77 6a3e 3876 3dbd a654 103e 98b2 dd3d
000001a0: f07a 25be c0b5 59be 44bb 753e 40e1 553c
000001b0: 2e7a 2f3e 7834 543d bcab a43d ae38 3f3e
000001c0: 32be 723e 72e0 29be 9807 003d b80a 3f3e
000001d0: 9474 393e 7c09 1f3e a445 39be c058 38be
000001e0: 50d2 1abe b8a4 003d 6e25 7f3e 7eb5 21be
000001f0: e26a 083e 66b1 0dbe fab1 70be 00a4 59bd
00000200: f07f 133e faa9 6d3e 66fc 1ebe 3038 5e3d
00000210: 68e4 5c3e aaa3 293e 8c8b 1f3e 04ec 353e
00000220: 98ec 213e 6c3f 843d d60e 2fbe 6afa 56be
00000230: e49b eabd 307b eebc 70ea 1cbe 2c51 bb3d
00000240: 3075 9e3d a8de 67bd 50c8 c43d 7878 a53d
00000250: 484c 1c3e ce66 2c3e e463 adbd 5a1e 7a3e
00000260: c0c3 ecbc e0b8 0cbc 20a2 71be 08c4 24be
00000270: 5c8e 15be 80fe dabd 1a02 363e d84f a7bd
00000280: d24d 3fbe f0fd c43d 44ed a33d 0ecf 253e
00000290: 0e79 04be c004 5e3d d864 babd 2011 66bd
000002a0: d802 4cbe 8059 e9bd d0cd 9cbd 04f3 da3d
000002b0: f012 3b3d e0f1 7c3d d283 7f3e 3081 793e
000002c0: a49a 2e3e 606e 023c 3e19 31be 0411 483e
000002d0: 5008 80bd 4092 a5bc 328b 5cbe f044 4abd
000002e0: ec1d 25be 6c3d 6b3e 4051 5dbe 2e8c 47be
000002f0: c015 0bbc 546c 0abe 1833 b73d f814 c5bd
00000300: e47a f0bd e0fc 673c 6051 393e 9413 34be
00000310: 3c70 f03d 0a77 243e 226b 7a3e ac2e 33be
00000320: a000 783d 144b 3dbe 608f 5a3e a89b c6bd
00000330: ca33 1a3e 40e3 f33b f080 9fbc c0b1 02bc
00000340: 0813 2e3d d45a f13d a03a 243d 2830 9c3d
00000350: 4047 66be 6e81 3a3e 7a32 5f3e 709c 533e
00000360: b23d 3d3e d6bc 38be 64cc bdbd c0b8 613e
00000370: 0efc 42be a63f 683e ce57 49be 1e54 34be

weight_hh f4 [16, 16]
0.1222195 -0.17962226 -0.057275176 0.18187296 0.19802222 0.23643893 -0.050729364 -0.1943152
0.24615273 -0.05325654 -0.10285878 0.060943455 -0.17483112 0.16432005 0.15668318 -0.19837031
-0.2053431 -0.021899104 0.10500637 -0.007240534 -0.1267694 0.0057156086 -0.23498306 -0.17669025
-0.16642234 0.20588258 0.22037646 -0.08491668 0.011212587 0.11149448 0.029954344 -0.12518814
0.14418459 0.15368354 -0.014488876 -0.030775636 0.22718629 0.2185322 -0.14174455 0.2445969
0.06186813 -0.16606522 0.13685313 -0.18664363 0.23098215 -0.16071978 0.07070699 0.076125056
0.059464484 0.20735556 -0.10383737 -0.10554257 -0.21664286 -0.010259926 -0.11843014 0.010017306
-0.051249623 0.08294842 0.21626908 0.07376954 -0.080535054 -0.12267405 -0.21803826 0.21036172
-0.047360033 0.050463766 0.00924778 -0.15931678 0.14079535 0.14010468 0.012589991 -0.14207223
-0.10622665 0.0034427643 -0.1428343 -0.13948956 -0.037291765 -0.0719876 0.061370194 -0.06571138
-0.03314078 -0.09542039 -0.22846514 0.21803173 0.047695577 0.22355613 -0.040290266 -0.06282821
-0.23502654 -0.094902664 0.163943 -0.2448614 -0.087441355 0.15231481 0.14408633 0.09231132
-0.04948628 -0.018928915 -0.04747671 -0.092160106 0.104331136 -0.08515072 -0.14044514 0.0567151
-0.1807015 -0.053353697 0.1277534 0.09343237 0.21283454 -0.17051175 0.0021736324 -0.07382569
-0.13982919 -0.14063838 0.06298402 0.026156157 -0.12761211 -0.17621487 -0.20713204 0.24501616
-0.04261136 -0.057808816 -0.091929495 -0.12504146 -0.22862804 -0.14676476 0.15280712 0.054793954
-0.08818966 -0.0944781 0.15970346 0.18021116 0.24085858 0.0729264 0.120777786 -0.020087063
-0.1461589 -0.24492043 0.15227357 -0.03633672 0.10271147 0.0123054385 -0.23333025 -0.122648716
0.07033306 -0.05060011 -0.24141562 0.08766487 0.009587944 -0.080345154 0.10099286 0.052779883
-0.092200756 0.22458705 0.12541988 0.031390667 -0.048012853 -0.21175995 0.19301936 -0.06451005
-0.1615564 0.16028798 0.088787764 0.061867177 -0.049570113 -0.07801756 0.04242462 0.19346225
0.035801023 -0.118211985 0.24834704 0.005346775 0.19762939 0.060929954 0.22408912 0.14424345
-0.12745678 0.17561382 0.0016082823 -0.20067933 -0.052386492 -0.22565302 -0.12952554 -0.17710897
0.1709879 -0.052522033 -0.043194234 0.119803846 0.101742655 -0.16499197 0.09213367 0.10620564
-0.19877735 0.21735924 -0.15212023 -0.097762704 -0.20592141 0.2284945 0.047604382 0.2105087
0.016325206 0.13588592 -0.07982138 -0.1994439 0.040131897 -0.02229464 -0.025242269 -0.12277871
0.0051754415 0.07179594 0.09018698 -0.20139107 0.12078005 0.025708228 0.17242941 0.17667848
-0.19687867 0.24008003 -0.2458627 0.14371645 0.017596036 0.118302196 -0.13519159 0.1502991
-0.12370819 -0.220974 0.083758295 0.13683987 0.24781495 -0.026128173 0.24049467 0.16060945
-0.12399101 -0.1928361 0.14021593 -0.13696897 0.114673704 -0.21410924 0.18239248 0.074929446
-0.028740704 0.114657015 -0.17798665 -0.054651737 0.0024508536 -0.14445668 -0.06388053 -0.107813716
0.23825905 0.21238393 0.2156201 0.20433408 -0.23942673 0.083625585 0.09214717 -0.18336967
00000000: 384e fa3d e6ee 37be 6099 6abd e83c 3a3e
00000010: 56c6 4a3e 0c1d 723e 98c9 4fbd 90fa 46be
00000020: 760f 7c3e 8823 5abd a0a7 d2bd d89f 793d
00000030: ee06 33be 8443 283e 8e71 203e 9621 4bbe
00000040: 7645 52be c065 b3bc 940d d73d 0042 edbb
00000050: d6cf 01be 004a bb3b 669f 70be 4aee 34be
00000060: 9e6a 2abe e2d2 523e 5eaa 613e cce8 adbd
00000070: 00b5 373c 3857 e43d d062 f53c 5231 00be
00000080: 20a5 133e 385f 1d3e c062 6dbc 301d fcbc
00000090: 86a3 683e e8c6 5f3e 7c25 11be 9c77 7a3e
000000a0: 7069 7d3d 000d 2abe 3a23 0c3e 821f 3fbe
000000b0: 9686 6c3e ba93 24be d4ce 903d 74e7 9b3d
000000c0: 0891 733d 0455 543e b0a8 d4bd b426 d8bd
000000d0: a0d7 5dbe 4019 28bc 808b f2bd a01f 243c
000000e0: 20eb 51bd dce0 a93d a475 5d3e 7c14 973d
000000f0: 90ef a4bd 883c fbbd 6c45 5fbe 1069 573e
00000100: 98fc 41bd 18b3 4e3d 0084 173c f023 23be
00000110: a82c 103e 9a77 0f3e 4046 4e3c 627b 11be
00000120: 5c8d d9bd 00a0 613b 2843 12be 5ad6 0ebe
00000130: 40bf 18bd 3c6e 93bd 505f 7b3d b093 86bd
00000140: a0be 07bd c46b c3bd c4f2 69be b643 5f3e
00000150: 705c 433d e6eb 643e 6807 25bd 14ac 80bd
00000160: ccaa 70be 545c c2bd ace0 273e f2bc 7abe
00000170: 7414 b3bd 6af8 1b3e 5e8b 133e b80d bd3d
00000180: 20b2 4abd d010 9bbc f076 42bd 70be bcbd
00000190: 90ab d53d 8063 aebd dad0 0fbe 184e 683d
000001a0: d009 39be 6889 5abd cad1 023e 7859 bf3d
000001b0: 4cf1 593e a29a 2ebe 8073 0e3b ec31 97bd
000001c0: 622f 0fbe 8203 10be c4fd 803d 7045 d63c
000001d0: c0ac 02be ac71 34be 6c1a 54be 84e5 7a3e
000001e0: 4089 2ebd f0c8 6cbd 8845 bcbd de0a 00be
000001f0: 781d 6abe 8049 16be 7879 1c3e a06f 603d
00000200: c89c b4bd bc7d c1bd 4e89 233e 4689 383e
00000210: a2a3 763e 705a 953d 585a f73d a08d a4bc
00000220: aeaa 15be 6ccc 7abe 9aed 1b3e d0d5 14bd
00000230: 645a d23d c09c 493c 20ee 6ebe 402f fbbd
00000240: c80a 903d 1042 4fbd a835 77be a489 b33d
00000250: c016 1d3c 008c a4bd 58d5 ce3d b82f 583d
00000260: c0d3 bcbd 26fa 653e 126e 003e 8093 003d
00000270: 20a9 44bd 9ad7 58be dea6 453e d81d 84bd
00000280: 0a6f 25be 8822 243e 5cd6 b53d 7068 7d3d
00000290: 080a 4bbd acc7 9fbd 70c5 2d3d f81a 463e
000002a0: 18a4 123d 2019 f2bd b04e 7e3e 0034 af3b
000002b0: 5c5f 4a3e b091 793d 9e77 653e 8eb4 133e
000002c0: 0884 02be 1cd4 333e 00cd d23a e27e 4dbe
000002d0: 3893 56bd 9611 67be 58a2 04be 0e5c 35be
000002e0: 7417 2f3e 5821 57bd 70ec 30bd b85b f53d
000002f0: 745e d03d a8f3 28be 94b0 bc3d 5882 d93d
00000300: 4a8c 4bbe 6c93 5e3e 68c5 1bbe d037 c8bd
00000310: 10dd 52be 76fa 693e d0fc 423d 988f 573e
00000320: 70bc 853c ae25 0b3e 6479 a3bd 063b 4cbe
00000330: 5861 243d 40a3 b6bc e0c8 cebc 6873 fbbd
00000340: c096 a93b c009 933d f4b3 b83d 7639 4ebe
00000350: 885b f73d 109a d23c 5691 303e 34eb 343e
00000360: 909a 49be 8ad7 753e 6ec3 7bbe 682a 133e
00000370: 9025 903c 6c48 f23d aa6f 0abe 02e8 193e
00000380: b85a fdbd 0247 62be 7889 ab3d c01f 0c3e
00000390: 34c3 7d3e c00a d6bc 3c44 763e ce76 243e
000003a0: 00ef fdbd d476 45be c494 0f3e 9841 0cbe
000003b0: 0cda ea3d 743f 5bbe 18c5 3a3e 9c74 993d
000003c0: a071 ebbc 4cd1 ea3d 2242 36be 80da 5fbd
000003d0: 809e 203b 74ec 13be ccd3 82bd 70cd dcbd
000003e0: 2efa 733e 2c7b 593e 84cb 5c3e f43c 513e
000003f0: 482c 75be e443 ab3d a8b7 bc3d 42c5 3bbe

bias_ih f4 [16]
0.1013352 -0.13565418 0.039754182 0.08280733 0.21572375 -0.13115367 -0.19669372 0.23131457
0.104941964 0.12151182 0.08999115 -0.08849019 0.15038714 -0.21825859 0.034791112 0.11300993
00000000: d488 cf3d eee8 0abe 48d5 223d e496 a93d
00000010: b0e6 5c3e 264d 06be 146a 49be badd 6c3e
00000020: d0eb d63d 30db f83d 484d b83d 583a b5bd
00000030: 16ff 193e 2e7f 5fbe 2081 0e3d c071 e73d

bias_hh f4 [16]
0.17081118 -0.1248427 -0.1689724 0.09370738 -0.19854105 -0.20776579 -0.22482958 -0.12123367
-0.04771945 -0.14804834 -0.10570654 -0.22137174 0.1536609 -0.05723247 -0.15773636 0.06508875
00000000: 20e9 2e3e 88ad ffbd 1a07 2dbe a8e9 bf3d
00000010: 584e 4bbe 8ec0 54be ba39 66be 5c49 f8bd
00000020: 7875 43bd fc99 17be ac7c d8bd 46af 62be
00000030: 4859 1d3e 986c 6abd a485 21be 404d 853d
