models/Mars_32_16_16_target_net.pt (torch, 18375 bytes, 6 tensors)

weight f4 [32, 32]
0	0xbf5fa2a1	-0.87357527
1	0xbf5bc6d1	-0.85850245
2	0xbf78191c	-0.96913314
3	0xbdbcbf36	-0.09216158
4	0x3f716176	0.9428934
5	0xbe978150	-0.29590845
6	0xbe7eb569	-0.2487389
7	0x3e251064	0.16119534
8	0x3ef75e8f	0.4831433
9	0x3d868462	0.06568219
10	0xbc718cb4	-0.014743019
11	0x3b081776	0.0020765937
12	0xbc3ccbea	-0.011523226
13	0x3ee95629	0.45573547
14	0xbdaceae4	-0.08443239
15	0x3faa7ac6	1.3318717
16	0x3d0e1509	0.03468803
17	0xbf1218a1	-0.5706883
18	0x3ed357c4	0.41277897
19	0xbe417aad	-0.18894453
20	0x3f170f68	0.59007883
21	0x3f1c058b	0.6094596
22	0x3ca1e1e4	0.019761033
23	0xbf3bbb72	-0.73332894
24	0x3f6606b8	0.89854
25	0xbdd61653	-0.10453477
26	0xbf275f42	-0.65379727
27	0x3ea05b7e	0.31319803
28	0xbdfe98ef	-0.124315135
29	0xbe45a2fe	-0.19300458
30	0x3cf69db0	0.030104488
31	0xbed0db4b	-0.40792307
32	0x3ec3f8b8	0.38275695
33	0xbf53dba4	-0.8275702
34	0x3e00d25a	0.12580243
35	0xc00fdb18	-2.2477474
36	0x3f3a19cf	0.7269563
37	0x3eb73f16	0.35790318
38	0x400d2531	2.205395
39	0xbd9f3bba	-0.07775064
40	0x3f8ec776	1.1154621
41	0x3e2762df	0.1634631
42	0x4002d919	2.0445006
43	0xbda38631	-0.07984579
44	0xbf51d09e	-0.8195895
45	0xbf06d41f	-0.5266742
46	0x3fcadd61	1.584881
47	0xbf817bfb	-1.0115961
48	0xbf25f521	-0.6482716
49	0x3fee5cc6	1.8622062
50	0x3f58168f	0.8440942
51	0xbe8244be	-0.2544307
52	0x3fa1ea41	1.2649614
53	0xbfc6606a	-1.5498173
54	0xbed4eed2	-0.41588455
55	0xbf63e954	-0.89027905
56	0x4010ba60	2.2613754
57	0x3f030404	0.51178
58	0x3f309735	0.68980724
59	0x4041fb3e	3.0309596
60	0x3f2944d6	0.6612066
61	0x3d56b9d5	0.052423317
62	0xbe3e5392	-0.18586567
63	0x3ec535e4	0.38517678
64	0xbe4e204f	-0.20129512
65	0xbc2148d7	-0.0098440265
66	0x3d112f56	0.035445534
67	0xbeff009f	-0.4980516
68	0xbf1a7a4c	-0.6034286
69	0x3eb0130a	0.34389526
70	0x3f643421	0.8914204
71	0x3de9094d	0.11378727
72	0xbf315df4	-0.69283986
73	0x3e9964a5	0.29959598
74	0x3dc2e04b	0.09515437
75	0x3f5094c4	0.81477
76	0xbd78a1c6	-0.060701154
77	0x3ee0edab	0.43931326
78	0xbf00556d	-0.5013035
79	0xbf1ad5e0	-0.604826
80	0xbf012648	-0.5044904
81	0xbeb88642	-0.3603993
82	0x3f02d981	0.51113135
83	0xbf84707e	-1.034683
84	0xbf4313a8	-0.7620187
85	0x3f9d0509	1.2267162
86	0xc000f664	-2.0150385
87	0x3f6f09f4	0.9337456
88	0xbec7d3ac	-0.3902868
89	0x3f4e49f1	0.80581576
90	0xc02c99a5	-2.6968777
91	0xbc5dda07	-0.013540751
92	0xbfc7774b	-1.558328
93	0xbfccc9db	-1.5999101
94	0x3f82f7ff	1.0231932
95	0xbe64bee8	-0.2233845
96	0x3fb3c181	1.4043428
97	0xbf453006	-0.770264
98	0xbf066d14	-0.5251019
99	0x3eca2e48	0.39488435
100	0xc03252ea	-2.7863107
101	0xbe969dba	-0.2941721
102	0x3fce589c	1.6120791
103	0xbf53b4aa	-0.82697546
104	0xbfa35da1	-1.2762948
105	0xc0496580	-3.14682
106	0x3f375223	0.71609706
107	0xbe205d37	-0.15660559
108	0x3fe028b9	1.7512428
109	0x3eebf10f	0.4608235
110	0x3d6edf43	0.058318388
111	0xbfe663c0	-1.7999191
112	0xbe91fec9	-0.28514698
113	0xbf9ec547	-1.2403954
114	0x3e044d1d	0.12920041
115	0x3e9f40de	0.31104177
116	0x3dc894cb	0.09794005
117	0xbed69b79	-0.4191549
118	0x3d80a659	0.06281728
119	0xbfc9ba91	-1.576006
120	0x3f0a5b18	0.5404525
121	0x3fb9c00e	1.4511735
122	0x3eb4254b	0.35184702
123	0x3e9e6e0c	0.30943334
124	0xbec48aeb	-0.38387236
125	0x40273d2f	2.6131094
126	0xbfae73cc	-1.3629088
127	0x3f9a06ff	1.2033385
128	0x3e93279d	0.2874116
129	0xbfe1c09a	-1.7636902
130	0xbe6bf3a3	-0.23042159
131	0xbec079ec	-0.3759302
132	0xbe579682	-0.21053508
133	0x3f7cc5dc	0.9873941
134	0x3e12d77a	0.1434001
135	0x3f6e789f	0.93152803
136	0xbf100fb0	-0.5627394
137	0x3da8da2b	0.08244737
138	0x3f5d714b	0.86500996
139	0xbe33aaf0	-0.17545676
140	0xbf526e5f	-0.8219966
141	0x3fc6a1f4	1.5518174
142	0xbee85ef0	-0.45384932
143	0x3e991c9e	0.29904646
144	0xbf0ea300	-0.5571747
145	0x39be2b90	0.0003627208
146	0xc008a63e	-2.1351466
147	0xbf7afc9a	-0.9804169
148	0xbf06f0f1	-0.527114
149	0x40408394	3.008031
150	0xbf856edb	-1.0424455
151	0x3e27b359	0.1637701
152	0xc03d6501	-2.9592898
153	0x3eca2be9	0.39486626
154	0x3e91bd02	0.28464514
155	0x3da39e56	0.079891846
156	0x3f79153d	0.9729803
157	0x3f665b71	0.8998328
158	0x3f7ed41c	0.99542403
159	0xbf6f60dd	-0.93507177
160	0x3ed8d2fa	0.42348462
161	0x3e3012fb	0.1719474
162	0xbc263354	-0.0101440735
163	0x3f03087c	0.5118482
164	0x3d321c7c	0.043484196
165	0xbfa7b63d	-1.310249
166	0xbea5b998	-0.3236816
167	0xbf9ed10d	-1.2407547
168	0xbf3c97e7	-0.73669285
169	0x3ec21903	0.37909707
170	0xbeb5ee79	-0.35533503
171	0x3f87a8ba	1.0598366
172	0x3e53090a	0.20608917
173	0xbf80a5cf	-1.0050601
174	0xbfa85c72	-1.3153212
175	0xbdf1bf3f	-0.118040554
176	0x3f6a68cf	0.91566175
177	0xbf81c2db	-1.013759
178	0xbfa72a41	-1.305977
179	0xc029296c	-2.6431532
180	0x3eef0c25	0.46688953
181	0xbf4a963d	-0.79135495
182	0xbfa0c104	-1.2558904
183	0x3f9058bd	1.1277081
184	0x3f8f3b79	1.1190025
185	0xbf538da9	-0.8263803
186	0xbf48595c	-0.7826135
187	0x3f2fdd0c	0.68696666
188	0xbfa9fca5	-1.3280226
189	0xbf90b1f9	-1.1304313
190	0x4007e102	2.1231084
191	0xbf4d0ac9	-0.8009458
192	0x3fc30ca1	1.5238229
193	0x3d47615f	0.048676845
194	0x3e74c9fa	0.23905173
195	0x3eeb5bff	0.45968625
196	0x3f26f2a7	0.6521401
197	0xbeba0c6b	-0.363376
198	0xbeb3ef8a	-0.3514369
199	0x3e8fef9b	0.28112492
200	0x3f25d9f2	0.64785683
201	0xbd6c6085	-0.057709236
202	0xbec95af1	-0.39327195
203	0x3e4ef49f	0.20210503
204	0xbe735d80	-0.23766136
205	0xbeb4851d	-0.35257807
206	0x3ecab790	0.39593172
207	0xbdf9e251	-0.122013696
208	0x3e12d039	0.14337243
209	0xbee96932	-0.4558807
210	0xbf17d3bc	-0.59307456
211	0x3db2dd73	0.08733644
212	0x3ec95114	0.3931967
213	0x3e0ccf2d	0.13750906
214	0xbde5fdef	-0.112300746
215	0xbe95bf41	-0.29247478
216	0xbee67203	-0.4500886
217	0xbbfccf4a	-0.0077151405
218	0xbd80319d	-0.06259463
219	0xbf11f322	-0.57011616
220	0x3d1e2446	0.03860881
221	0xbdcfdbca	-0.10149343
222	0xbf4975c2	-0.7869531
223	0x3e9e6d33	0.30942687
224	0x3f305696	0.6888212
225	0xbfea1c10	-1.8289814
226	0x3efc0790	0.4922452
227	0x3f839834	1.0280824
228	0x3d0af65a	0.033926345
229	0x402abf3b	2.6679218
230	0x3fd83d40	1.6893692
231	0x3ee2605e	0.44214147
232	0x3de1a7d0	0.11018336
233	0xbfe685e3	-1.8009609
234	0xbe1f3948	-0.15549195
235	0xbe9d6885	-0.30743805
236	0x3f3998ff	0.7249908
237	0x3f923fd4	1.1425729
238	0xbf9d3081	-1.2280427
239	0xc01ad5a3	-2.4192894
240	0x3eaebcd4	0.3412844
241	0x3f3129ae	0.69204223
242	0x4010a843	2.2602699
243	0xbfae029b	-1.3594545
244	0x3e97283c	0.29522884
245	0xbf84a88a	-1.0363934
246	0xbe2fef3a	-0.17181101
247	0xbff6282b	-1.9231008
248	0xbf1baf42	-0.608143
249	0x3f439499	0.7639862
250	0xbfebce35	-1.8422304
251	0x3f09d4a5	0.53840095
252	0x402827fa	2.62744
253	0xbfa8c083	-1.318375
254	0xbced0502	-0.028933052
255	0x3d5e7814	0.054313734

bias f4 [32]
0	0x3ed3ce09	0.4136813
1	0xbe9914ce	-0.29898685
2	0xbe650a8a	-0.22367302
3	0xbeec6159	-0.4616802
4	0x3c47bcc8	0.012191005
5	0xbfaa4817	-1.330325
6	0x3f93cb94	1.1546502
7	0xbf774368	-0.9658723
8	0x3f185dcc	0.5951812
9	0x3f5b0edf	0.85569566
10	0x3f4af760	0.79283714
11	0x3fa1b7f2	1.2634261
12	0xbf253736	-0.6453737
13	0xbe7bf786	-0.24606141
14	0xbf59bd43	-0.85054415
15	0x3f844464	1.0333371
16	0x3f7f237b	0.99663514
17	0xbfa755e8	-1.3073092
18	0xbf427787	-0.75963634
19	0xbeca66d2	-0.3953157
20	0xbf23e957	-0.64027923
21	0x3f77ae8e	0.96750724
22	0x3fa8512e	1.3149774
23	0xbf2839ce	-0.657132
24	0xbe0ac8bd	-0.13553138
25	0x3e86d782	0.26336294
26	0xbf1bf644	-0.60922647
27	0x3fa0be79	1.2558128
28	0x3fcb3276	1.5874774
29	0x3fdd9fea	1.7314427
30	0xbecdf07a	-0.40222532
31	0xbf940cf5	-1.1566454

weight f4 [32, 32]
0	0xbe371ea9	-0.1788279
1	0x40b5e740	5.6844788
2	0xbe70c389	-0.2351209
3	0xc0aa992d	-5.331198
4	0xbf0c5471	-0.5481635
5	0xbfdacd09	-1.7093822
6	0x3dc184ab	0.094491325
7	0xbf8a1b7f	-1.0789641
8	0xc1ef9320	-29.946838
9	0xbd960bef	-0.07326495
10	0x3d602000	0.054718018
11	0x3d83d4f8	0.06437105
12	0x3eef52de	0.4674291
13	0xbf979840	-1.1843338
14	0xc05e64e8	-3.4749088
15	0xc1ef0e6a	-29.882038
16	0xc1bf5aee	-23.9194
17	0xbfbfc8d5	-1.4983164
18	0x3e4fa421	0.20277454
19	0xbe8fac0e	-0.28060955
20	0xbf6660e1	-0.89991575
21	0xc0862055	-4.191447
22	0xbd9d7bfa	-0.07689662
23	0x3df32bc0	0.11873579
24	0xbdf650cc	-0.120271295
25	0xc07b0243	-3.922013
26	0x3f004a10	0.5011301
27	0x3e6bd36e	0.23029873
28	0x3de8a26f	0.11359107
29	0xc1126b07	-9.15113
30	0x3f9b82f1	1.2149335
31	0xbf0cae4a	-0.54953444
32	0x3e87e675	0.26543012
33	0x402331b9	2.5499098
34	0x3ed55f47	0.41674253
35	0xbf1222cb	-0.5708434
36	0x3feb1ca5	1.8368117
37	0x3ed77ffb	0.4208983
38	0x3f0120b3	0.5044052
39	0xc036a721	-2.8539507
40	0xc04e709f	-3.2256238
41	0xbed416eb	-0.41423735
42	0x4020b1d2	2.5108533
43	0x3eb8cdc7	0.36094496
44	0xbe900ff4	-0.2813717
45	0xbf1b8c77	-0.6076121
46	0x3f7d2409	0.9888311
47	0xbf724cc2	-0.94648373
48	0x3f58bd3b	0.8466374
49	0x3fb9fd57	1.4530438
50	0xbf52cb40	-0.82341385
51	0xbd41e774	-0.04733987
52	0xbfabb9c9	-1.3416072
53	0x3f3280e7	0.6972794
54	0x3f2bbccd	0.6708496
55	0x3df99a4a	0.121876314
56	0xbd05b9c7	-0.032647874
57	0xbfb6ca24	-1.4280438
58	0xbf27ef32	-0.6559936
59	0x3dae357e	0.085062966
60	0x3f585138	0.8449893
61	0x3f678dbc	0.90450644
62	0x3fe55102	1.7915347
63	0x400c05f8	2.1878643
64	0x3e3eac7d	0.18620487
65	0xbfb80f2e	-1.4379632
66	0xc0b9e66a	-5.8093767
67	0xbfd31ec6	-1.6493766
68	0x3f3f5a72	0.74747384
69	0xbf2f7541	-0.6853829
70	0xbf23b3d0	-0.6394625
71	0xc10efe8f	-8.937148
72	0x3f3d5538	0.7395816
73	0xbfddc308	-1.7325144
74	0xc08d6581	-4.4186406
75	0x3f8e74eb	1.112943
76	0x3f3de62d	0.74179345
77	0x3edfcb32	0.43709713
78	0xbfa1d25e	-1.2642324
79	0xbf9bbd0c	-1.2167068
80	0x3ebb8ede	0.36632437
81	0xc073f580	-3.8118591
82	0xbf7343f6	-0.95025575
83	0xbf5f6cc5	-0.87275344
84	0xc0eed71c	-7.4637585
85	0xc018b1a2	-2.3858418
86	0x3f1c986d	0.61170083
87	0x3f2fb09c	0.6862886
88	0xbe0c5cf3	-0.13707332
89	0x404025f8	3.0023174
90	0x3c47959f	0.012181669
91	0x3ec6131d	0.38686457
92	0xbe2d8ec6	-0.16948995
93	0xc119402b	-9.578166
94	0xc124cc50	-10.299881
95	0xc13f389b	-11.95132
96	0x3e8c3c84	0.2738992
97	0xc0169d3e	-2.3533473
98	0xbdf57a03	-0.119861625
99	0x3f380439	0.71881443
100	0x3e1a3322	0.15058568
101	0xc00bb6d7	-2.1830347
102	0xbe5a66d1	-0.21328284
103	0xc04f02f1	-3.2345545
104	0x3f779ab3	0.9672043
105	0x3e264d0b	0.16240327
106	0x3f0cf6fd	0.55064374
107	0xbe0aebce	-0.13566515
108	0x3e94625e	0.28981298
109	0xc0861cc6	-4.1910124
110	0xbf3fc019	-0.7490249
111	0x3e97ed57	0.29673263
112	0xbf8fbfb0	-1.1230373
113	0xc1932fd2	-18.39835
114	0x3e4de6fc	0.20107645
115	0xc1229a67	-10.162696
116	0xbee0cfff	-0.43908688
117	0x3e64ad42	0.22331718
118	0x3d86887f	0.06569003
119	0x3f13788c	0.57605815
120	0xbd94e9a1	-0.07271124
121	0xbf218c86	-0.63105047
122	0xbead57bc	-0.33856
123	0x3eebb83f	0.46039006
124	0xbe1e587c	-0.15463442
125	0x3f043d54	0.5165608
126	0xc0de7271	-6.95147
127	0xbfa1eef8	-1.2651052
128	0x3c0c7bae	0.008574409
129	0xbf91aff4	-1.1381822
130	0xbfc01776	-1.500716
131	0x3f229cd8	0.63520575
132	0xbfe615d5	-1.7975413
133	0xbfa4fdac	-1.2889915
134	0x3ec582d2	0.3857637
135	0x3ebd4d9c	0.36973274
136	0x3eb9f6e4	0.36321175
137	0x3f0e362f	0.5555143
138	0xbf34411f	-0.70411867
139	0x3f96a383	1.176865
140	0xbf8d0cee	-1.1019571
141	0x40591c77	3.3923624
142	0xbd937f0f	-0.07201969
143	0xbf82003b	-1.015632
144	0x3f543831	0.8289824
145	0x3e6e5e08	0.23278058
146	0x3f681b77	0.9066691
147	0x3e4ab98e	0.19797346
148	0xc0548a8f	-3.320957
149	0xbe77a078	-0.24182308
150	0x3f141fed	0.57861215
151	0xbf7d089d	-0.9884127
152	0xbdc0f962	-0.09422566
153	0x3d567605	0.052358646
154	0xbeb8203d	-0.35962096
155	0x3f7d9be4	0.99065995
156	0x3f7c9b4b	0.9867446
157	0xbf0c8428	-0.54889154
158	0x3f844d55	1.03361
159	0xbf39deca	-0.72605574
160	0xbef0c35b	-0.47024044
161	0xc0c119f2	-6.034417
162	0x3ff435cd	1.9078919
163	0xc12446f1	-10.26732
164	0xbd6452de	-0.05574309
165	0xbfdd3086	-1.7280433
166	0x3eb4f7d8	0.3534534
167	0x40eb862d	7.360129
168	0xc01f2bf8	-2.4870586
169	0xbdb12224	-0.0864909
170	0xbcfc8db0	-0.03082928
171	0xbf522d5b	-0.82100457
172	0x3ebd598e	0.36982387
173	0xbeb0aaec	-0.34505403
174	0xbf584ef5	-0.8449548
175	0x3fc4c1d1	1.5371648
176	0xbe833f0f	-0.25634047
177	0xc09ac12d	-4.836081
178	0xc194f126	-18.617748
179	0xc053d34a	-3.309771
180	0xc13c83c4	-11.782169
181	0x40321187	2.7823198
182	0xbeda667b	-0.4265631
183	0xc01f9cf5	-2.493955
184	0x3ce3e7c7	0.027820481
185	0xbf092b88	-0.5358205
186	0x3e5169f2	0.20450571
187	0xbd947313	-0.07248511
188	0x3e8c034f	0.27346274
189	0x3f33abf7	0.7018427
190	0xc096ddf9	-4.7145963
191	0xc0634749	-3.551226
192	0x3cf94d2f	0.030432312
193	0x3fb7fb89	1.4373637
194	0x3e2167eb	0.15762298
195	0xbf4acd67	-0.7921967
196	0x3f956ac5	1.1673208
197	0xc0f9ca86	-7.805972
198	0xbe5bc975	-0.21463569
199	0xc095a8a6	-4.676837
200	0xc0c693ca	-6.2055407
201	0x3e15da8c	0.1463415
202	0x3e45a05e	0.19299456
203	0x3e96165d	0.29313937
204	0xc16618ce	-14.381056
205	0xc0876293	-4.230783
206	0xbfb8e1e5	-1.4443938
207	0x3ec2d1d5	0.38050714
208	0xbe96f234	-0.2948166
209	0xc13841f5	-11.516103
210	0xc1798313	-15.594501
211	0xc0a94a93	-5.2903533
212	0xc04ad4ce	-3.1692386
213	0xc08a9654	-4.3308506
214	0x3ea4ad96	0.32163686
215	0xc0c10db4	-6.0329227
216	0xbd4825ee	-0.048864298
217	0xbf60be9e	-0.8779086
218	0xc10df696	-8.872702
219	0x3ec56d6d	0.38560048
220	0x3dfbbf49	0.12292344
221	0xc0b79848	-5.737339
222	0xbf8640fc	-1.0488582
223	0xbfd8cc1e	-1.6937292
224	0x3eca5521	0.39518073
225	0xbedb25a7	-0.42802164
226	0x3f4ccbb1	0.7999831
227	0xc07dab1e	-3.9635692
228	0x3f56e6c7	0.8394589
229	0x3ed63fcb	0.41845545
230	0x3e407dff	0.18798064
231	0xc0646b53	-3.5690506
232	0x3fb46ed4	1.4096322
233	0x3f46cffa	0.776611
234	0xbfaa1bd3	-1.3289741
235	0x3e21bbca	0.15794292
236	0x3f890eab	1.0707601
237	0x3e9cccce	0.30625004
238	0x4023afbe	2.5576015
239	0x3e85103f	0.25988957
240	0xbec70433	-0.3887039
241	0x3e7c9297	0.24665295
242	0x3d367787	0.044547584
243	0xbef5691c	-0.47931755
244	0x3fce3692	1.6110404
245	0xbf0a67a6	-0.54064405
246	0x3ea0dece	0.31419986
247	0xbf0954a8	-0.536448
248	0x3d350f45	0.044204015
249	0x40094f3d	2.1454613
250	0x3e4cfef6	0.20019135
251	0xbf36ec72	-0.71454537
252	0x3eaaedc5	0.3338453
253	0xbf2cb09e	-0.67456996
254	0xbfb1ed49	-1.3900539
255	0x401b6873	2.42825

bias f4 [32]
0	0x3df07649	0.11741311
1	0x3fb24ce4	1.3929715
2	0x3f0ed25d	0.5578974
3	0x3f81db57	1.0145062
4	0x3fc79dd6	1.5595043
5	0x3f000e7b	0.50022095
6	0xbce9907f	-0.028511284
7	0x3f8b5a10	1.088686
8	0x3fb9b19a	1.4507325
9	0x3ce69768	0.028148368
10	0x3f3b8e77	0.7326426
11	0xbd9df525	-0.07712773
12	0xbe42ca44	-0.1902247
13	0xbe25927f	-0.16169165
14	0x3f36c6b0	0.71396923
15	0x3fcaa6b1	1.583212
16	0x3f5214fd	0.82063276
17	0xbf16a9bb	-0.5885274
18	0x3f9668b8	1.1750708
19	0xbe086de9	-0.13323177
20	0xbe7de6a1	-0.24795009
21	0xbe5ce353	-0.21571092
22	0xbef695c2	-0.4816113
23	0x3f9ecbe5	1.2405974
24	0xbe3238fa	-0.17404547
25	0x3fbf5245	1.4946982
26	0x3f2fe88c	0.68714213
27	0xbe000833	-0.12503128
28	0x3fb316ba	1.3991311
29	0xbe58364c	-0.21114463
30	0x3e7e26e0	0.24819517
31	0xbed59a61	-0.41719344

weight f4 [36, 32]
0	0x3f7481d4	0.955106
1	0x3f0422e2	0.51615727
2	0xbfb8d68c	-1.4440475
3	0x3f03fc84	0.51557183
4	0x3e687b39	0.22703256
5	0x3ebfe142	0.37476546
6	0x3fb32e6c	1.3998542
7	0x3f3a8cea	0.7287127
8	0x3f56ae86	0.8386005
9	0xbe0eba83	-0.13938336
10	0x3f42b848	0.7606244
11	0xbe0f70a7	-0.14007817
12	0xbc2bdce4	-0.010489676
13	0xc01c1d85	-2.4393017
14	0x3e82c1c8	0.25538468
15	0x3f559127	0.8342461
16	0x3eaf60fe	0.34253687
17	0xbf9749ea	-1.1819432
18	0x3f30dd2e	0.69087493
19	0xc019d8dc	-2.403861
20	0x3e0e2b97	0.13883816
21	0x3daaab4f	0.08333456
22	0x3fafa99f	1.3723639
23	0x3f356966	0.7086395
24	0xbe29cc65	-0.16581877
25	0x3f24d5d6	0.6438879
26	0xbfd382e7	-1.6524323
27	0x3db918b2	0.090379134
28	0xbef6ed20	-0.48227787
29	0x3f0a9c19	0.54144436
30	0x3f70ca55	0.94058734
31	0x402e45fb	2.7230213
32	0xbed8b8e0	-0.42328548
33	0x3fad2649	1.3527309
34	0xc041f570	-3.0306053
35	0x3e726b8a	0.23673835
36	0x3d243863	0.040092837
37	0xbff2f478	-1.8980856
38	0x401fead6	2.4987082
39	0x3f2a4f1d	0.6652697
40	0x3f1d9e41	0.615696
41	0xc0806497	-4.012279
42	0x3f83f76f	1.0309886
43	0x3e336cb6	0.17521939
44	0xbe14536c	-0.14484948
45	0xbf51cba5	-0.8195136
46	0x3ed184c0	0.40921593
47	0x3f329693	0.6976101
48	0x3d6034aa	0.054737724
49	0xc082d15e	-4.0880575
50	0x3ed4cada	0.41561013
51	0xc05ae076	-3.41995
52	0x3fc00883	1.5002598
53	0x3cc755e8	0.024332955
54	0xc05bfe6b	-3.4374034
55	0x3fce0ddc	1.609798
56	0x3e1e496f	0.154577
57	0x3f9a7cc0	1.2069321
58	0xbf93d21e	-1.1548498
59	0x3dd3ce70	0.10342109
60	0xc00a02de	-2.156425
61	0x3eccab1d	0.399743
62	0x3f172355	0.5903829
63	0x401fba2b	2.4957378
64	0x3fb5face	1.4217165
65	0xbdadafa2	-0.08480765
66	0xc0998771	-4.7977834
67	0x3fce478a	1.6115582
68	0x3fa7e228	1.3115892
69	0x4028bb76	2.6364417
70	0x3fefacd6	1.872462
71	0x3e62c099	0.22143783
72	0x3f86e8c0	1.053978
73	0xc0632c08	-3.5495625
74	0x3fd2620c	1.6436172
75	0x3d05b9f5	0.032648046
76	0xbda11012	-0.07864393
77	0x3f0e8006	0.556641
78	0x401588c3	2.3364723
79	0x3f8fb9b1	1.1228544
80	0xc016f80e	-2.35889
81	0xc0d4867e	-6.6414175
82	0xbdec9925	-0.115526475
83	0xbfa9fcf7	-1.3280324
84	0xc097ded0	-4.745949
85	0x3e1b1274	0.15143758
86	0x40091c7a	2.142363
87	0xbfcf41d4	-1.6191964
88	0x3e15d743	0.14632897
89	0x3f3ee60d	0.7456978
90	0xbfe1f284	-1.7652135
91	0xbdc3c31c	-0.095586985
92	0x402fa9a8	2.74473
93	0xc09525ca	-4.660863
94	0xc027bfbd	-2.6210778
95	0xc01b6be4	-2.4284601
96	0xbf1a710b	-0.6032874
97	0x3f4a2f96	0.7897886
98	0x3f6765b4	0.9038956
99	0x3f82afe6	1.020993
100	0x3e693758	0.22775018
101	0xbf0687d8	-0.5255103
102	0x4074a5d9	3.8226225
103	0x3f8a6f1e	1.081516
104	0x3f6b2677	0.9185557
105	0xc01c22c8	-2.4396229
106	0x3f359272	0.7092658
107	0x3dd52e9f	0.10409283
108	0xbe1913f9	-0.14949025
109	0x3f5f0c10	0.8712778
110	0x3e7576e4	0.23971134
111	0x3f39904f	0.7248582
112	0x3f1028e0	0.5631237
113	0x4026ffc9	2.609362
114	0x3e28e972	0.16495302
115	0xbe2bfc80	-0.1679554
116	0x3f4fc890	0.8116541
117	0xbe035179	-0.12824048
118	0xc01c4228	-2.4415379
119	0x3e890bf1	0.26766923
120	0x3d2cd483	0.042194854
121	0x3f64885f	0.89270586
122	0xbfb81ef7	-1.438445
123	0x3d3c0265	0.04590072
124	0xc04920e7	-3.1426332
125	0xbfe48852	-1.7854102
126	0x3fa596c6	1.2936637
127	0xc09032d7	-4.506206
128	0x3fd911ae	1.695852
129	0x3ee78a68	0.45222783
130	0xc03dc00b	-2.9648464
131	0xbf771d47	-0.9652905
132	0x3f436ab1	0.76334673
133	0x3f696546	0.91170156
134	0x3f87090d	1.0549637
135	0x3f0c6000	0.54833984
136	0x3f020270	0.5078497
137	0xbfe72c8c	-1.806047
138	0x3faa659a	1.3312256
139	0x3dfb037f	0.12256526
140	0x3de280e6	0.11059742
141	0x3f0a623c	0.54056144
142	0x3f4fe74f	0.81212324
143	0x3f7b459a	0.9815308
144	0x400c3401	2.190674
145	0x3f5c4bc5	0.86053115
146	0xbeb8874b	-0.3604072
147	0xc02b3757	-2.6752527
148	0x408486a8	4.1414375
149	0x3e2977d7	0.16549622
150	0xbf9e0f5b	-1.2348436
151	0x3f3ccaee	0.73747146
152	0x3d9d6b38	0.07686466
153	0x3f5541df	0.83303636
154	0xbf018567	-0.5059418
155	0x3d47c2bc	0.048769698
156	0x3faac98b	1.3342756
157	0xc08a1e09	-4.3161664
158	0x3f177b4f	0.5917253
159	0x3f9ab878	1.2087545
160	0xbea685a9	-0.3252385
161	0x3ef0b0d3	0.47009906
162	0xbfcc223a	-1.5947945
163	0xbe863fea	-0.26220638
164	0x3f109e76	0.5649179
165	0xbf7da3ac	-0.9907787
166	0x400dc9c9	2.215441
167	0x3f3246a8	0.6963906
168	0x3fa08fa5	1.2543837
169	0xc0318a9a	-2.7740846
170	0x3ff0a0b5	1.8799044
171	0xbd788f53	-0.06068356
172	0x3d017ffe	0.031616203
173	0xbf3ec020	-0.7451191
174	0x3dcd9a3f	0.10039186
175	0x3f853cfb	1.0409235
176	0xbd500547	-0.050786283
177	0x40a5df8e	5.1835394
178	0x3ec300ec	0.3808664
179	0xbff88258	-1.9414778
180	0x407a8f4b	3.914996
181	0x3e06a7e7	0.13149987
182	0xbe1481e4	-0.14502674
183	0x3f63c5ee	0.8897389
184	0x3d64bbee	0.055843286
185	0x3db13dd5	0.08654372
186	0x3e88287e	0.26593393
187	0xbdf6bf9b	-0.120482646
188	0x3fb568a6	1.4172561
189	0xc09d0bfe	-4.907714
190	0x4012d6e0	2.294365
191	0x3f2c0d3d	0.672077
192	0xc022c04a	-2.5429864
193	0x3ead983f	0.33905217
194	0x3f48ef64	0.7849028
195	0x4019f192	2.4053693
196	0x3f67637e	0.9038619
197	0x3f0d2d89	0.55147606
198	0x3e91d17f	0.28480145
199	0x3f359f3f	0.70946115
200	0x3ee8c5e6	0.45463485
201	0xc02cb08b	-2.6982753
202	0x3f89dc35	1.0770327
203	0xbbc3393f	-0.005957752
204	0xbdd8be8f	-0.10583221
205	0xbf086cfd	-0.532913
206	0x3f640449	0.8906904
207	0x3f773ba4	0.9657538
208	0xbe3d4bce	-0.18485948
209	0xc09ab886	-4.835025
210	0x3f25e7b9	0.64806706
211	0xbf9c67a1	-1.2219125
212	0xbfa03cde	-1.2518575
213	0x3c48a0f7	0.012245408
214	0xbf4b600d	-0.79443437
215	0xbf6ffabb	-0.9374196
216	0x3e13a04f	0.14416622
217	0x3f3b1cde	0.7309092
218	0xbfad98b9	-1.3562232
219	0x3c1be6b2	0.009515451
220	0xc0c63bfb	-6.194822
221	0xbfc6a823	-1.5520061
222	0x400e3779	2.2221358
223	0x3f2b4f6e	0.66918075
224	0xc03f996e	-2.9937396
225	0x3f984f9c	1.1899295
226	0xbff56830	-1.917242
227	0x400fb1de	2.2452312
228	0x3fb284e5	1.3946806
229	0xbf400226	-0.7500328
230	0x400ec434	2.2307253
231	0xbd153d78	-0.036435574
232	0xbf043fbf	-0.5165977
233	0xc0983753	-4.7567534
234	0x3fa822c1	1.3135606
235	0xbd8d09a8	-0.068866074
236	0xbe14ac0a	-0.14518753
237	0xbf4c34cc	-0.7976806
238	0xbeb9c509	-0.36283138
239	0x3f46d707	0.77671856
240	0x3f103d10	0.56343174
241	0x40764f67	3.8485963
242	0x3f1f4957	0.6222128
243	0xc065430b	-3.582217
244	0x40b0b598	5.522167
245	0x3da701ee	0.08154665
246	0xc0a9ba9f	-5.304031
247	0xbedd8551	-0.43265775
248	0xbe0845f4	-0.13307935
249	0x3fb471fa	1.4097283
250	0xc011e043	-2.2793128
251	0xbd03a855	-0.032142956
252	0xc0abb776	-5.366145
253	0xc0726506	-3.787416
254	0x40258def	2.586788
255	0x3f8b1d1e	1.0868261

bias f4 [36]
0	0x3f83fbcc	1.0311217
1	0x3f92ffd1	1.1484319
2	0x3fd03e8c	1.6269088
3	0x3fea0539	1.8282844
4	0xbe2ad442	-0.16682532
5	0x3f5fdfbe	0.8745078
6	0x3fb1bc83	1.3885654
7	0xbc28359d	-0.010266689
8	0x3fe86825	1.8156782
9	0x3f555f7e	0.83348835
10	0x3f54e83f	0.8316688
11	0x3aa95e5c	0.0012921798
12	0x3fa04d55	1.25236
13	0x3fc96324	1.573338
14	0x3fc73a00	1.5564575
15	0x3fbe2603	1.485535
16	0x3ea9ad6d	0.33140126
17	0x3f619719	0.8812118
18	0x3fd52654	1.6652322
19	0xbd5d7dd2	-0.05407507
20	0x3f49e1bd	0.78860074
21	0x3f08116b	0.5315158
22	0x3f1a4033	0.6025421
23	0x3ec9a722	0.39385325
24	0x3eca4300	0.39504242
25	0x3f8eb758	1.1149702
26	0x3f82ab3b	1.0208505
27	0x3fc97163	1.5737728
28	0x3f9d1116	1.2270839
29	0x3f273dec	0.6532886
30	0x3f12e502	0.5738069
31	0x3faf7e07	1.3710335
32	0x3f4babb9	0.795589
33	0x3f9355af	1.1510524
34	0xbdc355ec	-0.09537873
35	0x3f1dfc21	0.61712843
