models/recycling_8_4_4_target_net.pt (torch, 5993 bytes, 6 tensors)

weight f4 [8, 8]
00000000: 7b46 b9bd 5fa9 503e 5b49 913d fb3a 67be
00000010: 7cc1 483c 95cb 043e df50 4cbe 9bd4 48be
00000020: 310f 9e3e 9cba 173f 4f54 5f3e ec7a 2e3e
00000030: 167d 60bf 1009 233e 673f 1840 f19e 463f
00000040: 08de 3cc0 0de5 9ebf 569b 2640 e8d2 643e
00000050: a150 403f ccac 4cbf 535c e4be c7bd 213e
00000060: cfae a93e 5ca7 8bbc c605 f3be 1bdd 963e
00000070: d76a 673f ddd3 093f fe66 4bbf 2e83 913b
00000080: 757f 0cbf 87e3 b3be 605e 763f 9409 93b9
00000090: 7da5 223e 60b7 e4bc 69be 29be 3938 483d
000000a0: 63a4 a63f 97e5 5e3f 67dc 14c0 78d7 563f
000000b0: 6635 d83e 40ba bc3f 3a10 8cbf 05ff 54bd
000000c0: e579 1e3b e273 fe3d 3c1f 173e 825c 9ebe
000000d0: 208f 91be f069 23bf c24c 253f f695 42be
000000e0: a891 1a3e 684f febd d67d 2abf e2b4 2f3d
000000f0: 8f2f 92be 816f 203f 3766 cfbe 0975 913e
-0.09046646 0.2037711 0.070940696 -0.22581093 0.0122531615 0.12968285 -0.19952725 -0.19612353
0.30870965 0.5926912 0.21809505 0.17039078 -0.87690866 0.15921426 2.3788698 0.77586275
-2.9510517 -1.2413651 2.603231 0.2234608 0.7512303 -0.7995117 -0.44601688 0.1579505
0.3314118 -0.017047577 -0.47465342 0.29465565 0.903974 0.538389 -0.7945403 0.0044406867
-0.54881984 -0.35134527 0.96237755 -0.0002804516 0.15883441 -0.027919471 -0.16576542 0.048881743
1.3018917 0.87069076 -2.3259523 0.8392253 0.4222824 1.4744339 -1.0942452 -0.052001018
0.0024181542 0.12424447 0.14758009 -0.30929953 -0.28429508 -0.6383352 0.6457025 -0.19002518
0.15094626 -0.12417489 -0.6659826 0.042897113 -0.2855191 0.6267014 -0.4050767 0.28409603

bias f4 [8]
00000000: deb4 a9bd ba48 8ebe ffbf 0bbf 53ab a43f
00000010: a7ad b43f 578b 313e 508c 0c40 206e b23f
-0.08286451 -0.2778986 -0.5458984 1.2864784 1.4115494 0.1733831 2.196064 1.3939857

weight f4 [8, 8]
00000000: e730 71be 0941 39bf 27e4 1c3f 533a 963f
00000010: 5360 313f f51b 563e e290 1a3f 6bea 1a3f
00000020: 8f64 84be b9d7 2c3f 57d9 bdbf b3d8 c93e
00000030: a49b 7f3f 803a a6be 5a5d ea3f 45d6 843f
00000040: 6ced 763e 1f75 383c 8b74 7abe e677 8d3e
00000050: b410 b5bd 3527 eabc aef2 9bbe a706 8fbd
00000060: b091 83be 7eab 1340 043e be3e 500f 9abf
00000070: 8a01 85be 8207 13c1 c537 bf3e 2be1 16bf
00000080: 2eba 13be 69c6 353f 60e4 30bd d829 5cbe
00000090: 5df1 9e3f 9824 383f 5504 c73f 90b1 1cbd
000000a0: 0f06 893d f20c 4ebf dc75 373f fea0 413f
000000b0: a717 613f a6b9 29bf 0599 6c3f b36a 953f
000000c0: 7c4c 033d 7c7e 6d3d 8e0f a9c0 1a8c 6d3f
000000d0: beb1 b63e 6b4b cd3e aed7 af3f b6b9 853f
000000e0: 47d0 853e 16a1 82be 2e35 06be fd9b 9f3e
000000f0: fbdf 89be 7e39 a43e f95e 8ebe eb05 7fbe
-0.23553811 -0.7236486 0.6128563 1.1736549 0.69287604 0.20909102 0.60377324 0.60513943
-0.2585797 0.67516667 -1.4831952 0.3942314 0.99846864 -0.32466507 1.8309739 1.037789
0.24114007 0.011258393 -0.2445852 0.27630538 -0.088410765 -0.028583148 -0.30458587 -0.06983691
-0.25697088 2.307342 0.3715669 -1.2035923 -0.25977737 -9.189333 0.37347236 -0.5893733
-0.1442649 0.71005875 -0.043186545 -0.21500337 1.2417408 0.7193084 1.5548197 -0.038255274
0.06690609 -0.804885 0.71664214 0.7563628 0.87926716 -0.662989 0.9242099 1.1673187
0.032055363 0.057981953 -5.283149 0.92791903 0.35682482 0.40096602 1.3737695 1.04473
0.26135466 -0.25513524 -0.13106224 0.31173697 -0.26928696 0.32075113 -0.27806833 -0.24904601

bias f4 [8]
00000000: 14a7 b13f 4b31 aa3f fae2 a5bd 3be9 4f3f
00000010: 209c d73f beb9 c73f 2170 743f 01b3 8cbe
1.3879113 1.3296293 -0.08099933 0.81215256 1.684452 1.5603559 0.95483595 -0.2748032

weight f4 [9, 8]
00000000: d92f 9f3f 3071 4c3f 97f4 14be 4a3b b13e
00000010: 73a6 293f 16a7 953f fb0a 4f3e aca2 8fbe
00000020: 19bc 293f e8f2 893f c210 183e d92f 033e
00000030: 40d2 f43e ae1b 343f 05be ad3f f4df 7fbe
00000040: 6363 b83e b27c 943f d191 9f3e 0077 2d3e
00000050: b9f8 f43e 716c 213f 9ff6 5d3f b34a 35be
00000060: ac16 5e3f d429 613f 69db a7bc e948 a9c0
00000070: f558 673f 2002 b33f 6370 643e 691b b13e
00000080: b34b 353f 98f6 6f3f 3b2f 463e d34d e7bf
00000090: bd58 9c3f 22be cf3e 7278 753f 517b dc3d
000000a0: 449f 933e 13ad ab3f 615f 16be 6987 b3bf
000000b0: 2f4b 4e3d 0c9a e83e db1a da3f 111b 683c
000000c0: 7962 a63f c7b8 8e3f 7598 9c3e bf4f 68bf
000000d0: ef40 2a3f e7c9 8d3f 509c 7abe 7251 983e
000000e0: 27b0 5f3f 5eb9 633f 8446 563c 9c4e 753e
000000f0: 6f08 f93e 542e 843f 3f10 1d3f 19be 4dbe
00000100: c31a 2e3f 46b3 863f 9ed8 4ebe 9cd5 edc0
00000110: eefa 9b3f ad5f 163f 7966 883f 0b52 bebd
1.2436477 0.7986021 -0.14546429 0.34615546 0.66269606 1.1691616 0.20219032 -0.28053796
0.6630264 1.0777254 0.14850143 0.12811221 0.47816658 0.70354736 1.3573614 -0.24987775
0.36013326 1.1600554 0.31165937 0.16939926 0.4784601 0.63056093 0.8670444 -0.17704277
0.86753345 0.8795445 -0.020490365 -5.29015 0.9037011 1.3985023 0.22308497 0.34591225
0.7081863 0.9373565 0.19353954 -1.8070625 1.2214581 0.40574747 0.9588691 0.10765708
0.28832448 1.3412193 -0.14684822 -1.4025699 0.05036467 0.45430028 1.7039446 0.014166609
1.2998801 1.115014 0.30585065 -0.9074668 0.6650533 1.1077241 -0.24473691 0.29749638
0.8737816 0.8895472 0.013078336 0.23955768 0.48639247 1.0326638 0.61352915 -0.20092048
0.68009585 1.052346 -0.2019982 -7.4323254 1.2185953 0.5873974 1.0656272 -0.09292992

bias f4 [9]
00000000: d3f6 e83f a839 4d3f 4680 5abe 84ea a13f
00000010: 11d2 783f 9a30 5f3f ac8a 053e 2086 e53e
00000020: 6ef5 073f
1.8200325 0.801661 -0.21337995 1.2649693 0.97195536 0.87183535 0.1304118 0.44828892
0.5310887
