models/recycling_8_4_4_transition_net_1.pt (torch, 3529 bytes, 4 tensors)

weight_ih f4 [4, 5]
00000000: 82dd 86be 7a96 833e d4e3 87be e494 163e
00000010: fcd7 13be 0088 60bd 881d f6be bc1c 74be
00000020: 10ea 8a3e 40e9 f8bd 1afd fe3e e634 cd3e
00000030: 20ca bfbc 2ce0 aabe f2e4 9b3e 20e7 1e3e
00000040: c47b a5be 8e48 a63e 066b 9b3e 8c0b e33e
-0.26340872 0.25700742 -0.26541007 0.14705235 -0.1443786 -0.0548172 -0.48069406 -0.23839086
0.271317 -0.12153864 0.49802476 0.4007942 -0.02341181 -0.33374155 0.3044811 0.15517855
-0.32320988 0.3247723 0.3035509 0.44344747

weight_hh f4 [4, 4]
00000000: d680 8fbe 788e a8bd c0b1 1ebc 1890 953d
00000010: 7848 c2be d0a9 b5be e243 8b3e a81e f0bd
00000020: 3019 7a3e 4083 e93c d01c 283e 802a e13d
00000030: b429 3a3e cccd 7d3e ae15 edbe a4db 803e
-0.28027982 -0.08230299 -0.009685934 0.07302874 -0.37945914 -0.3548112 0.27200228 -0.11724597
0.24423671 0.028504968 0.16417241 0.10994434 0.18179971 0.24785537 -0.46305603 0.25167572

bias_ih f4 [4]
00000000: e2ff b3be 8027 c1be 8018 f93c 387f aebd
-0.3515616 -0.3772545 0.03040719 -0.08520359

bias_hh f4 [4]
00000000: de5a 963e 3c42 94be 5294 e3be 0e4f ba3e
0.293662 -0.28956783 -0.44449097 0.3638844
