models/recycling_8_4_4_transition_net_0.pt (torch, 3529 bytes, 4 tensors)

weight_ih f4 [4, 5]
000000 4a e8 83 3e 54 fc 61 be a0 83 c6 bd 20 51 70 3e
       0.2576316 -0.22068912 -0.09693074 0.23468447
000010 02 02 f1 be 12 87 99 3e a8 a9 d2 bd 0a 3d 82 3e
       -0.47071844 0.29985863 -0.102862656 0.25437194
000020 78 5a 8e 3d 00 c4 7a bd 40 02 0e 3e 20 10 ca 3c
       0.06950849 -0.061222076 0.13868046 0.024665892
000030 30 ff 3a 3e e4 86 47 be 30 51 15 bd 40 60 38 bd
       0.18261409 -0.1948505 -0.03645438 -0.045013666
000040 30 6c 94 3d 00 e7 02 bb 64 c9 df 3e 50 54 1f 3e
       0.07247198 -0.0019974113 0.43708336 0.15559506

weight_hh f4 [4, 4]
000000 08 ac 3e be 36 9d 9a be 70 a3 ab bd b0 d8 5c be
       -0.18620312 -0.30198067 -0.083807826 -0.21567035
000010 d4 11 24 be 80 1f c4 3c d4 9b 98 3e 38 25 8b 3e
       -0.16022426 0.023940802 0.29806387 0.27176833
000020 c6 40 fa be 1c b3 9e 3e c8 08 0f 3e 88 d4 f2 3e
       -0.48877543 0.30996025 0.13968194 0.47427773
000030 ae f9 a8 3e 52 40 e9 be 2e 68 f3 be 3c f4 76 be
       0.3300299 -0.45556885 -0.4754042 -0.24116606

bias_ih f4 [4]
000000 ee cb e0 3e 10 91 aa bd 80 1d 5b 3e a8 ee 6d be
       0.43905586 -0.0832845 0.21397972 -0.23235571

bias_hh f4 [4]
000000 1a 31 fb 3e 5c a0 58 be 12 fb bf 3e 80 03 c2 3b
       0.490609 -0.21154922 0.3749624 0.0059208274
