models/tiger_64_32_32_transition_net_1.pt (torch, 8382 bytes, 4 tensors)

weight_ih f4 [32, 5]
0	0xbe0ff98c	-0.14060038
1	0xbdc58dde	-0.096462
2	0x3e22026a	0.15821233
3	0x3d52fd58	0.05151114
4	0x3df94a7c	0.1217241
5	0xbe0ac79b	-0.13552706
6	0x3da3659c	0.07978365
7	0x3de673cc	0.11252555
8	0xbd280033	-0.041015815
9	0xbc057722	-0.008146079
10	0x3e03fed3	0.12890176
11	0x3d4570f1	0.048203412
12	0x3d4fc2ea	0.050722994
13	0x3a0cf3a9	0.00053768844
14	0xbd97257b	-0.07380196
15	0xbddd98ae	-0.10820137
16	0x3e34a4b9	0.17640962
17	0xbc64cdcf	-0.013965084
18	0x3e20a454	0.15687686
19	0x3e141c19	0.14463843
20	0xbdbd505e	-0.092438444
21	0x3c44ddcc	0.012015771
22	0xbd3935be	-0.04521727
23	0xbb525b7c	-0.0032097986
24	0x3dee9b00	0.11650658
25	0x3dc75b77	0.097342424
26	0xbdcda258	-0.1004073
27	0xbdb323ff	-0.087471
28	0xbe0098c1	-0.12558271
29	0xbe19b13e	-0.15009019
30	0x3de83ef6	0.11340134
31	0xbddfb5d9	-0.109233566
32	0x3b1766ff	0.0023102162
33	0xb97bd183	-0.00024015275
34	0x3cf7bd77	0.030241711
35	0xbc2974e9	-0.010342815
36	0x3dbbe014	0.09173599
37	0x3cc6e15e	0.024277385
38	0x3e01ce81	0.12676431
39	0x3d1c4c7a	0.03815887
40	0xbb107f95	-0.00220487
41	0x3ccd34c6	0.025049578
42	0x3df14ce7	0.11782246
43	0x3cda9370	0.026681632
44	0x3dff0c57	0.124535255
45	0xbc8952be	-0.016763087
46	0x3ac8e769	0.0015327755
47	0x3e181517	0.14851795
48	0xbe2ae612	-0.16689327
49	0x3c907796	0.017635148
50	0x3e25565d	0.16146226
51	0xbdb5ace3	-0.08870866
52	0xbd058fd7	-0.03260788
53	0xbc2e7f34	-0.010650445
54	0x3d6e8b8d	0.058238555
55	0x3d88d68e	0.06681548
56	0x3d24083e	0.040046923
57	0x3d8ed0a8	0.06973392
58	0xbd9b55c0	-0.07584715
59	0x3d985017	0.07437151
60	0xbd65978e	-0.056052737
61	0x3de37b6a	0.11107524
62	0xbd5481a3	-0.051881444
63	0xbe1a23bc	-0.15052694
64	0x3c4ed8c0	0.012624919
65	0x3dbc62dc	0.091985434
66	0xbbe3062a	-0.006928225
67	0x3b166213	0.002294664
68	0x3a243415	0.00062638643
69	0x3dc02563	0.09382131
70	0x3c629ed7	0.013831816
71	0xbe21b62e	-0.15792152
72	0xbe0118bb	-0.1260709
73	0x3c2b33a0	0.01044932
74	0xbc689110	-0.014194742
75	0x3e2d0758	0.16897333
76	0xbd2a36cb	-0.04155616
77	0x3e0a891a	0.13528863
78	0xbe18aa68	-0.14908755
79	0xbe2c0b1d	-0.16801114
80	0xbc853724	-0.016261645
81	0xbde53c21	-0.11193109
82	0xbd532886	-0.051552318
83	0x3ca31e47	0.019911898
84	0xbe1d0521	-0.15333988
85	0x3df8c85e	0.12147592
86	0xbddbb839	-0.10728497
87	0x3e0ae432	0.13563612
88	0x3d6caf35	0.057784278
89	0xbd07cafb	-0.03315256
90	0xbe1e6b3f	-0.15470599
91	0x3cefaf5e	0.029258426
92	0xbdca4182	-0.09875776
93	0x3e1c72c4	0.15278155
94	0xbe184860	-0.14871359
95	0xbd3f4484	-0.0466962
96	0xbdc786d4	-0.09742513
97	0xbde8d90c	-0.113695234
98	0xbdbcd418	-0.09220141
99	0xbc8f922c	-0.017525755
100	0x3c43ef3d	0.011958894
101	0x3cf54f09	0.029944913
102	0x3db90058	0.09033269
103	0xbd93e0b5	-0.07220594
104	0xbde0a115	-0.10968224
105	0xbd188fea	-0.037246622
106	0x3e2a95ed	0.16658755
107	0xbcb0eccc	-0.021597289
108	0xbe1864b6	-0.14882168
109	0x3e0e09da	0.13870946
110	0x3d302e30	0.043012798
111	0x3cfb56f6	0.030681115
112	0x3cf89270	0.030343264
113	0x3dfc97d2	0.12333645
114	0xbda4da1f	-0.08049416
115	0x3e03ee08	0.1288377
116	0x3e2e1157	0.16998802
117	0xbd3ab47c	-0.04558228
118	0x3de47e6f	0.11156928
119	0x3dc7be48	0.0975309
120	0x3e29857f	0.16554831
121	0xbd28857d	-0.04114293
122	0xbdd75d42	-0.105158344
123	0xbd86639b	-0.06561967
124	0xbdf64ff8	-0.120269716
125	0x3bc6ba09	0.0060646576
126	0x3e2e873d	0.17043777
127	0x3e2f9d10	0.17149758
128	0x3e08bbd6	0.13352904
129	0x3c8f4ba3	0.017492121
130	0x3b7b7f7c	0.0038375547
131	0x3defb69a	0.1170475
132	0x3dd6f904	0.10496715
133	0xbc8fb55a	-0.01754253
134	0xbd37217d	-0.04470967
135	0x3d8f2777	0.06989949
136	0xbbc8ff19	-0.0061339256
137	0xbdfe5894	-0.12419239
138	0xbdaa4993	-0.083148144
139	0x3e12ce03	0.143364
140	0x3e16c0c1	0.14721967
141	0xbd8d1287	-0.068882994
142	0xbd1b62c7	-0.037936
143	0xbdb36f4d	-0.08761463
144	0xbd6c6457	-0.05771288
145	0x3e25027e	0.16114232
146	0xbe20ffca	-0.15722576
147	0x3dacc26c	0.084355205
148	0xbe22b2ad	-0.15888472
149	0xbdacb9e2	-0.08433892
150	0xbd1372b5	-0.035998065
151	0x3c48b124	0.012249265
152	0xbceb2d5e	-0.028708156
153	0xbda57e34	-0.08080712
154	0xbda17b79	-0.07884879
155	0xbddc3460	-0.10752177
156	0xbdfcb47b	-0.123391114
157	0xbde18ed0	-0.110135674
158	0x3e2d95b6	0.16951641
159	0xbdaa9509	-0.083292075

weight_hh f4 [32, 32]
0	0xbe168894	-0.14700538
1	0x3df8d485	0.1214991
2	0x3d8c74c7	0.06858211
3	0x3df908a3	0.121598504
4	0xbe340f1a	-0.17583886
5	0xbe2c4f1e	-0.16827056
6	0xbe007a52	-0.12546661
7	0xbdbeb923	-0.09312656
8	0xb9cc1989	-0.00038928937
9	0x3d9c9a53	0.076466225
10	0x3dd3f5b7	0.10349601
11	0xbe1bb214	-0.1520465
12	0x3d9062a0	0.07050061
13	0xbdd15eba	-0.10223146
14	0x3d266fbc	0.040633902
15	0x3d635628	0.055502087
16	0x3ce7c029	0.028289871
17	0x3d801753	0.06254449
18	0xbc109e41	-0.008826793
19	0x3def0376	0.11670582
20	0x3d1703df	0.036868926
21	0x3e1e96e6	0.1548725
22	0x3d1cf514	0.038319662
23	0xbdbfa78b	-0.09358128
24	0x3de8802f	0.11352574
25	0x3c1ce8ca	0.009576986
26	0x3e2ef1bd	0.17084403
27	0xbca02706	-0.019549858
28	0x3e331a69	0.17490543
29	0xbdd35827	-0.10319548
30	0x3db5f443	0.0888448
31	0xbe070a92	-0.13187626
32	0x3df88d3c	0.12136313
33	0x3d036fb8	0.032088965
34	0x3dcd8b21	0.10036302
35	0xbe1be3d0	-0.15223622
36	0xbe3411c2	-0.17584899
37	0x3dae71a3	0.08517768
38	0xbd94f289	-0.072728224
39	0x3d8f6200	0.07001114
40	0xbdd6cb1f	-0.10487961
41	0xbd5fd685	-0.05464794
42	0x3a4f9b8f	0.00079196034
43	0x3dda058d	0.1064559
44	0x3dcc730c	0.09982881
45	0xbc815bc1	-0.015790822
46	0xbd4cce4f	-0.05000144
47	0xbb48eaf2	-0.0030657616
48	0x3dba9877	0.091111116
49	0xbe196d34	-0.14983064
50	0xbd5d4067	-0.054016497
51	0xbe2e8082	-0.1704121
52	0x3cd10900	0.025516987
53	0xbcab4ad4	-0.020909704
54	0x3dcd17d4	0.100143105
55	0x3e109c6a	0.14122167
56	0xbe1ac70e	-0.15114996
57	0xbda03982	-0.07823469
58	0xbce8ce02	-0.028418545
59	0xbae70d7b	-0.0017627919
60	0xbd2548a1	-0.040352467
61	0xbde3a15b	-0.111147605
62	0xbd8be42f	-0.06830632
63	0xbb952d6c	-0.004552534
64	0x3e119255	0.14215977
65	0xbd38888b	-0.045052093
66	0x3def1669	0.11674196
67	0xbe1253b6	-0.14289746
68	0x3c018563	0.007905337
69	0xbe0d432a	-0.13795152
70	0xbe29dccc	-0.16588134
71	0x3c8f83e6	0.017518949
72	0xbda5c61b	-0.08094426
73	0x3e0544dd	0.1301455
74	0x3e0efae2	0.13962892
75	0xbe342c3e	-0.17595002
76	0xbc49d872	-0.012319671
77	0xbcf76695	-0.030200282
78	0xbdce5a6f	-0.100758426
79	0xbdfcc130	-0.12341535
80	0xbd9934f0	-0.074808
81	0x3d9fd78d	0.07804785
82	0x3d2c28fe	0.04203128
83	0x3dd9e536	0.10639422
84	0xbc2cbc6d	-0.010542971
85	0x3dbc08db	0.091813765
86	0x3d0c0546	0.034184717
87	0xbd1de40f	-0.03854757
88	0xbc295200	-0.010334492
89	0xbe24a2ca	-0.16077724
90	0xbb850753	-0.004059711
91	0xbd6ddee8	-0.058073908
92	0xbd7250f9	-0.059159253
93	0xbd916978	-0.07100195
94	0xbd1e4ee0	-0.03864944
95	0xbe05a47c	-0.13051027
96	0x3c29f60c	0.010373604
97	0xbbeb6a01	-0.0071842675
98	0xbd3eb455	-0.046558697
99	0x3e1d2345	0.15345486
100	0x3df2f85c	0.11863777
101	0x3d4c7e5d	0.049925197
102	0xbd8558d1	-0.06511081
103	0x3cb8b4e4	0.022547193
104	0xbdf91a07	-0.121631674
105	0x3dfc4377	0.123175554
106	0x3e2913ce	0.16511461
107	0xbcd8372b	-0.026393494
108	0x3e0b9a70	0.13633132
109	0x3e29e2eb	0.16590469
110	0xbc2e06bb	-0.010621722
111	0xbd866f35	-0.0656418
112	0x3c122c17	0.008921645
113	0x3cef5169	0.029213624
114	0xbe279088	-0.16363728
115	0xbc34ad5b	-0.011027659
116	0xbd82e6c0	-0.06391668
117	0x3df1963b	0.11796232
118	0xbba64801	-0.0050745015
119	0x3dee32b0	0.116307616
120	0x3e2103a4	0.15724045
121	0xbd62ec23	-0.05540098
122	0x3d1bdc4a	0.03805188
123	0xbc77c1e3	-0.01512191
124	0xbd9dc6c7	-0.077039294
125	0xbdc8d57d	-0.09806345
126	0x3b860a7a	0.0040906044
127	0x3d5bfe5c	0.053709373
128	0xbcfeb3dd	-0.031091625
129	0x3cf5edc8	0.03002061
130	0x3de23ee8	0.11047155
131	0x3d96ed60	0.073694944
132	0x3d954b6b	0.072897755
133	0x3d4b7df8	0.04968068
134	0xbe0b2730	-0.13589168
135	0xbddb0904	-0.10695079
136	0xbe063d72	-0.13109377
137	0x3dede8be	0.11616658
138	0xbe1f6fa6	-0.15569934
139	0xbe07252d	-0.13197775
140	0x3dee6cc3	0.116418384
141	0x3dd600ec	0.104493946
142	0xbe2b1ef6	-0.1671103
143	0x3dd1312c	0.10214457
144	0xbd2537e7	-0.040336516
145	0x3d1bffe3	0.03808583
146	0xbde2cb28	-0.11073905
147	0xbcdbd46b	-0.026834687
148	0x3d20ee4b	0.039289754
149	0x3e0a0674	0.13479024
150	0x3ddb8a24	0.107197076
151	0xbdc4de7e	-0.096127495
152	0xbded7987	-0.11595445
153	0xbc30404e	-0.010757519
154	0x3d633ee4	0.0554799
155	0x3dc6815b	0.09692641
156	0xbe3462e5	-0.1761585
157	0xbc6cae36	-0.014445832
158	0x3bccd7ec	0.006251326
159	0xbda91429	-0.08255798
160	0x3e0ec6d4	0.13943034
161	0xbd4034b0	-0.046925247
162	0xbe2c9557	-0.16853844
163	0xbdd82a46	-0.10554938
164	0x3bb9ba91	0.0056679924
165	0xbe06b581	-0.13155176
166	0x3d256330	0.040377796
167	0x3e30189a	0.17196885
168	0x3bed2178	0.007236656
169	0xbd326122	-0.043549664
170	0x3e2a8a1d	0.16654249
171	0x3e05a2ad	0.13050337
172	0x3df094d5	0.117471375
173	0x3c5bb346	0.013409441
174	0x3c046894	0.008081574
175	0xbe0c62a8	-0.1370951
176	0x3c9369c2	0.017994765
177	0x3e3011b7	0.17194258
178	0x3c191cb2	0.00934522
179	0xbe2189fb	-0.15775292
180	0x3dc6b5dc	0.09702656
181	0x3e227526	0.15865001
182	0x3e17c19f	0.14819954
183	0x3c089a95	0.0083376365
184	0x3d08070b	0.03320984
185	0x3cea5b0c	0.028607868
186	0xbd9461e0	-0.07245231
187	0xbcd34d3a	-0.02579366
188	0x3e13ad3f	0.14421557
189	0x3c93bebe	0.018035289
190	0x3e2a9bad	0.16660948
191	0xbdf06afe	-0.11739157
192	0xbcd3a4c6	-0.025835406
193	0x3b07c301	0.0020715597
194	0xbdd77947	-0.10521179
195	0x3e0bc321	0.13648655
196	0x3dfcda14	0.123462826
197	0xbdc348e4	-0.09535387
198	0x3e1f79a6	0.15573749
199	0x3e28cb8e	0.164839
200	0xbdd4df62	-0.103941694
201	0xbbc7cc91	-0.0060973843
202	0x3e346616	0.17617068
203	0xbdeb098a	-0.11476429
204	0xbce2df3b	-0.027694335
205	0xbdf8741c	-0.12131521
206	0x3e029db3	0.1275547
207	0x3ceac282	0.028657202
208	0x3d96b750	0.07359183
209	0x3e01e4eb	0.12684982
210	0xbce5c4f1	-0.02804801
211	0xbe34f1d6	-0.17670378
212	0x3c0dd42a	0.008656541
213	0xbc602409	-0.013680466
214	0x3d834cbb	0.064111196
215	0x3da8ff1d	0.08251784
216	0xbdb40818	-0.08790606
217	0xbd8e9b12	-0.06963171
218	0x3de439ea	0.11143859
219	0x3d4e20dc	0.050324306
220	0x3d25deab	0.040495556
221	0x3da13167	0.07870751
222	0x3da85856	0.08219974
223	0xbe02cbe4	-0.1277309
224	0x3c674667	0.014115906
225	0x3c8a7135	0.016899684
226	0xbe2edbc1	-0.17076017
227	0x3d19a91f	0.037514802
228	0xbb1a94e0	-0.0023587272
229	0x3e0c6919	0.13711967
230	0xbe2cc83e	-0.16873261
231	0x3e2a475d	0.16628785
232	0xbdb12c1b	-0.086509906
233	0x3dd548f3	0.104143046
234	0x3e05bb55	0.13059743
235	0xbcb3ace6	-0.02193303
236	0xbdb93990	-0.09044182
237	0xbcf06d45	-0.029348979
238	0xbde1c9e4	-0.11024836
239	0x3cb30046	0.021850716
240	0x3d982e91	0.07430757
241	0x3d15a4f2	0.036534257
242	0xbdd07d0c	-0.10180101
243	0x3dc5d17f	0.09659099
244	0x3e261cbd	0.162219
245	0xbd5c4f63	-0.053786647
246	0x3dbbfe40	0.09179354
247	0xbc3ee84e	-0.011652065
248	0x3d91ed97	0.07125395
249	0xbe011979	-0.12607373
250	0xbe1a9290	-0.15094972
251	0xbba472d7	-0.005018573
252	0xbe188666	-0.14895019
253	0x3d826ab8	0.06368011
254	0x3e297554	0.16548663
255	0xbd0e00de	-0.034668796

bias_ih f4 [32]
0	0x3e27cc3a	0.163865
1	0x3cf7611a	0.030197669
2	0x3d7c8f15	0.06165989
3	0xbd6deef9	-0.05808923
4	0xbe1c2b5a	-0.15250912
5	0x3ce2b4d9	0.027674126
6	0xbdd604fc	-0.104501694
7	0xbdbb3dad	-0.09142623
8	0xbe147c9a	-0.14500657
9	0x3e1b14d0	0.15144658
10	0xbdf2fed3	-0.1186501
11	0x3d517ab1	0.0511424
12	0x3d14fcf1	0.036374036
13	0x3dfa0da0	0.1220963
14	0x3dc5b7fc	0.09654233
15	0xbdfd7802	-0.12376405
16	0x3da07bfc	0.07836148
17	0xbdb7e640	-0.089794636
18	0x3bd497b6	0.006487812
19	0xbd8325cb	-0.06403693
20	0xbe1afac4	-0.15134722
21	0x3d58b037	0.052902427
22	0xbdf192ad	-0.11795554
23	0x3e311fb9	0.17297257
24	0x3d91e7f7	0.07124322
25	0xbd7a75b4	-0.061147407
26	0xbdd40179	-0.103518434
27	0xbe26d859	-0.16293468
28	0xbdb68828	-0.089126885
29	0xbdec31b5	-0.11532918
30	0x3c9bb8e9	0.01900907
31	0x3d2d5156	0.042313896

bias_hh f4 [32]
0	0x3e1cfb4f	0.15330242
1	0x3cc2a8ff	0.023762224
2	0xbd1315b3	-0.035909366
3	0xbda1697c	-0.07881448
4	0xbccbb5b3	-0.024866914
5	0x3dbf5fac	0.0934442
6	0xbe2e8aac	-0.17045087
7	0xbe25bce3	-0.16185336
8	0x3d8ed78d	0.06974707
9	0xbd5f5fb4	-0.05453463
10	0xbd564d7f	-0.05232
11	0xbde94aa3	-0.11391189
12	0xbdf11028	-0.1177066
13	0xbe078ffe	-0.13238522
14	0xbddc5966	-0.10759239
15	0xbe258275	-0.16163047
16	0xbdaa2465	-0.08307723
17	0x3e113ab1	0.14182545
18	0xbdc85463	-0.097817205
19	0x3e09976b	0.13436668
20	0xbe1865aa	-0.14882532
21	0x3ca7ebfb	0.020498266
22	0xbc6ff5fd	-0.0146460505
23	0xbe08b2ba	-0.13349429
24	0x3b8ce0ec	0.0042992737
25	0x3e16c7e2	0.14724687
26	0xbda39282	-0.079869285
27	0x3e263e4c	0.16234702
28	0xbc985403	-0.018594747
29	0xbd64f420	-0.05589688
30	0x3db2b6a3	0.087262414
31	0x3e0d826f	0.13819288
