models/tiger_64_32_32_target_net.pt (torch, 40792 bytes, 6 tensors)

weight f4 [64, 64]
0	0xc05473b7	-3.3195627
1	0x3fa97397	1.32384
2	0xbe888656	-0.2666499
3	0x3dab02ea	0.08350165
4	0x400ca3e2	2.1975026
5	0x3f6b1ccb	0.9184081
6	0x400fbde2	2.2459645
7	0xbe16e046	-0.14733991
8	0xbfb7fe79	-1.4374534
9	0xbdc82459	-0.09772558
10	0xbfe7e40c	-1.8116469
11	0xbd945269	-0.07242281
12	0xbfb77dbb	-1.4335245
13	0xbf66f7e8	-0.90222025
14	0xbeaa18d3	-0.33222064
15	0x3ed1df8f	0.40990874
16	0x3f52ab33	0.8229248
17	0xbeceb064	-0.4036895
18	0xbfb85a4f	-1.440256
19	0xbe59e268	-0.21277773
20	0xbf4270d5	-0.7595342
21	0x3fa380cf	1.2773684
22	0x3e805f58	0.25072742
23	0x3ef05c97	0.4694564
24	0xbf1a611f	-0.60304445
25	0xbeafd4d8	-0.34342074
26	0xbf81e660	-1.014843
27	0x3effc3ad	0.49953976
28	0xbde76b0e	-0.11299716
29	0x3fedf208	1.8589487
30	0xc013e011	-2.310551
31	0xc0325c6a	-2.7868905
32	0xbfdb97cf	-1.7155703
33	0xc0067e6d	-2.1014664
34	0x400bf9a2	2.1871114
35	0x3fc6f51c	1.5543551
36	0xbece143d	-0.40249816
37	0x40242815	2.5649464
38	0x3dda26d3	0.106519364
39	0x3f859f27	1.0439194
40	0xbf9fc05a	-1.2480576
41	0xc0624159	-3.5352385
42	0x3ea170ea	0.3153146
43	0xbff2a480	-1.8956451
44	0x3eca7f52	0.39550263
45	0xbf483597	-0.7820677
46	0x3fbbcfab	1.467275
47	0xbefbff9d	-0.49218455
48	0xbec36db8	-0.38169646
49	0x3f921492	1.1412528
50	0x3f916bfb	1.1361078
51	0xbc80b67d	-0.015712017
52	0xbf14bc5e	-0.58099926
53	0xbec37cc5	-0.3818113
54	0x3d5b252a	0.05350224
55	0x3f899589	1.074876
56	0x3f0571ac	0.52126575
57	0xbe0cd8c8	-0.1375457
58	0xbd577178	-0.052598447
59	0x3ca90171	0.02063057
60	0x3f8099f8	1.0046988
61	0xbfa41d88	-1.2821512
62	0x402966fb	2.6469104
63	0xbfa67b7a	-1.3006432
64	0x3dc0bb56	0.094107315
65	0xbd821300	-0.0635128
66	0xbc654480	-0.013993382
67	0xbd93ece4	-0.07222918
68	0xbdb9bb92	-0.09068979
69	0xbdc82992	-0.09773554
70	0xbdb53698	-0.088483036
71	0xbd9a8264	-0.07544401
72	0x3d287384	0.04112579
73	0xbc8c9890	-0.017162591
74	0x3da0e66a	0.07856448
75	0x3dc42f78	0.095793664
76	0xbdc65e08	-0.09685904
77	0x3cc60000	0.024169922
78	0x3d8c091c	0.06837675
79	0xbdcf2604	-0.10114673
80	0xbd13d310	-0.036089957
81	0x3db9fe84	0.09081748
82	0xbdbd273a	-0.092359975
83	0x3de4babe	0.11168431
84	0x3c301270	0.010746583
85	0x3cba5238	0.022744283
86	0x3dd5ae0e	0.10433589
87	0xbdef22e0	-0.11676574
88	0x3dda6784	0.10664275
89	0xbde48686	-0.11158471
90	0x3d733114	0.059372976
91	0xbbb40340	-0.0054935515
92	0x3dc8e564	0.09809378
93	0xbacee300	-0.0015784204
94	0xbdfb431a	-0.12268658
95	0x3c846e78	0.016165957
96	0x3dab0f1c	0.08352491
97	0xbcca84c0	-0.024721503
98	0xbdf1e766	-0.11811714
99	0xbc9083a0	-0.017640889
100	0x3c218e50	0.00986059
101	0x3cfc9058	0.030830547
102	0x3d23e93c	0.04001735
103	0xbc883908	-0.016628757
104	0xbbd67240	-0.0065443814
105	0xbcd71078	-0.02625297
106	0x3d445688	0.047934085
107	0x3cea3830	0.028591245
108	0x3d4f69a8	0.05063787
109	0xbc3b13b0	-0.011418268
110	0xbc3eb060	-0.011638731
111	0x3dbc31aa	0.0918916
112	0x3c805b58	0.015668556
113	0xbdea0aa8	-0.11427814
114	0x3ccf0630	0.025271505
115	0x3decd290	0.11563599
116	0xbcc683a0	-0.024232686
117	0x3d99f6dc	0.07517788
118	0xbdb848a4	-0.0899823
119	0xbc9c9570	-0.019114226
120	0x3dab2a0e	0.08357631
121	0xbd8000c6	-0.062501475
122	0xbd029110	-0.031876624
123	0x3a8ba900	0.0010655224
124	0xbc9acdb8	-0.018896922
125	0xbd0fe348	-0.03512886
126	0x3db09fac	0.08624205
127	0xbcbaf960	-0.02282399
128	0xbece17e0	-0.4025259
129	0xbf4bd6a0	-0.79624367
130	0x3f04ee8a	0.5192648
131	0x3eefef7d	0.46862403
132	0xbfe0338a	-1.7515728
133	0xbf634c6f	-0.88788503
134	0xbfef4c5f	-1.8695182
135	0x3e650ae5	0.22367437
136	0x3f7f0de4	0.9963057
137	0x3dee2af9	0.1162929
138	0xbfa3f15c	-1.2808032
139	0x3e488935	0.1958359
140	0xbf49201c	-0.7856462
141	0xbdffbe05	-0.12487415
142	0x3e11e250	0.14246488
143	0xbe8bd383	-0.27309808
144	0x3d0fa42f	0.035068687
145	0xbe015b87	-0.12632571
146	0xbe930f63	-0.28722677
147	0xbe8c3dac	-0.27390802
148	0x3e6c41d2	0.23071983
149	0xbfa9e649	-1.3273402
150	0xbde5a431	-0.11212958
151	0x3f5575a9	0.8338266
152	0xbf28cdaf	-0.6593885
153	0xbed170ff	-0.40906522
154	0xbf1a1f7d	-0.602043
155	0x3d1cb5ce	0.03825932
156	0xbede2db3	-0.4339424
157	0x3f06a906	0.5260166
158	0xbfc4f694	-1.538775
159	0xbe965066	-0.29358214
160	0xbf10c1b3	-0.5654556
161	0xbe601cae	-0.2188594
162	0x3f59709c	0.84937453
163	0xbfe2fbb2	-1.7733061
164	0x3f6f106b	0.93384427
165	0x3f723ffc	0.9462888
166	0x3dd3e4bd	0.10346363
167	0x3d8980c0	0.0671401
168	0xbc148558	-0.009064995
169	0x3e8fb5b5	0.2806832
170	0xbf0a07e5	-0.53918296
171	0x3f42f228	0.7615075
172	0x3f9ec607	1.2404183
173	0x3f527374	0.8220742
174	0x3f656086	0.8960041
175	0xbe36beb3	-0.17846183
176	0xc010467f	-2.2543027
177	0xbf807aa9	-1.0037433
178	0xbf97f1e8	-1.1870699
179	0xbd2d65d3	-0.042333435
180	0xbe48ac34	-0.1959694
181	0x3f48da13	0.78457755
182	0x3f0947a6	0.5362495
183	0x3e825ef1	0.2546306
184	0x3ed32fc6	0.41247386
185	0x3e3c2d80	0.18376732
186	0x3e4ef58e	0.20210859
187	0x402cce84	2.7001047
188	0x3fa2cc60	1.271862
189	0x3f8ee08d	1.1162277
190	0xbe43b6e2	-0.19112733
191	0xbee903f9	-0.45510843
192	0xc0022f8d	-2.0341523
193	0x3f15611a	0.5835129
194	0x3f31961e	0.69369686
195	0xbdac8779	-0.08424277
196	0x40bb123e	5.845977
197	0xbf6c9dcc	-0.9242828
198	0x3d4393fc	0.04774855
199	0xbfb4f824	-1.4138227
200	0x404d4cdf	3.2078168
201	0xbfb76681	-1.4328157
202	0x3faecfbb	1.3657144
203	0xbfee5927	-1.8620957
204	0x3ed202fd	0.41017905
205	0xbe2f87a5	-0.17141588
206	0xbe1592f9	-0.14606847
207	0xbf3f69ba	-0.747707
208	0x3f5c05ca	0.85946333
209	0x3f9ec9fe	1.2405393
210	0xbe103b72	-0.14085177
211	0xbe8114d1	-0.25211194
212	0xbe212d87	-0.15740024
213	0x3eb9a38e	0.36257595
214	0x3f85af15	1.0444056
215	0xbdcce1fb	-0.1000404
216	0x3e9e3f75	0.3090779
217	0x3fb3d1e4	1.4048429
218	0x3cf2381d	0.029567773
219	0x3ceabbad	0.028653944
220	0xbf24a9dd	-0.6432169
221	0x3ed67609	0.4188693
222	0xbfa51493	-1.2896904
223	0x3fd80aee	1.6878335
224	0x3f2b64e7	0.6695084
225	0xbe252de9	-0.16130795
226	0xc0067f74	-2.1015291
227	0x3f385bb2	0.72014916
228	0x3f8dcc0d	1.1077896
229	0x3e30009d	0.17187734
230	0x3f30af94	0.6901791
231	0x3e017471	0.12642075
232	0x3ff70fc3	1.9301685
233	0x405f1939	3.4859145
234	0x3ef56336	0.47927254
235	0x3f9c3ba7	1.2205704
236	0xbf6bc373	-0.92095107
237	0x3e8b7e3c	0.27244747
238	0xbe6b4a8f	-0.2297766
239	0x3fc1eea4	1.5150952
240	0xc035cbc2	-2.8405614
241	0x403d2d79	2.9559004
242	0xbf599bf6	-0.850036
243	0x3ea24e83	0.31700525
244	0x3edf56c7	0.43620893
245	0x3f103eab	0.56345624
246	0x40025030	2.0361443
247	0x3f4232b4	0.75858617
248	0xbf86bae8	-1.0525789
249	0xbf9021da	-1.1260331
250	0xbc4fae97	-0.012675903
251	0xbf444485	-0.7666705
252	0xc0566eed	-3.3505204
253	0xc0006354	-2.0060625
254	0xbf841f56	-1.0322063
255	0xbd5aa5de	-0.05338084

bias f4 [64]
0	0x3fa66e59	1.3002425
1	0xbdf47de2	-0.11938073
2	0x3fbe5a51	1.4871312
3	0x3f483534	0.7820618
4	0x3ea6ac4d	0.3255333
5	0x3ff11139	1.8833381
6	0x3fbeed21	1.4916116
7	0xbbdfd9a4	-0.0068313647
8	0xbde4c89c	-0.11171076
9	0xbe7cccc2	-0.24687484
10	0x3f88f747	1.0700463
11	0x3fbf20ed	1.4931923
12	0x3e801592	0.25016457
13	0x3f66e100	0.9018707
14	0x3ed0bcd7	0.40769073
15	0xbd0e0390	-0.034671366
16	0x3f7d7253	0.9900257
17	0x400270da	2.038138
18	0x3f739998	0.9515624
19	0x3fbdf86f	1.4841441
20	0x3f6f4d78	0.9347758
21	0x3fc3951d	1.5279881
22	0x3eea02c0	0.45705223
23	0x3f7af304	0.9802706
24	0x3fca5a50	1.5808811
25	0xbe19a0d8	-0.15002763
26	0xbe12cb49	-0.1433536
27	0xbdacbf82	-0.08434965
28	0x3f9ab694	1.2086968
29	0x3e757350	0.2396977
30	0x3f1917f2	0.5980216
31	0x3eca2817	0.3948371
32	0x3fc0afd5	1.505366
33	0x3f9e355c	1.2360034
34	0x3f110a15	0.5665601
35	0x3f594b51	0.8488055
36	0x3fd64071	1.6738416
37	0xbd8a770c	-0.06760988
38	0xbdfc5fda	-0.1232297
39	0x3f8c30b7	1.0952367
40	0x3f399da4	0.72506166
41	0xbe03c5e6	-0.12868461
42	0x3f0ebd19	0.5575729
43	0x3ec4515b	0.3834332
44	0x3d3f196d	0.046655107
45	0x3fa65e90	1.2997608
46	0x3fee70be	1.8628156
47	0xbce9378d	-0.028468871
48	0x3fb47cac	1.4100547
49	0xbeb577be	-0.3544292
50	0x3e849861	0.25897506
51	0x4015f2fc	2.3429556
52	0x3f360dd0	0.71114826
53	0x3f043c0c	0.51654124
54	0x3faea2a8	1.3643389
55	0xbe0460fa	-0.12927619
56	0x3fd491a2	1.6606944
57	0x3f8d9f43	1.1064228
58	0x3f1226a9	0.5709024
59	0x3fe67340	1.8003922
60	0x3fc9e4f8	1.5773001
61	0xbcfede3f	-0.031111835
62	0xbd20baf8	-0.039240807
63	0x3f2c9487	0.67414135

weight f4 [64, 64]
0	0x3d4d91ac	0.05018775
1	0x3cdf9c38	0.02729617
2	0xbcf972cb	-0.030450245
3	0xbddcd39f	-0.10782551
4	0xbc43e23e	-0.011955796
5	0xbdf37ce8	-0.11889058
6	0xbe2510db	-0.16119711
7	0xbd32c7ac	-0.043647453
8	0x3d020dd4	0.03175147
9	0xbe14ecbf	-0.14543436
10	0x3d93e7e9	0.07221968
11	0xbbbaf56d	-0.0057055266
12	0xbdaf4305	-0.08557705
13	0xbcb960de	-0.022629198
14	0xbd44868b	-0.047979873
15	0x3db3cb9c	0.0877907
16	0xbdfc3b4f	-0.12316
17	0x3d84f54f	0.064921014
18	0xbddba794	-0.10725322
19	0x3d8d332d	0.06894527
20	0xbdf7320b	-0.12070092
21	0xbe0cb523	-0.13740973
22	0xbda9c0ea	-0.082887486
23	0xbd273b18	-0.04082784
24	0xbdb30c82	-0.0874262
25	0xbe1c9f17	-0.15295063
26	0xbdd81be4	-0.10552195
27	0x3debcc2a	0.115135506
28	0xbe18b99b	-0.14914553
29	0xbcaae51e	-0.020861205
30	0xbde260e6	-0.11053638
31	0x3d98d8e2	0.07463242
32	0xbdf4c14e	-0.119509324
33	0x3dae9bd9	0.08525819
34	0x3d69fe61	0.05712736
35	0xbe1134fc	-0.14180368
36	0xbdc56b37	-0.0963959
37	0xbd4f66e8	-0.05063525
38	0x3d8c442e	0.06848942
39	0xbcfe3b33	-0.031034088
40	0xbcbf491f	-0.023350297
41	0xbdc954f0	-0.09830654
42	0xbcd87ca4	-0.02642662
43	0x3d6e282a	0.058143772
44	0xbe10acfc	-0.14128488
45	0xbd08ee29	-0.033430252
46	0x3d395f0b	0.045256656
47	0xbcb84bfa	-0.022497166
48	0x3bf9e33b	0.007625965
49	0xbd604241	-0.054750685
50	0xbdcc43e5	-0.09973887
51	0x3d4c1264	0.049822226
52	0xbd1452e4	-0.036211863
53	0x3cea4153	0.028595602
54	0xbdbd1b80	-0.09233761
55	0xbdfe9ab6	-0.124318525
56	0xbdbb73d7	-0.09152954
57	0x3d9c5f95	0.07635418
58	0x3d4c59e1	0.049890403
59	0x3d86f9fc	0.065906495
60	0xbe2328db	-0.15933554
61	0x3da15e32	0.078792945
62	0xbd9be4d4	-0.07612005
63	0x3d45945c	0.04823719
64	0x3fc27e78	1.5194845
65	0x3de978dc	0.11400005
66	0xbe6ee976	-0.23331246
67	0xbe2e109b	-0.16998522
68	0xbf0366a2	-0.5132848
69	0x3f806614	1.0031152
70	0x3e964b11	0.29354146
71	0x3db5513e	0.08853386
72	0x3db32f5c	0.087492675
73	0xbecfc23e	-0.40577883
74	0x3e3ba413	0.18324308
75	0xbf233ef3	-0.6376793
76	0x3f7a1ce4	0.97700334
77	0xbe5e79c5	-0.21726139
78	0xbeff4f96	-0.49865407
79	0x3dab0cfe	0.083520874
80	0x3f35c514	0.7100384
81	0x3face2dc	1.3506732
82	0x3f113e4c	0.5673568
83	0x3ed9b280	0.42518997
84	0x3e19668e	0.14980528
85	0x3ec67c60	0.38766766
86	0x3f592d21	0.84834486
87	0x3f41e535	0.7574037
88	0x3f389fe9	0.72119004
89	0xbebd8f59	-0.37023428
90	0x3cf0b624	0.029383726
91	0x3dbfc52e	0.09363781
92	0xbcb38b48	-0.021917
93	0x3f313027	0.692141
94	0x3f92ce1b	1.1469148
95	0x3eb4b07c	0.35290897
96	0x3eec8dbe	0.4620189
97	0x3e56b7ae	0.20968506
98	0x3f6bdb93	0.9213192
99	0x3e428733	0.18996887
100	0x3f36307a	0.7116772
101	0x3cd57198	0.026055142
102	0x3c73f620	0.014890224
103	0x3ea16cbd	0.31528273
104	0xbd7edbf1	-0.06222147
105	0x3e95a9f4	0.29231226
106	0xbe7fc237	-0.24976431
107	0xbf8a314b	-1.0796293
108	0xbf2bb00a	-0.6706549
109	0x3f4ac314	0.79203916
110	0x3f10651f	0.564043
111	0x3fa12e48	1.2592249
112	0x3f375eb8	0.71628904
113	0xbed079b8	-0.40717864
114	0xbe9f9bf3	-0.31173667
115	0x3fb3a4d6	1.4034679
116	0x3e898cd4	0.26865256
117	0xbd982b8f	-0.07430183
118	0x3f8d6081	1.1045076
119	0xbd77efa0	-0.06053126
120	0x4045051a	3.0784364
121	0x3f96e889	1.1789714
122	0x3f579603	0.84213275
123	0x3f20dada	0.6283394
124	0x3f8164b7	1.0108861
125	0x3c13d740	0.009023488
126	0x3c273440	0.010205328
127	0xbe15a96b	-0.14615409
128	0xbe196739	-0.14980783
129	0x3d4fef74	0.05076547
130	0xbdfed656	-0.12443225
131	0xbcec07b3	-0.028812265
132	0xbd3c9f10	-0.04605013
133	0xbde875ff	-0.11350631
134	0xbd8d9269	-0.06912691
135	0xbd29208c	-0.041290805
136	0xbce180f0	-0.027527303
137	0xbdda8a36	-0.10670893
138	0xbe07e7af	-0.13271974
139	0xbdccf397	-0.100073986
140	0x3cbf0f39	0.023322688
141	0x3d021978	0.03176257
142	0xbe0f33cc	-0.13984603
143	0xbd9e3fb6	-0.07726996
144	0xbdca62e3	-0.098821424
145	0xbdae4e19	-0.0851099
146	0xbce6ef80	-0.028190374
147	0xbbd8c9b4	-0.0066158418
148	0x3d067d73	0.03283448
149	0xbd8fe49f	-0.07026028
150	0xbdcb9c53	-0.09941926
151	0xbe0964eb	-0.13417403
152	0xbcb007b8	-0.021488056
153	0xbd02a8a8	-0.031899124
154	0xbd6ddfc8	-0.058074743
155	0xba4e9300	-0.0007880181
156	0x3ddb4e1a	0.10708256
157	0x3d6ad55c	0.05733238
158	0xbc16d5f5	-0.009206285
159	0x3d08a911	0.03336436
160	0xbcadf6d5	-0.021235863
161	0xbdd59162	-0.1042812
162	0xbcfd9dd1	-0.030959042
163	0xbd73b9d8	-0.059503406
164	0xbd0e2fa2	-0.034713395
165	0xbd98194f	-0.07426702
166	0x3b5c2280	0.00335899
167	0xbe0a216e	-0.13489315
168	0x3d8a254f	0.06745397
169	0xbe118ab7	-0.14213072
170	0xbe1fd5c4	-0.15608889
171	0x3d3489e3	0.04407681
172	0xbc0c6a4a	-0.008570263
173	0xbda43aba	-0.08019014
174	0x3c44c7fe	0.0120105725
175	0x3d657c69	0.05602685
176	0x3d5ccd29	0.053906593
177	0xbc99e8dc	-0.018787794
178	0xbd79edcf	-0.061017808
179	0x3d097099	0.033554647
180	0x3d9138f2	0.070909396
181	0xbd8fa2ac	-0.07013449
182	0xbd9b9aa6	-0.07597856
183	0xbc81cdb6	-0.015845161
184	0xbcccac2c	-0.024984442
185	0xbdb69cfb	-0.089166604
186	0x3d8cbcd3	0.06871953
187	0xbd83d6dc	-0.064374655
188	0x3b8b3738	0.004248526
189	0x3dd7ae28	0.105312645
190	0x3d649e38	0.05581495
191	0xbdca18b0	-0.0986799
192	0x408cf77a	4.4052095
193	0x3d0273c0	0.03184867
194	0xc07948c0	-3.8950653
195	0xc0c5bed6	-6.1795454
196	0x3de3e195	0.11127011
197	0x3e9eb612	0.30998284
198	0xbf4da50b	-0.8032996
199	0x3de096f2	0.109662905
200	0xbddf06ce	-0.1088997
201	0xbf747039	-0.9548374
202	0x3fef3a28	1.8689623
203	0xc10a728d	-8.6529665
204	0x3f752a96	0.95768106
205	0xbecfdd58	-0.4059856
206	0xbfbf8f51	-1.4965612
207	0x3d927600	0.07151413
208	0x3f442cb2	0.766307
209	0x3fdb245d	1.7120472
210	0x3e4687e6	0.19387779
211	0x3ea8dd76	0.3298146
212	0xc0120255	-2.2813923
213	0x3f84cc80	1.0374908
214	0x3e675525	0.22591074
215	0x3ef1f3f2	0.47256428
216	0x3e98e453	0.29861698
217	0x4088a657	4.270305
218	0xbd178648	-0.036993295
219	0x3dad0ef4	0.08450118
220	0xbf20c252	-0.6279651
221	0xc0a547dd	-5.1650224
222	0x40383245	2.8780682
223	0x3ed45652	0.41472107
224	0xbf2ac96f	-0.66713613
225	0x3f520736	0.82042253
226	0xbf48ed81	-0.784874
227	0xc01b2a9d	-2.424476
228	0xbe8a75b5	-0.27042928
229	0xbd9cf75a	-0.07664366
230	0xbdfe2c76	-0.12410824
231	0xbf9360f9	-1.1513969
232	0x3f94854c	1.1603179
233	0x3f15b419	0.5847793
234	0x3f1ed38f	0.6204156
235	0xc01278a4	-2.2886133
236	0xbe7f3c93	-0.24925451
237	0x3e89e2a1	0.26930717
238	0xbfa95adc	-1.3230853
239	0x40052c3b	2.0808246
240	0x3e348e07	0.17632304
241	0xbeae0ed1	-0.3399568
242	0xbfd8bef9	-1.693328
243	0xbe0e89d9	-0.13919772
244	0x3e51a2aa	0.20472208
245	0x4090ddb4	4.5270634
246	0xc006f225	-2.1085293
247	0x3d6971d2	0.056993313
248	0xc0206388	-2.506075
249	0xbe98e4fc	-0.298622
250	0x3fc5888b	1.5432295
251	0xbe0cb6ae	-0.13741562
252	0x3e51d06e	0.20489666
253	0x3d9cc23a	0.07654233
254	0xbcee4768	-0.029086784
255	0xbfc90be0	-1.5706749

bias f4 [64]
0	0xbd65780c	-0.05602269
1	0x3fb3b6a9	1.4040118
2	0xbd122f55	-0.03568967
3	0x3f5cd516	0.86262643
4	0x3d85a5e1	0.065257795
5	0xbe228f3a	-0.15874949
6	0x3f580c93	0.84394187
7	0x3f85dc6b	1.0457891
8	0xbdade692	-0.084912434
9	0x3f509bb2	0.8148757
10	0x3f62e5d7	0.8863196
11	0x3fde1c44	1.7352376
12	0xbd21b580	-0.039479733
13	0xbe1e7333	-0.15473633
14	0xbe1ec32f	-0.15504144
15	0xbe174e65	-0.14775999
16	0x3f061cef	0.523879
17	0x3dbefd0d	0.09325609
18	0x3fb407c4	1.406487
19	0xbe0f81c7	-0.1401435
20	0x3e2df21a	0.16986886
21	0x3fd5cd58	1.6703291
22	0xbdacc137	-0.0843529
23	0x3f8baff0	1.0913067
24	0x3fa1fea6	1.2655838
25	0x3f3c7664	0.7361815
26	0xbbe5573b	-0.006998924
27	0x3f1b1ae4	0.60587907
28	0x3ea57c5e	0.32321447
29	0xbdd87edf	-0.10571074
30	0x3a29c6b1	0.00064764457
31	0x3f66ccbe	0.9015616
32	0x3ee46822	0.44610697
33	0x3f7bb898	0.9832854
34	0x3fd37b80	1.6522064
35	0xbca780d2	-0.020447168
36	0x3f4cbed8	0.79978704
37	0x3f89f5f9	1.077819
38	0xbd39e31e	-0.04538261
39	0xbdfa9b0b	-0.12236603
40	0x3ed4454b	0.41459116
41	0x40012e29	2.0184424
42	0x3e09f5e8	0.13472712
43	0x3c14afa7	0.009075082
44	0x3f1bdffc	0.6088865
45	0x3fe63518	1.7984953
46	0x3fabe5ab	1.3429464
47	0xbe0a238e	-0.13490126
48	0x3f494934	0.78627324
49	0x3fc5d070	1.5454235
50	0x3f2ad86d	0.6673649
51	0xbd0c35a7	-0.034230854
52	0x3f4d5a5e	0.80216014
53	0x3eb995e0	0.36247158
54	0x3f4d2a0a	0.8014227
55	0xbdb12a52	-0.0865065
56	0xbd112318	-0.03543386
57	0x3f4e0581	0.8047715
58	0x3f46aa59	0.7760368
59	0x3f41669d	0.755472
60	0xbdaac28f	-0.0833789
61	0x3fd13e10	1.6347065
62	0x3e3eee49	0.18645586
63	0x3e6a6c21	0.2289281

weight f4 [9, 64]
0	0xbdaf3650	-0.08555281
1	0x3db47166	0.088106915
2	0x3cf5cef6	0.030005913
3	0x3f040785	0.51573974
4	0x3da312be	0.07962559
5	0xbca4695e	-0.020069774
6	0x3dc0f97c	0.09422585
7	0x3e4638e0	0.19357634
8	0xbdb29d04	-0.087213546
9	0xc130f909	-11.0608
10	0x3e568f66	0.2095314
11	0x3d7bcf3e	0.06147694
12	0xbd806294	-0.06268802
13	0xbcb25a5d	-0.021771604
14	0xbe033ee1	-0.12816955
15	0x3e1d63ba	0.15370074
16	0xc03e83b4	-2.9767885
17	0xc0a4a2e8	-5.144886
18	0x3d904c0b	0.07045754
19	0xbd5774b7	-0.052601542
20	0xc115b381	-9.356324
21	0xbde9fbbd	-0.114249684
22	0x3d23d440	0.03999734
23	0xbfcea3ec	-1.6143775
24	0x3dfd0ee1	0.123563536
25	0x3f8fa899	1.1223327
26	0x3acfd618	0.0015856652
27	0xc091f643	-4.5613112
28	0xc06f073f	-3.7348173
29	0xbd5b5ca9	-0.053555164
30	0xbd15955c	-0.036519393
31	0x3ee2e72a	0.4431699
32	0xbe33b25d	-0.17548509
33	0x3e688567	0.22707139
34	0x3e55a512	0.2086375
35	0xba90e259	-0.0011053785
36	0x3fbe2480	1.4854889
37	0x3ea4e89b	0.32208714
38	0xc097e9a5	-4.747271
39	0xbdd449ba	-0.10365625
40	0xbf666595	-0.8999875
41	0xbe1202eb	-0.14258926
42	0x4074adf1	3.8231165
43	0xbff8c453	-1.9434913
44	0xbe82f073	-0.25574073
45	0xbdbcdf7c	-0.09222314
46	0x3ea5a51f	0.3235254
47	0xbdd2e9e6	-0.10298519
48	0x39dd79e3	0.00042243217
49	0x3e08a9e4	0.13346058
50	0xc100aafb	-8.041743
51	0xbd9b6c1e	-0.07588981
52	0x3e553484	0.20820814
53	0xc0b4b9f9	-5.6477017
54	0x3e3cc155	0.18433125
55	0x39c29190	0.00037111016
56	0x3db30af6	0.08742325
57	0x3d57e4c1	0.05270839
58	0x3c780c42	0.015139641
59	0x3f77ca80	0.96793365
60	0xbe2b608d	-0.1673605
61	0x3dee5fa7	0.11639338
62	0x3f7c0cb5	0.9845689
63	0xbdfe9179	-0.124300905
64	0xbca134d7	-0.019678516
65	0xbd64b5e9	-0.055837546
66	0x3db1e2cc	0.08685836
67	0x3b87ee2e	0.0041482663
68	0x3d9c5730	0.07633817
69	0x3cbc38c8	0.022976294
70	0xbde8b284	-0.11362174
71	0xbe62fdd8	-0.22167146
72	0xbd214728	-0.0393745
73	0x3e8536be	0.26018327
74	0xbe72b89f	-0.2370324
75	0xbe9619f9	-0.2931669
76	0xbddc4576	-0.10755436
77	0x3d93088b	0.07179364
78	0xbd9b35ec	-0.07578644
79	0x3d5590c3	0.05214001
80	0x3d8fe4fe	0.07026099
81	0xbe7fa5e4	-0.24965626
82	0xbe87276d	-0.26397267
83	0xbdd79bc0	-0.10527754
84	0x3f9d87b5	1.230704
85	0xbe2f8a90	-0.17142701
86	0x3bef5760	0.007304117
87	0xbe3f2668	-0.18666995
88	0xbe0fe79b	-0.14053194
89	0xbd8d9829	-0.06913788
90	0x3c28492d	0.010271353
91	0xbf7c215b	-0.98488396
92	0x3d8adc2b	0.06780275
93	0x3de4a2db	0.11163875
94	0x3d919b69	0.0710972
95	0xbddf076b	-0.10890087
96	0xbe53274d	-0.20620461
97	0xbd815895	-0.06315724
98	0xbeb6d999	-0.3571289
99	0xbcee0488	-0.029054895
100	0x3e24976e	0.16073391
101	0xbe9e2ce5	-0.30893627
102	0x3e864d41	0.26230815
103	0x3df8fcdc	0.12157604
104	0xbe3a8030	-0.18212962
105	0xbe4325b2	-0.19057348
106	0xbe5001ba	-0.20313159
107	0xbd5d0cc3	-0.05396725
108	0xbe78d66d	-0.24300547
109	0xbec3f888	-0.38275552
110	0xbc3e220b	-0.011604796
111	0x3dd0ea6c	0.102009624
112	0xbd487d06	-0.048947357
113	0xbee473ca	-0.4461959
114	0x3e245127	0.16046582
115	0x3da1899c	0.07887575
116	0xbe4ccd27	-0.20000134
117	0x3d594d20	0.053052068
118	0x3b44d27c	0.0030032685
119	0xbdd28b38	-0.1028046
120	0x3da4788e	0.080308065
121	0x3f123d83	0.5712511
122	0x3d81eb46	0.06343703
123	0xbe6adaf8	-0.22935092
124	0xbc9ff5bf	-0.01952636
125	0xbcebfb9f	-0.028806506
126	0x3d8a9d10	0.067682385
127	0x3e3147dc	0.17312568
128	0xbd007ecf	-0.031370934
129	0xbe8d7e5a	-0.2763546
130	0xbc06943d	-0.008214054
131	0xbe70b03e	-0.23504731
132	0xbd6fa2e1	-0.058504943
133	0x3b4ee500	0.00315696
134	0xbea0ad70	-0.31382322
135	0xbf586c8b	-0.84540623
136	0x3d4217f8	0.04738614
137	0xbf22a25c	-0.6352899
138	0xbe865a85	-0.26240936
139	0x3e6d7f46	0.23193082
140	0x3de83d94	0.1133987
141	0x3d4e7a37	0.050409522
142	0xbdb91f1d	-0.090391375
143	0xbd83ae66	-0.06429748
144	0x3ea2c73d	0.31792632
145	0xc03a6a96	-2.9127555
146	0xbf09ad2f	-0.5377988
147	0x3cefaab8	0.02925621
148	0x40ac47fe	5.383788
149	0x3f701ba3	0.9379217
150	0xbd51e360	-0.051242232
151	0xbfd7d391	-1.686144
152	0xbfe96619	-1.8234283
153	0xbfba052f	-1.4532832
154	0xbdba270c	-0.09089479
155	0x3fa9cece	1.3266237
156	0xbe4c6e6c	-0.19963998
157	0x3ce926ac	0.028460823
158	0x3c77db82	0.015128018
159	0xbe2697fc	-0.16268915
160	0x3e8cac9b	0.27475438
161	0xbf33a410	-0.70172215
162	0x3f09c61c	0.53817916
163	0x3d861d2b	0.06548532
164	0xbe864f93	-0.26232585
165	0xbd9c38f2	-0.07628049
166	0xc0223d11	-2.5349772
167	0x3c04be50	0.008102015
168	0x400135ee	2.0189166
169	0xbd63a76c	-0.055579588
170	0x3f08b3d8	0.5339942
171	0xc080ca96	-4.0247297
172	0x3f26d296	0.6516508
173	0x3b9fa1cf	0.004871584
174	0xbe97b5b0	-0.29630804
175	0x3dfebb46	0.12438063
176	0x3f5f1130	0.871356
177	0x3f668a70	0.9005499
178	0xbf885bce	-1.0653017
179	0xbda77dab	-0.08178266
180	0xbee58a95	-0.44832292
181	0x3e1238dd	0.14279504
182	0xbf140064	-0.57813096
183	0x4027d57c	2.622405
184	0xbdd126d2	-0.102124825
185	0x3f9a83b9	1.2071449
186	0x3f750214	0.95706296
187	0xbea9241a	-0.33035356
188	0x3d9c0be3	0.07619455
189	0x3e8439d1	0.2582536
190	0x3dc69071	0.09695519
191	0xbf7157b0	-0.94274426
192	0xbd1b8f14	-0.037978247
193	0xbea62fd6	-0.3245837
194	0xbc8176e2	-0.015803758
195	0x3cf6f00d	0.030143762
196	0x3dc93709	0.0982495
197	0xbb298cee	-0.0025871354
198	0xbe4f5985	-0.20248993
199	0xbe0fd23d	-0.14045043
200	0x3dfead38	0.124353826
201	0xbe6eba57	-0.2331327
202	0xbefe8567	-0.49711153
203	0xbe8c967f	-0.2745857
204	0x3ce67d80	0.028136015
205	0xbe0f0b47	-0.13969146
206	0xbc8d508f	-0.017250327
207	0x3df797c7	0.12089496
208	0x3de190b8	0.11013931
209	0x3e039b3f	0.1285219
210	0xbeac4869	-0.33648995
211	0x3da442c8	0.0802055
212	0xbdfcd01d	-0.12344382
213	0xbef549c4	-0.4790784
214	0x3c5af930	0.013365075
215	0xbe259f9f	-0.16174172
216	0xbe12f963	-0.14352946
217	0x3da9159f	0.08256077
218	0xbb4eee9c	-0.0031575328
219	0xbeb4f885	-0.35345855
220	0x3d15f923	0.03661455
221	0xbca34a38	-0.019932851
222	0xbce13d32	-0.027495
223	0xbea2d040	-0.31799507
224	0x3ec6ec13	0.38851985
225	0xbe580076	-0.21093926
226	0x3d59efc5	0.053207178
227	0x3dd320e4	0.10309008
228	0x3e68584b	0.22689931
229	0xbe085007	-0.13311778
230	0xbcfa3e92	-0.030547414
231	0x3dc20d0a	0.09475143
232	0xbcd660fd	-0.026169294
233	0xbe8214fe	-0.2540664
234	0x3e8aedf5	0.27134672
235	0xbde81b3d	-0.1133332
236	0x3e499679	0.19686307
237	0xbef3fc1d	-0.47653285
238	0xbe2ed3a6	-0.17072925
239	0xbc1615b0	-0.009160444
240	0xbf45cfe0	-0.7727032
241	0xbe150fc9	-0.14556803
242	0x3de9f159	0.114229865
243	0x3dd3b56d	0.103373386
244	0xbe8a0ffd	-0.26965323
245	0xbdc8edd4	-0.09810987
246	0xbdb51d39	-0.088434644
247	0xbe03c123	-0.12866645
248	0x3d923792	0.071395054
249	0x3a326271	0.000680483
250	0x3dc49f72	0.09600724
251	0xbe4dd3b8	-0.20100296
252	0xbd9b6e51	-0.075894006
253	0xbf385b73	-0.7201454
254	0xbdd8cec6	-0.10586314
255	0xbd4b5462	-0.04964102

bias f4 [9]
0	0xbe0b0bc4	-0.13578707
1	0xbf3ec5ef	-0.7452077
2	0x3ec47acf	0.38374946
3	0xbf3659c0	-0.712307
4	0x3e591b15	0.21201737
5	0xbf24a4b0	-0.64313793
6	0xbf046d40	-0.517292
7	0xbebfc8c1	-0.3745785
8	0x3f09b689	0.5379415
