models/tiger_64_32_32_transition_net_0.pt (torch, 8382 bytes, 4 tensors)

weight_ih f4 [32, 5]
0.09108652 -0.078025386 -0.034270193 0.08297349 -0.1664241 0.10601603 -0.03636744 0.08993406
0.024574963 -0.021645272 0.049030945 0.00872071 0.064563826 -0.06889006 -0.012888569 -0.015914734
0.025622712 -0.0007061915 0.1545323 0.05501116 -0.06583274 -0.10676629 -0.02963054 -0.07625098
-0.05664783 0.008464351 0.10538149 0.09608462 -0.17280822 0.10958749 0.049385022 0.1676825
0.11668319 -0.1610679 -0.16808076 -0.08526508 0.15522969 -0.029445516 0.075653255 -0.08215015
0.17345648 -0.07479394 0.13256922 0.0020933286 -0.093129046 0.09086584 -0.09383663 0.051990855
-0.051045544 -0.019380806 -0.169951 -0.084283896 0.09592505 -0.042970397 0.17607833 0.14170215
-0.008277325 -0.117995456 0.10765032 0.0548639 -0.114271946 0.11482435 0.10732145 0.15678236
-0.09909388 -0.0290985 -0.0034244945 0.025819559 -0.13415906 -0.1254447 0.096167326 -0.04145271
0.08635072 0.010078028 0.05804371 0.038871195 0.064275905 0.0876301 -0.16371502 0.0889808
-0.12429579 -0.1333796 0.010750565 -0.030124016 0.1038252 -0.10237768 -0.15715128 0.12865256
-0.026212769 0.099429324 0.05683098 -0.13256048 0.035514135 0.042461157 -0.11836236 -0.08387564
0.060276546 0.031664696 -0.07519596 -0.053513113 0.16190672 -0.03270745 0.09966522 0.07654487
-0.11426971 -0.15033612 0.16968594 0.009230708 0.12117301 0.03663368 0.056855403 0.13204487
0.16762225 -0.11730566 0.022102207 0.1319209 0.12806323 0.109820485 -0.12793663 -0.12729764
-0.10690953 0.022208165 0.17618713 -0.111665525 0.094200924 -0.0978438 -0.16620822 -0.03757206
0.10185359 0.16411504 -0.109785184 0.038362525 0.15253358 0.11714171 0.11017131 0.12562327
0.111814156 0.04566078 -0.12088346 -0.14844973 -0.08100272 -0.02058492 -0.10835567 0.0646744
0.05471023 -0.040028483 0.067942485 0.05713153 0.10792906 0.11904915 -0.05986591 0.17271537
-0.020436754 -0.00607334 -0.166856 -0.11377634 -0.103273556 -0.07561144 0.12568285 -0.057767272
00000000: 928b ba3d c6cb 9fbd e75e 0cbd 01ee a93d
00000010: 146b 2abe ef1e d93d 06f6 14bd 592f b83d
00000020: 6f51 c93c 6d51 b1bc acd4 483d 4fe1 0e3c
00000030: 0a3a 843d 3b16 8dbd 942a 53bc 9e5f 82bc
00000040: b9e6 d13c b61f 39ba b73d 1e3e 6253 613d
00000050: 51d3 86bd 49a8 dabd bfbb f2bc 7929 9cbd
00000060: 8e07 68bd 10ae 0a3c 40d2 d73d 03c8 c43d
00000070: a3f4 30be 686f e03d f347 4a3d f6b4 2b3e
00000080: 99f7 ee3d fcee 24be 5d1d 2cbe 759f aebd
00000090: 88f4 1e3e b937 f1bc 18f0 9a3d 563e a8bd
000000a0: 939e 313e 912d 99bd 3ac0 073e 3a30 093b
000000b0: 71ba bebd df17 ba3d 6b2d c0bd 5df4 543d
000000c0: 2215 51bd 7fc4 9ebc a307 2ebe 099d acbd
000000d0: 5a74 c43d ba01 30bd e14d 343e 5e1a 113e
000000e0: 9e9d 07bc 9aa7 f1bd c577 dc3d f8b8 603d
000000f0: 6907 eabd 0729 eb3d 59cb db3d 8e8b 203e
00000100: bbf1 cabd fa5f eebc 7c6d 60bb 8a83 d33c
00000110: fe60 09be 9374 00be 60f3 c43d 51ca 29bd
00000120: a5d8 b03d 501e 253c 3ebf 6d3d 6737 1f3d
00000130: 16a3 833d 6977 b33d e9a4 27be 913b b63d
00000140: cb8e febd a994 08be 2323 303c a4c6 f6bc
00000150: 4ea2 d43d 64ab d1bd 44ec 20be 7fbd 033e
00000160: 29bc d6bc 9aa1 cb3d 9ac7 683d efbd 07be
00000170: 4577 113d c0eb 2d3d f767 f2bd fec6 abbd
00000180: 8ae4 763d d7b2 013d 5700 9abd 9130 5bbd
00000190: e0ca 253e 3ff8 05bd 471d cc3d 8fc3 9c3d
000001a0: 3d06 eabd b6f1 19be 27c2 2d3e 653c 173c
000001b0: 8e29 f83d 330d 163d 36e1 683d c536 073e
000001c0: 2ba5 2b3e f33d f0bd b00f b53c 4616 073e
000001d0: 0223 033e 90e9 e03d d201 03be 505a 02be
000001e0: 62f3 dabd e6ed b53c 666a 343e e5b0 e4bd
000001f0: 6aec c03d 5562 c8bd 7d32 2abe 29e5 19bd
00000200: 9d98 d03d c60d 283e 0ed7 e0bd 0622 1d3d
00000210: c331 1c3e fee7 ef3d 7fa1 e13d 63a3 003e
00000220: d2fe e43d cc06 3b3d bf91 f7bd 3503 18be
00000230: c1e4 a5bd b5a1 a8bc 94e9 ddbd 0374 843d
00000240: d617 603d e8f4 23bd 6e25 8b3d c002 6a3d
00000250: e909 dd3d 0ad0 f33d f535 75bd 4cdc 303e
00000260: fb6a a7bc de02 c7bb 4ddc 2abe 9203 e9bd
00000270: 1681 d3bd 2cda 9abd 01b3 003e 609d 6cbd

weight_hh f4 [32, 32]
-0.1321019 0.068014815 0.056598518 0.11449661 -0.091477014 0.03832784 -0.064355664 -0.03971725
-0.14087659 -0.08056791 -0.054139227 0.07559595 0.032295235 0.043666746 0.17644173 0.17229143
0.120570034 0.0056291963 -0.1222926 0.13815269 -0.044205382 -0.014291574 -0.15229294 -0.034918454
-0.11401881 0.16244116 -0.15282717 -0.13779438 -0.0060026804 -0.09558589 0.06325277 -0.06804588
-0.083029814 0.010012216 0.12796828 -0.12434892 0.08301544 0.11356866 0.17292246 -0.12373147
0.04281353 -0.13071343 0.15092315 -0.0685728 0.106481925 0.005262898 -0.013767837 -0.0056405547
0.03005106 0.08333184 0.028351426 0.0539266 -0.159015 0.12878844 0.15412523 0.14612463
0.13067733 -0.12756762 -0.06553112 0.15586849 -0.13464348 0.16037557 -0.13903417 -0.12452301
0.086422235 -0.12701212 -0.040499665 0.1286036 0.14002284 0.16718757 -0.035871077 -0.1374016
0.17405626 -0.03765806 -0.07273214 0.04309353 -0.12362427 0.11619182 0.110791735 -0.14026898
-0.1451995 -0.0154850045 0.07425071 -0.0051198304 -0.0896395 0.0040415456 -0.16615811 -0.124938875
-0.11767836 0.14558096 0.15582968 -0.06004516 0.007928496 0.078838505 0.02118092 -0.08852138
0.1019539 0.108670674 -0.010245183 -0.021761661 0.16064496 0.15452561 -0.10022853 0.17295612
0.043747373 -0.11742584 0.09676977 -0.13197698 0.16332905 -0.113646045 0.049997393 0.05382854
0.04204774 0.14662252 -0.07342411 -0.074629866 -0.15318963 -0.007254863 -0.08374275 0.0070833047
-0.036238957 0.05865339 0.15292533 0.05216294 -0.05694688 -0.08674365 -0.15417632 0.14874819
-0.0334886 0.03568327 0.006539168 -0.11265397 0.09955735 0.09906897 0.008902468 -0.10046024
-0.07511359 0.002434402 -0.1009991 -0.09863401 -0.026369259 -0.050902918 0.04339528 -0.04646496
-0.023434069 -0.067472406 -0.16154924 0.15417172 0.033725865 0.15807806 -0.02848952 -0.044426255
-0.16618885 -0.067106314 0.1159252 -0.17314315 -0.061830375 0.10770284 0.10188442 0.06527396
-0.034992084 -0.013384764 -0.0335711 -0.06516703 0.07377325 -0.06021065 -0.09930971 0.040103633
-0.12777525 -0.03772676 0.0903353 0.06606666 0.15049674 -0.12057001 0.0015369902 -0.052202642
-0.09887417 -0.09944635 0.044536427 0.018495196 -0.09023539 -0.12460273 -0.14646447 0.17325258
-0.030130781 -0.040877007 -0.06500397 -0.08841766 -0.16166444 -0.103778355 0.10805095 0.038745176
-0.062359508 -0.06680611 0.1129274 0.12742853 0.17031273 0.051566754 0.08540279 -0.014203698
-0.103349954 -0.1731849 0.10767367 -0.02569394 0.07262798 0.008701259 -0.1649894 -0.086725734
0.049732987 -0.03577968 -0.17070661 0.061988425 0.0067796996 -0.056812603 0.071412735 0.037321012
-0.06519578 0.15880702 0.08868525 0.022196554 -0.033950213 -0.1497369 0.1364853 -0.04561549
-0.11423762 0.11334071 0.06278243 0.0437467 -0.035051364 -0.055166747 0.029998735 0.13679847
0.025315145 -0.083588496 0.17560787 0.0037807408 0.13974509 0.043083984 0.15845492 0.10199552
-0.09012555 0.124177724 0.0011372273 -0.14190172 -0.037042845 -0.15956078 -0.091588385 -0.12523495
0.1209067 -0.037138686 -0.030542936 0.08471411 0.07194292 -0.11666694 0.065148346 0.07509873
00000000: b845 07be 5a4b 8b3d d9d3 673d 337d ea3d
00000010: 4d58 bbbd a7fd 1c3d e7cc 83bd 8eae 22bd
00000020: f441 10be ca00 a5bd 18c1 5dbd 0dd2 9a3d
00000030: 0248 043d e7db 323d 24ad 343e 2a6d 303e
00000040: 6ced f63d 1f75 b83b 8b74 fabd e677 0d3e
00000050: b410 35bd 3527 6abc aef2 1bbe a706 0fbd
00000060: b282 e9bd fa56 263e ba7e 1cbe f819 0dbe
00000070: 22b2 c4bb 89c2 c3bd ab8a 813d a35b 8bbd
00000080: 890b aabd 470a 243c 1e0a 033e a6aa febd
00000090: 0004 aa3d b096 e83d 9612 313e ed66 fdbd
000000a0: 3d5d 2f3d bed9 05be 998b 1a3e e56f 8cbd
000000b0: 3213 da3d 6374 ac3b 7e92 61bc 67d4 b8bb
000000c0: a42d f63c e2a9 aa3d 4041 e83c 23e2 5c3d
000000d0: d4d4 22be 1ee1 033e 01d3 1d3e b2a1 153e
000000e0: 47d0 053e 16a1 02be 2e35 86bd fd9b 1f3e
000000f0: fbdf 09be 7e39 243e f95e 0ebe eb05 ffbd
00000100: 24fe b03d 770f 02be fae2 25bd aab0 033e
00000110: 2662 0f3e 3833 2b3e 8ded 12bd 01b3 0cbe
00000120: ce3b 323e 573f 1abd 97f4 94bd d782 303d
00000130: b92e fdbd faf5 ed3d c7e6 e23d aca2 0fbe
00000140: 2daf 14be d1b4 7dbc c210 983d 40c4 a7bb
00000150: ea94 b7bd f16e 843b 5a25 2abe f4df ffbd
00000160: 5a01 f1bd 2d13 153e d191 1f3e eaf1 75bd
00000170: 86e6 013c 1576 a13d 9c83 ad3c b34a b5bd
00000180: 35cd d03d bb8e de3d 69db 27bc 8345 b2bc
00000190: 1d80 243e f63b 1e3e 9e44 cdbd 691b 313e
000001a0: 7230 333d f57c f0bd 3b2f c63d f924 07be
000001b0: bb3f 273e 42bf e8bd 11ca 4c3d 517b 5c3d
000001c0: 403a 2c3d 3724 163e 615f 96bd 8bd7 98bd
000001d0: bedd 1cbe 34ba edbb 5281 abbd 111b e83b
000001e0: 4d6f 14bd 893e 703d 7598 1c3e cfa8 553d
000001f0: 2241 69bd a8a6 b1bd 66e0 1dbe 7251 183e
00000200: 582b 09bd 9f28 123d 8446 d63b 20b7 e6bd
00000210: b9e4 cb3d ace4 ca3d a8db 113c 19be cdbd
00000220: 27d5 99bd 7d8a 1f3b 9ed8 cebd a100 cabd
00000230: 5804 d8bc 947f 50bd 40bf 313d 0b52 3ebd
00000240: cef8 bfbc f92e 8abd 2a6d 25be 31df 1d3e
00000250: 2224 0a3d 37df 213e db62 e9bc 4ef8 35bd
00000260: 692d 2abe 096f 89bd 316a ed3d 704c 31be
00000270: d941 7dbd 4e93 dc3d c7a8 d03d 5bae 853d
00000280: dc53 0fbd c54b 5bbc da81 09bd 4b76 85bd
00000290: 6e16 973d 719f 76bd e462 cbbd b543 243d
000002a0: 84d7 02be 6087 1abd b701 b93d f54d 873d
000002b0: d11b 1a3e 69ed f6bd d574 c93a 70d2 55bd
000002c0: 8a7e cabd 87aa cbbd d46b 363d 3d83 973c
000002d0: 55cd b8bd b72f ffbd c8fa 15be 2069 313e
000002e0: d4d4 f6bc a66e 27bd cd20 85bd 5114 b5bd
000002f0: 5d8b 25be bf89 d4bd d149 dd3d 43b3 1e3d
00000300: af6c 7fbd a4d1 88bd 7b46 e73d a07c 023e
00000310: 7666 2e3e a937 533d a8e7 ae3d a1b6 68bc
00000320: 24a9 d3bd 6257 31be 0384 dc3d 197c d2bc
00000330: fabd 943d ba8f 0e3c fbf2 28be 439d b1bd
00000340: d1b4 4b3d b78d 12bd b7cd 2ebe 93e7 7d3d
00000350: 3e28 de3b 55b4 68bd d740 923d ebdd 183d
00000360: 5d85 85bd 4f9e 223e 9da0 b53d 8cd5 b53c
00000370: 610f 0bbd a154 19be cdc2 0b3e 4fd7 3abd
00000380: 6af5 e9bd 2d1f e83d 1394 803d bd2f 333d
00000390: 0592 0fbd 87f6 61bd e8bf f53c e614 0c3e
000003a0: b561 cf3c 7230 abbd 8dd2 333e 4ec6 773b
000003b0: 5619 0f3e d578 303d 0242 223e 07e3 d03d
000003c0: bf93 b8bd e450 fe3d 040f 953a af4e 11be
000003d0: 3dba 17bd e763 23be b192 bbbd 973d 00be
000003e0: ef9d f73d bc1e 18bd 2e35 fabc 977e ad3d
000003f0: cf56 933d 14ef eebd 7f6c 853d 5dcd 993d

bias_ih f4 [32]
0.030097 0.08870388 0.0627752 0.08631577 0.11055891 0.025066944 0.1522645 0.10992332
-0.0054114657 -0.078956805 0.011718636 0.13767573 0.11198424 -0.07163423 -0.03690593 0.07018748
0.0666061 0.168334 0.08584046 0.056318577 0.040856395 -0.16613449 -0.06512765 0.018709386
-0.122976914 -0.15488602 0.119285904 0.060122795 -0.14265275 0.010492058 0.10410781 0.10183661
00000000: fc8d f63c 61aa b53d 4990 803d 53c6 b03d
00000010: b66c e23d 3159 cd3c 3aeb 1b3e 7a1f e13d
00000020: aa52 b1bb 1bb4 a1bd 86ff 3f3c defa 0c3e
00000030: fe57 e53d f8b4 92bd ac2a 17bd 74be 8f3d
00000040: c768 883d c05f 2c3e 20cd af3d 4fae 663d
00000050: 0959 273d 291f 2abe a561 85bd 6d44 993c
00000060: 52db fbbd 719a 1ebe 2b4c f43d 5243 763d
00000070: 9013 12be e1e6 2b3c 7a36 d53d b68f d03d

bias_hh f4 [32]
0.161434 -0.06989804 0.07871366 -0.14339812 -0.021805326 -0.11242918 -0.033661064 0.10063607
0.08812758 -0.092987135 -0.04383504 -0.035365105 -0.06725059 -0.09683729 0.12980683 0.12219324
0.14757805 -0.097070135 0.12945114 -0.053604193 -0.0415322 -0.047594305 -0.008595766 -0.07741025
0.024175601 -0.11393943 0.07270613 -0.14824897 -0.06408567 -0.12347069 0.1192481 0.12145413
00000000: f44e 253e b426 8fbd a134 a13d f5d6 12be
00000010: 15a1 b2bc 4541 e6bd 2fe0 09bd 491a ce3d
00000020: 3c7c b43d 0a70 bebd 5f8c 33bd 00db 10bd
00000030: adba 89bd a152 c6bd 15ec 043e 7340 fa3d
00000040: b31e 173e b5cc c6bd d78e 043e 1290 5bbd
00000050: ab1d 2abd 3ff2 42bd 41d5 0cbc 4489 9ebd
00000060: e90b c63c 1359 e9bd f4e6 943d 94ce 17be
00000070: 593f 83bd 33de fcbd 5938 f43d f1bc f83d
